教学演示项目/项目1_强化学习智能体训练/results/results/final_model.pth (torch, 935001 bytes, 24 tensors)

network.0.weight f4 [128, 16]
000000 48 b0 a7 3d ab 87 75 3d 5b e0 c9 bd f3 ea 12 3e
       0.0818792 0.059943836 -0.098572455 0.14347439
000010 c4 1c c9 be c9 11 98 be 39 f5 6d 3e 88 55 b4 bb
       -0.3927976 -0.2970107 0.23238076 -0.00550336
000020 d4 71 cf 3e b2 cf 97 3d 80 61 ec bc d1 0b 9a bd
       0.4051653 0.074126616 -0.028855085 -0.07521785
000030 d9 6d 73 bc 4c d5 80 3d 79 0a c6 bd 7b 7c 8d bd
       -0.014857733 0.06290683 -0.09669966 -0.069085084
000040 2a f9 1c 3e c2 e2 4a 3e 8a 25 65 be 66 0b 3f 3d
       0.15329424 0.19813064 -0.22377601 0.04664173
000050 64 68 dd be f8 0c cb 3d f0 aa c1 bd 0d b8 4a 3e
       -0.43243706 0.09914583 -0.09456432 0.19796772
000060 d6 d2 4b 3f 74 3c 68 3e 36 f2 02 bd 77 99 1b be
       0.79618585 0.22679311 -0.03196927 -0.15195261
000070 76 76 92 3d 1c 44 39 bd dd 89 2c be b9 54 1f be
       0.07151501 -0.04523097 -0.16849466 -0.15559663
000080 a6 26 34 3d d4 27 86 3e 21 02 f6 bc d0 74 3c 3e
       0.04398217 0.2620226 -0.030030312 0.18403935
000090 3d 5e fc be 25 5b 99 3e a6 dd 1c 3c 53 e0 e2 bd
       -0.49290648 0.2995235 0.0095743295 -0.11077943
0000a0 f0 a3 c5 3d 44 6e 38 bc b5 a6 34 3d f9 19 32 be
       0.09650409 -0.011256758 0.044104297 -0.1739272
0000b0 82 d5 a7 3c 3b 6e c0 3d 0d 2c b1 3c 99 d1 16 3d
       0.02048755 0.09396025 0.02162745 0.03682098
0000c0 54 4f 9c be 5d 04 22 be 61 e8 88 3b 09 e1 ab bd
       -0.30529273 -0.15821977 0.0041780923 -0.083925314
0000d0 9a 0f 06 be 3d 74 18 3d a1 c0 5e be 11 69 b4 bd
       -0.13091889 0.03722023 -0.2175317 -0.08809102
0000e0 2d cc 3e 3e 56 1e 69 3d 8c 5d b8 bd 81 69 1e be
       0.18632574 0.056913696 -0.09002218 -0.15469934
0000f0 f5 a8 ec 3e 7e 54 b7 bc ba ad c5 bd ab b8 ce 3b
       0.46222654 -0.022379156 -0.09652276 0.006308635
000100 6b 8b 9f bc 82 f9 a0 be 3e d6 19 3e 61 e7 fe 3d
       -0.01947566 -0.3144036 0.15023133 0.12446476
000110 6c 17 9c be 26 28 55 3e a7 80 de 3b 2d 76 07 be
       -0.3048662 0.20816097 0.006790239 -0.13228674
000120 6e 4d b1 be 62 a4 9b bd 69 57 8b 3c ad fe 2c 3d
       -0.34629387 -0.07599713 0.017009454 0.042235065
000130 7a a8 37 3e e7 74 ee 3d 1e 9b d8 be 76 12 ad 3e
       0.17935362 0.11643391 -0.42305845 0.33803147
000140 8b 15 4c 3e 12 12 8c 3d e1 cd 95 3d de c9 b4 bc
       0.19930093 0.06839384 0.07314659 -0.022068914
000150 e6 b9 41 bb bf 19 15 3f 04 27 e2 bd f2 d0 44 3d
       -0.0029560267 0.5824241 -0.11042598 0.04805083
000160 90 5a ef 3d 55 79 84 be 99 8c e3 3e 71 e4 4a 3e
       0.11687195 -0.2587382 0.44443205 0.19813706
000170 b3 c5 a4 3d cb dc 2c 3e fa f7 08 be 75 39 01 bd
       0.08045521 0.16881101 -0.13375846 -0.031548936
000180 80 51 59 3e a1 7a dc 3c aa 63 33 3d 28 14 f5 bd
       0.21222496 0.026913943 0.04379622 -0.11966735
000190 17 94 b6 bd da 6f 23 3f 5e 2d 3a 3e e6 79 54 3d
       -0.08914965 0.63842547 0.18181369 0.051874064
0001a0 85 4b 34 bc f7 f8 37 3e 3e 02 20 bd 4a 54 15 be
       -0.011004333 0.17966066 -0.03906464 -0.14582935
0001b0 c1 a5 4d 3e d0 0e 85 bd 4d d6 9c 3d df d4 d1 3e
       0.20082761 -0.06496966 0.07658062 0.4098272
0001c0 0e 2c 4a bf b2 0b 21 bf a9 86 37 be c2 68 9f be
       -0.7897347 -0.6290847 -0.17922463 -0.3113461
0001d0 18 03 d0 3b b3 c6 db be 97 88 bd be 1f 28 82 3d
       0.006348025 -0.42925033 -0.37018272 0.06355309
0001e0 bb 41 5f be c3 a3 91 bd fd 48 7d be 9c 4f 84 3d
       -0.21802418 -0.07111313 -0.24734874 0.06460497
0001f0 68 c9 cb be e7 18 14 be 40 cd e0 be 8d 47 ba 3c
       -0.39802098 -0.14462624 -0.43906593 0.022739196
000200 8a bb 97 3d 4a 0c 51 3c a0 76 de bc 3e 63 24 be
       0.07408817 0.012759278 -0.027156174 -0.16053483
000210 95 39 a4 be 84 ff e3 bd 7f 85 1f 3d ae 01 ca bc
       -0.32075182 -0.1113272 0.03894567 -0.024659004
000220 2f cb 12 3f 8f 6a f8 3d 08 e4 7a be 93 74 af 3d
       0.57341284 0.121296994 -0.2450105 0.08567157
000230 ff 56 3b 3d 99 83 25 bc a2 17 43 bf 7f 6d 96 bd
       0.045737263 -0.010102176 -0.76207936 -0.073451035
000240 13 9a 91 3b 00 f0 37 bc 43 60 34 3e e3 27 88 3d
       0.004443416 -0.011226654 0.17614846 0.06648233
000250 34 66 15 be 5c 73 38 3d e2 f7 ab bc 10 a8 78 3d
       -0.14589769 0.04503189 -0.020992223 0.060707152
000260 77 7f 8d bb 72 29 46 be 3e d8 f7 3d 51 b4 35 3e
       -0.0043181735 -0.19351748 0.12101792 0.17744567
000270 62 37 71 bd 25 36 3b 3c ae 09 27 3d a3 0a aa bc
       -0.058890708 0.011426483 0.040780716 -0.020757025
000280 87 9b 78 3e 4e eb 74 3e 19 40 54 3d 25 c7 35 bd
       0.24278079 0.23917887 0.05181894 -0.044379372
000290 00 8d c1 be 80 18 af 3e 46 bb 24 3d 08 b5 97 bd
       -0.37802887 0.3419838 0.04021766 -0.07407576
0002a0 30 b9 4a 3d 75 b0 dc 3b 89 f5 96 3c 84 a3 2d 3e
       0.049493015 0.0067349025 0.018427627 0.16956908
0002b0 57 a8 17 3e db 7d 57 3c d0 ae 0c bd 90 3c bc 3d
       0.1481031 0.013152565 -0.0343464 0.09191239
0002c0 66 1f c1 3d 79 18 30 3e 32 d3 28 bc 4e 81 d2 bd
       0.09429817 0.17196836 -0.010304259 -0.10278569
0002d0 49 12 d7 be 8a 4d d0 bd ba 96 7a 3e f1 94 ce bd
       -0.42006138 -0.101710394 0.2447156 -0.10087002
0002e0 10 b0 f2 3e 69 41 1d bd 62 d6 92 bd 6a bc 19 3e
       0.4739995 -0.038392458 -0.071697965 0.1501328
0002f0 6a 0e df 3d 84 bc 0e 3e dc 45 ad bd 4f 52 0b bb
       0.10891421 0.139391 -0.0846059 -0.0021258777
000300 94 aa 83 bf 0b 06 2d bf 42 e0 79 be 99 00 81 be
       -1.0286431 -0.67587346 -0.24401954 -0.25195768
000310 83 cd 64 3e b4 f8 89 bd a7 2b d1 be 74 42 b9 3b
       0.22344021 -0.067368895 -0.40853617 0.005653674
000320 bf 5d d5 bd f9 5c 3a 3b 13 36 0f be cc 81 00 bd
       -0.10418271 0.0028436764 -0.13985471 -0.031373784
000330 09 6b a6 be 6d eb 9a bd 1d 05 cd be 42 5e 4e be
       -0.32503536 -0.07564435 -0.40042964 -0.20153144
000340 61 d5 6e 3e 8b ac 9b 3d 76 02 24 3d 32 e0 76 3e
       0.23323585 0.07601269 0.04004141 0.24108961
000350 7e 7a cd be 11 76 65 be f7 77 75 3d 6d 6f f5 3b
       -0.40132517 -0.2240832 0.05992886 0.0074900896
000360 b8 6d 33 3d 9c f2 59 3d 10 df 43 3d 6b 1b 31 3d
       0.043805808 0.053209886 0.04782015 0.04323904
000370 94 23 45 3d 70 e0 01 bd 9d 22 13 3e 42 44 5c 3d
       0.048129633 -0.03170818 0.14368673 0.053776033
000380 a1 72 67 bf 55 7b 24 bf 4a a9 a7 be 79 fa 71 be
       -0.90409285 -0.6425069 -0.32746345 -0.23630704
000390 1e 91 1f 3e 2a 60 e9 bd 38 d0 61 be a1 e3 90 3d
       0.15582702 -0.11395295 -0.22052085 0.07074667
0003a0 c0 06 f0 bd 16 08 9f bd 64 9f 2c be 59 c3 0f 3e
       -0.117200375 -0.07765214 -0.16857678 0.14039363
0003b0 a0 52 92 be ff 50 e0 bd 45 4c a2 be 4d 2a f6 bd
       -0.28578663 -0.10952949 -0.31698814 -0.12019787
0003c0 dc 2d 86 3d ae 6b 39 be d2 38 81 bc 19 d8 98 3c
       0.06551716 -0.18107483 -0.015774164 0.01865773
0003d0 a0 dd af bd 43 9a 1d be 87 d9 06 be 1c 08 c1 3d
       -0.085871935 -0.15390877 -0.13168918 0.09425375
0003e0 32 0b 90 bd 7b 66 97 bc c7 77 7d 3d b1 fb 09 3e
       -0.07033385 -0.018481484 0.061881807 0.13474919
0003f0 7b f0 d7 3d 95 28 bb 3d 64 4e 3d 3e 48 a8 19 3d
       0.10543915 0.091386 0.18486935 0.037514

network.0.bias f4 [128]
000000 4c 02 bb 3c 56 22 12 bd 73 fb 6c 3d 53 d9 28 be
       0.022828244 -0.035677277 0.05785699 -0.16489153
000010 e5 b3 d1 bc 28 96 ba 3d 4d 90 72 3d 5f 33 8a be
       -0.025598476 0.09110671 0.059219647 -0.26992318
000020 db 8d 50 bd be 32 e2 3d b6 8f 8a 3d a0 46 3d 3d
       -0.050916534 0.110448346 0.06765692 0.04620993
000030 00 48 6d be 5b aa 59 3d a3 07 73 be 00 00 00 00
       -0.23171997 0.05314098 -0.23733382 0.0
000040 cb d3 ce bb 62 f5 49 be 5b 80 fd bc 82 b1 0a 3d
       -0.006311869 -0.19722512 -0.030944994 0.03386069
000050 70 98 bd 3d 3a 52 9a 3b 6c de bd 3c 1a c9 c8 3d
       0.09257591 0.004709509 0.023177348 0.09803982
000060 04 32 56 3d 8c d6 26 3d 03 f4 10 be 2d a3 50 be
       0.052293792 0.04073195 -0.14155583 -0.20374747
000070 57 22 44 3d bd 77 5d 3d ac 83 3c bd 3e ee 58 be
       0.04788431 0.05406927 -0.04602401 -0.21184632
000080 00 00 00 00 9c 2a ae 3d 0f d9 87 be 76 7f 8f bc
       0.0 0.08504221 -0.2653279 -0.017516833
000090 db 72 82 be bd e9 2c 3c 2e 5e 20 3c d3 8a ad 3c
       -0.25478253 0.010553774 0.009788079 0.02118436
0000a0 d4 2e b4 3d 3f 13 62 bc ce 81 e1 bb 00 00 00 00
       0.08797994 -0.013798534 -0.006881929 0.0
0000b0 4d 35 ec 3d 59 b2 ea 3d 78 6a ad 3d 3f 1e 6a bd
       0.11533604 0.11459798 0.08467573 -0.05715775
0000c0 de a5 7b be 00 00 00 00 92 cf 8c be b3 52 56 be
       -0.24574992 0.0 -0.27502114 -0.20929985
0000d0 0f 15 e1 3d 41 f3 57 3d cd d2 c9 3d 5d 65 3d be
       0.10990345 0.05272222 0.0985466 -0.18495698
0000e0 1f ac e2 3d 6d 2e 00 bc d9 d5 06 3d 7f 84 c7 3d
       0.11067986 -0.007823569 0.032918785 0.097420685
0000f0 bb 2c cd bd 03 b4 2b 3d 29 8d a7 3c 19 1e 79 be
       -0.10018297 0.04191972 0.020453053 -0.24327888
000100 67 c9 46 3d 55 11 10 3d d4 5c 60 bc 6e 67 91 be
       0.048531916 0.03517278 -0.013694007 -0.28399223
000110 ec 99 3c 3d d0 76 8c be 00 00 00 00 2b 2b 5d 3c
       0.04604523 -0.27434397 0.0 0.013499062
000120 8e 67 94 3d ed 0b 5f bd a0 10 1a be a8 c6 f5 bd
       0.07246314 -0.054454733 -0.15045404 -0.12000781
000130 3b 6a 09 3d ad 0d 86 3c 54 dd 2d bd 00 00 00 00
       0.033548575 0.016363943 -0.042447403 0.0
000140 af 71 9b 3d de 56 13 3e d2 8f b2 bd c6 6d 48 3d
       0.07590043 0.14388606 -0.08718838 0.048932813
000150 96 da 57 3d 53 79 37 be 6d 72 ca 3d 2e 3f eb bb
       0.052698694 -0.17917375 0.09885106 -0.0071791625
000160 e0 62 dd 3c e9 29 81 bb b6 28 37 3d 14 df 88 3d
       0.027024686 -0.0039417637 0.04471656 0.06683174
000170 00 00 00 00 24 63 7c bd c3 9a 30 3d 48 fb 9e bb
       0.0 -0.061617985 0.043116342 -0.0048517324
000180 ba 31 e6 bc e8 aa 62 3d 8e 22 d0 3c dd 90 50 be
       -0.028099883 0.05533877 0.025407102 -0.20367761
000190 62 72 67 bd 73 8d b3 3d d3 be 47 bc d2 af e9 bd
       -0.05650557 0.08767214 -0.012191492 -0.11410488
0001a0 d9 29 77 bd c6 49 9a 3c e9 f6 04 3d 0d 75 59 be
       -0.060342643 0.018834006 0.032462034 -0.21236058
0001b0 49 10 0b 3d 50 59 cd 3c cd 18 33 3d 3b be 1b bc
       0.033951078 0.025067002 0.043724824 -0.009505804
0001c0 b3 28 33 be 90 6c 88 be 27 56 47 be 5c f2 fe 3c
       -0.17495994 -0.26645327 -0.19466458 0.031121425
0001d0 33 08 a9 bc 2c b8 ae 3d 8a 2c bd 3d 6e d3 ce 3d
       -0.020633793 0.08531222 0.09237011 0.10098921
0001e0 e4 9b 9f 3d da fe b5 bc d4 be 95 3d 6b 16 60 bc
       0.07793406 -0.02221625 0.07311788 -0.01367722
0001f0 23 8e 88 3d 35 78 0f be 16 e3 2a be 67 da 90 3d
       0.066677354 -0.14010699 -0.16688189 0.07072907

network.3.weight f4 [128, 128]
000000 7a ab a1 3d 4b d7 aa 3c 4d 73 a5 3d 16 61 9f 3d
       0.07894035 0.020854613 0.080786325 0.077821895
000010 f7 5d 7a bd cf 9f 7c 3d 0b f2 ef 3d a2 bd 29 bf
       -0.061124768 0.061675843 0.11716088 -0.6630498
000020 0d 97 10 be 25 62 b5 bc b1 18 3c be 7d a2 2c 3d
       -0.14120121 -0.022141526 -0.18368794 0.04214715
000030 14 31 af be 98 04 86 3c 0c 59 e6 be 4b 86 b3 bd
       -0.3421713 0.016359612 -0.44989812 -0.08765849
000040 4f 3d 0b bd b3 e2 26 bf c6 d4 0d be 3f 7c cc bc
       -0.033994015 -0.65189666 -0.13850698 -0.024961589
000050 4c 26 9e 3d af 33 32 3d 90 27 90 bd 12 3b 02 3e
       0.07722148 0.04350632 -0.07038796 0.12717846
000060 ee 08 0c 3d 82 38 b6 3c e7 34 5b 3d 86 c8 ba be
       0.034188204 0.022243742 0.05351725 -0.36481112
000070 f3 a5 88 bd c3 52 fa 3d 2a f3 1e be 5b 12 0e be
       -0.06672277 0.12222817 -0.15522447 -0.1387419
000080 96 8e 3e 3c 83 a5 af 3d 28 db 33 bf f2 99 e9 3d
       0.011630675 0.08576491 -0.7025628 0.11406316
000090 a6 e8 4d bf ff 47 fe 3d da ac 90 3d 4f dc 2b be
       -0.8043312 0.12416076 0.07064219 -0.1678326
0000a0 15 a0 c4 bd 4b 22 5c bd 02 d5 16 3e 35 1b 68 3d
       -0.09600846 -0.05374364 0.14729694 0.05666657
0000b0 0a 34 40 3e b8 c2 65 bd 3f 2f 2f 3e 7a 1f 28 3e
       0.18769851 -0.0560939 0.17107867 0.16418257
0000c0 07 d2 77 bf 6d 6a 0f 3d ee 6c 58 bf 2c 2f 1c bf
       -0.9680485 0.035013605 -0.84541214 -0.6100948
0000d0 3d 72 dd bd 7f 17 2f bd 2c c3 58 be 27 16 91 3c
       -0.10812805 -0.042747017 -0.21168202 0.017710758
0000e0 6a ac d6 3d 8b 7c 40 be 0f 7f 8a bd 36 57 b3 3d
       0.10482104 -0.1879751 -0.06762516 0.087568685
0000f0 e0 42 4f bd 03 fb 22 bd cd d1 a7 bd 20 88 38 bf
       -0.050600886 -0.039790165 -0.08194313 -0.7208271
000100 02 50 9a bd f0 38 99 bb bf 0b 1f be 4c 6a 6a bf
       -0.075347915 -0.004675977 -0.15531825 -0.91568446
000110 75 a8 99 3d 50 bd 2f bf 93 72 18 bd 56 79 aa bd
       0.07502834 -0.6864824 -0.03721864 -0.08323924
000120 66 d6 52 3d 6c 34 90 3d 90 57 a4 bd 22 31 7d bd
       0.051473998 0.07041249 -0.08024514 -0.061814435
000130 38 11 cb bd 82 da 88 bc ee aa 2c 3d 24 9f ad bd
       -0.099153936 -0.016705755 0.0421552 -0.08477619
000140 69 79 02 3d 00 8d 28 3d 5c bd 09 3e b0 f4 5c 3e
       0.031854067 0.041150093 0.13451141 0.21577716
000150 22 79 5a bd 0f 4e d2 bd 39 81 7e bc f9 b0 a5 bd
       -0.053338178 -0.10268795 -0.015533739 -0.080903955
000160 6a 48 e9 bc 32 e8 2d 3e 26 3b a2 3c 79 7f de 3d
       -0.028476913 0.16983107 0.019803595 0.10864157
000170 0b 5c bc 3a ea 78 24 3e fc 1e f4 bd 88 7b 0c 3e
       0.0014370693 0.1606175 -0.11919972 0.13718998
000180 4e 9c 27 3d 28 60 8e 3e 71 c6 0f 3e 63 c7 4c bf
       0.04092055 0.27807736 0.14040543 -0.7999174
000190 d1 5d 4e 3e 23 2d 07 3e 94 7b 12 be 9a ad e5 3c
       0.20152976 0.13200812 -0.14304954 0.028036881
0001a0 13 c7 7c 3b 5f 25 fa 3d db 10 7e 3d 5e e0 3e be
       0.0038570806 0.12214159 0.062027793 -0.18640277
0001b0 5c 4b 67 bd 83 3f f7 3c cd d7 96 3d 5a 18 37 3d
       -0.056468353 0.030181652 0.073653795 0.044700958
0001c0 c2 5a 66 bd 4e f2 6f be 8c 82 a8 bd 1c bd 9c bd
       -0.056238897 -0.23432276 -0.08228025 -0.07653257
0001d0 d0 5f ff 3d 95 5a 2d 3e a1 d6 e1 3d e6 24 09 bd
       0.12469447 0.16929086 0.11027265 -0.033482455
0001e0 7f 5a 54 3e 0e 1e 2a bb 5b 36 2c 3d 58 0c b8 bd
       0.20737647 -0.0025957855 0.042044025 -0.089867294
0001f0 d2 1a 49 bd ff 67 f4 3b bc 04 8a 3c 7a e5 a4 3c
       -0.049097843 0.0074586864 0.01684796 0.020128954
000200 e6 37 59 3d 76 b7 0d 3d 66 7c 29 3e 1b 10 30 3e
       0.053031825 0.03459879 0.1655136 0.17193644
000210 57 c5 e8 3c 7d c9 99 bd 69 a7 c2 3c df 6e 25 bf
       0.028414411 -0.07509134 0.023761468 -0.646223
000220 97 cf 92 bd e5 87 48 3e 90 f9 df 3c 88 3a 43 be
       -0.07168501 0.1958309 0.02734068 -0.19065297
000230 43 53 fa be e1 df af 3c 29 1c f7 be 50 01 60 bb
       -0.4889165 0.021469058 -0.48263672 -0.003418047
000240 35 e0 1c 3c 79 3d 54 bf bc 9c 4c 3d 32 62 d4 3c
       0.0095749395 -0.829063 0.04995416 0.02592573
000250 31 eb 4c 3c 2a f8 12 3d 86 ee 8f bb 4d 70 02 3e
       0.012507246 0.0358812 -0.004392448 0.12738152
000260 74 c7 8b bd 11 ee 89 bd b5 28 94 3e b6 a5 d4 be
       -0.06825152 -0.06734861 0.28937307 -0.41532677
000270 3b b6 84 3d 6a 55 b9 3d ab 7d 82 3d a1 7f 50 3d
       0.0648007 0.090494946 0.063716255 0.050902966
000280 40 c0 ff 3d 2f 75 3e 3d a6 30 15 bf 85 03 a5 bd
       0.12487841 0.046498474 -0.58277357 -0.08057312
000290 74 43 48 bf 92 03 30 3e 87 8e 38 bb 5f ce 0a bd
       -0.78227925 0.17188862 -0.0028161125 -0.033888217
0002a0 2b 42 00 be e0 81 91 3d 55 fe 20 3e 84 9a 0e be
       -0.12525241 0.0710485 0.1572202 -0.1392613
0002b0 a4 16 86 bd f8 81 06 3e 0a 44 fc bd a1 f3 40 3d
       -0.06547287 0.13135517 -0.12317665 0.047107343
0002c0 ea 7b 4b bf 2d fe cf 3d 1e fb 5e bf 9b 60 3d bf
       -0.7948595 0.10155902 -0.87101924 -0.73975533
0002d0 38 d6 87 3e ec 0a 3e 3e 2f ae 3e be 09 9c 45 be
       0.26530623 0.18558854 -0.18621133 -0.19297804
0002e0 da 4a dd 3d d8 4b 23 3e 16 8e c5 bd 56 d2 95 3d
       0.108052924 0.15946901 -0.09646241 0.07315509
0002f0 00 67 4d be c0 5f dc 3d 94 95 0f 3e fb cd 4a bf
       -0.20058823 0.1076045 0.14021903 -0.7922055
000300 60 0f 00 3d f0 fa 2d be a6 bf fa 3c a2 d7 48 bf
       0.031264663 -0.16990256 0.030608963 -0.7845403
000310 cb ee d8 3c 08 00 2b bf 89 10 5b bd 62 15 a5 bd
       0.026481053 -0.6679692 -0.053482566 -0.08060719
000320 b1 99 4e 3e f9 1b b8 3d b5 06 c2 bd ce b7 6f bd
       0.20175816 0.0898971 -0.094739355 -0.0585249
000330 72 bb 51 bd 97 cf 94 bd e5 a2 12 3e 24 12 12 bd
       -0.051204152 -0.07266157 0.14319952 -0.03566183
000340 e8 a4 de bc 70 70 01 be bc 9c f1 3d 2e b4 de 3d
       -0.027178243 -0.12640548 0.11797473 0.1087421
000350 6d c1 c0 3d e9 6b a4 3a fa 60 fc 3d c0 1b 3a bc
       0.09411893 0.0012544367 0.12323184 -0.011359155
000360 17 a9 4f 3e 9e e5 31 3e 71 88 57 bd 93 06 3b 3e
       0.20279346 0.17372748 -0.052620355 0.18264227
000370 00 b5 d0 bd 94 6e ad 3d 89 a4 87 bd 5e 0c 6e bd
       -0.10190773 0.08468357 -0.066231795 -0.058117263
000380 f3 41 8f bd 40 73 34 3d db 60 bc 3d 56 bb 5b bf
       -0.06995001 0.044055223 0.09198161 -0.85832727
000390 5f a7 17 3e 80 f8 25 3e 5b 64 e6 bd 3c 78 bd bd
       0.14809941 0.16208076 -0.1124961 -0.092514485
0003a0 90 3f 9e 3d d2 f9 2d bd 68 aa 12 3c 43 72 f3 bd
       0.07726967 -0.042474575 0.008951761 -0.11887028
0003b0 6a 41 a0 bd c2 c2 b1 3d 5c 4a 03 3e dd 3b 09 3e
       -0.07824977 0.08679725 0.12821335 0.13401742
0003c0 b1 6b 8a be ff 61 78 be 03 3b ab be 21 32 cb bd
       -0.27035287 -0.24256133 -0.3344346 -0.09921671
0003d0 39 2e bb 3c 26 8f 1d be ea f9 a9 3c ae f9 b3 3c
       0.02284919 -0.15386638 0.020749051 0.021969642
0003e0 8d 59 46 3e c9 08 19 3e c8 cd 26 3e 59 e2 17 3d
       0.19370098 0.14944758 0.16289437 0.037081096
0003f0 21 ab 31 3e fd 28 0e be 2b d1 d7 3d b9 16 b9 3d
       0.17350437 -0.13882823 0.105379425 0.09037537

network.3.bias f4 [128]
000000 dd a6 ee 3f fa 32 e2 3f c4 ee db 3f a3 93 ea 3f
       1.8644673 1.7671807 1.718224 1.8326305
000010 1b 9b 77 3e bb 82 bb 3f 65 14 42 3e 65 ba 21 3f
       0.24180262 1.4649271 0.18953092 0.6317504
000020 0d 90 e2 3f 48 8b 93 3f 86 aa db 3f e7 39 e7 3f
       1.7700211 1.152688 1.7161415 1.8064545
000030 d0 91 e8 3f 65 08 da 3f 6d dc de 3f 0d e9 12 3f
       1.8169498 1.7033812 1.7411019 0.5738686
000040 fc cf e4 3f 07 0b 95 3e 2c b5 0f 3e f5 32 e5 3f
       1.7875972 0.29109976 0.14033955 1.7906176
000050 27 08 57 3f da d7 e4 3f 02 07 f1 3f 89 70 c8 3f
       0.83996814 1.7878373 1.8830264 1.5659343
000060 ab a3 cd 3e 53 c0 e8 3e f7 cb e4 3f 23 c1 e3 3f
       0.4016393 0.45459232 1.7874745 1.7793316
000070 0e 7a 8f 3e 24 fa e3 3f db 00 e6 3f 84 86 f7 3e
       0.28022808 1.7810712 1.7969011 0.48344815
000080 e4 d5 9b 3e 8b 74 d9 3f 27 b8 da 3f 25 e8 c1 3e
       0.30436623 1.6988691 1.7087449 0.37872425
000090 89 6a f3 3d 46 f7 db 3f 5e af c5 3f 54 df db 3f
       0.11885554 1.7184837 1.5444143 1.7177529
0000a0 0f 46 24 3e 64 8a 15 3f ab 07 d7 3f 10 98 1c 3f
       0.1604235 0.5841429 1.6799215 0.6116953
0000b0 a3 87 b5 3d f2 d5 8a 3e 26 13 bd 3e e4 98 c4 3f
       0.08863761 0.27116352 0.36928672 1.5359159
0000c0 5b 4f dd 3f 5b 56 d5 3f 19 0b e8 3f cf 65 05 3f
       1.7289842 1.6666979 1.8128387 0.5210847
0000d0 dd 31 1d 3f fc 2b c0 3f 4a 4f e7 3f b6 e3 e4 3f
       0.6140421 1.5013423 1.8071072 1.7881992
0000e0 ed d5 22 3f 98 c5 c8 3e b7 b6 f2 3f fc 16 e1 3f
       0.63607675 0.39213252 1.896201 1.7585139
0000f0 e2 dd 15 3f 66 4e e3 3f 2b 7e dd 3f 83 11 d7 3f
       0.5854169 1.77583 1.7304128 1.6802219
000100 22 47 df 3e 76 ae c1 3f 00 95 d1 3f 34 6d ea 3e
       0.43608958 1.5131366 1.6373596 0.4578644
000110 5d 32 e3 3f 87 a4 c9 3f 57 a8 dc 3f 5b 49 e6 3f
       1.7749745 1.5753335 1.7238873 1.7991136
000120 57 8f 99 3e f4 ad e4 3f 98 cd e0 3f 39 df a3 3e
       0.29992172 1.7865586 1.7562742 0.32006243
000130 ab 8d f2 3f 2b be e2 3f 89 b7 da 3f 12 ea 0e 3f
       1.8949484 1.7714285 1.708726 0.5582591
000140 cb 5a cd 3f 67 31 d9 3f 01 94 0b 3e 67 94 5f 3e
       1.6043333 1.6968201 0.13630678 0.21833955
000150 dc ec 4f 3f 45 58 d1 3f 48 d8 00 3f 5f 29 e2 3f
       0.81220794 1.6355063 0.5033002 1.7668875
000160 a3 bd e2 3e 1e 33 db 3f a6 3a e7 3f 6e 44 e0 3f
       0.44285306 1.7124975 1.8064773 1.7520883
000170 02 7f 63 3f db b1 e0 3f e3 8e af 3f ad 00 52 bf
       0.88865674 1.7554277 1.371548 -0.8203228
000180 04 3b ab 3e 7a 8e d6 3f b1 67 f7 3e d6 b0 10 be
       0.33443463 1.676223 0.48321298 -0.14129958
000190 33 f1 fd 3e 3f 22 74 bd 5d f1 de 3f c0 48 dd 3f
       0.49598083 -0.059602972 1.7417408 1.7287827
0001a0 e9 1d e7 3f f7 9f e1 3f be 48 17 3f 45 12 e2 3f
       1.8056003 1.7626942 0.5909537 1.7661825
0001b0 f8 1f da 3f 6e fb da 3f 5c a1 db 3f f7 0c 1e 3f
       1.7041006 1.710798 1.7158618 0.6173853
0001c0 fb ec e2 3f 76 3b 9a 3e 0d fe da 3f dc ac de 3f
       1.7728571 0.3012349 1.710878 1.7396502
0001d0 3d c5 f6 3e af e5 d5 3f 1c 61 9e 3e e2 c9 e1 3f
       0.48197356 1.6710719 0.30933464 1.7639735
0001e0 54 3a 1c 3f 41 d2 f4 3e 5e 5a de 3f 8c b6 4f 3f
       0.610265 0.4781666 1.7371328 0.8113792
0001f0 1e 80 e0 3f 88 57 09 3f 95 22 da 3f 51 b8 ad 3e
       1.7539098 0.5364919 1.7041804 0.33929685

network.6.weight f4 [5, 128]
000000 6a 52 da 3e 47 a0 cf 3e 81 fd eb 3e d3 01 da 3e
       0.42641002 0.4055197 0.46091846 0.42579517
000010 70 b3 cd 3e 2a 69 9f 3e 4e 93 f2 3d 16 4c 82 be
       0.40175962 0.3113492 0.118445024 -0.25448674
000020 99 6f df 3e 22 9c a6 3e cb 9e b6 3e 32 0d a7 3e
       0.4363983 0.32540995 0.35668024 0.32627255
000030 3c f2 a8 3e f5 34 ff 3e 2d b7 f4 3e 94 f6 47 bf
       0.3299731 0.4984509 0.47796002 -0.78110623
000040 d4 a5 e7 3e b6 33 75 3e b4 82 83 bf 70 eb 1d 3f
       0.45243704 0.23945507 -1.0274262 0.61687374
000050 9b 1c 8e 3e 2d 7f d7 3e 7e cd de 3e 4d 83 da 3e
       0.277562 0.42089215 0.43516153 0.426783
000060 b1 8e 76 bf d5 8a 7c bd 62 c2 ec 3e 22 a4 d5 3e
       -0.9631148 -0.061655838 0.46242052 0.41726786
000070 d0 46 86 3e 3a 19 d5 3e 33 9f 10 3f c9 9c 27 bf
       0.262259 0.4162081 0.5649292 -0.6547361
000080 e7 c3 4a bf bd 11 d7 3e eb e2 de 3e 68 9c 41 bf
       -0.79205173 0.4200572 0.435325 -0.7562928
000090 84 2b ca 3e ca 9a eb 3e 71 ab bb 3e 64 7a f8 3e
       0.39486325 0.46016532 0.36654237 0.48530877
0000a0 02 5a 78 3e e4 1a b2 bd cf 57 b9 3e fd e8 ab be
       0.24253085 -0.08696535 0.36199805 -0.33576193
0000b0 38 f9 a4 3e ea 78 4c bf b1 db 03 3f 40 d8 b6 3e
       0.3222139 -0.79872 0.515071 0.3571186
0000c0 a8 c9 de 3e ba f2 d4 3e b6 2e d5 3e 05 0f 03 bf
       0.43513227 0.41591436 0.416372 -0.51194793
0000d0 3c 91 2a bf 76 16 ac 3e 54 ea d0 3e 13 9a ba 3e
       -0.6662786 0.33610886 0.40803778 0.36445674
0000e0 e2 3c b2 be 69 ce 60 bf 10 bd db 3e 44 3f fd 3e
       -0.34812075 -0.87814957 0.4291768 0.4946233
0000f0 5e 7f 5a be 04 c9 bc 3e 64 cf eb 3e 9a 82 be 3e
       -0.21337649 0.36872113 0.46056664 0.37209016
000100 23 86 bd be 90 cc e0 3e ed f9 18 3f fb 7b a1 3d
       -0.370164 0.4390607 0.59756356 0.078849755
000110 c1 3c c5 3e 5e 46 c0 3e 85 31 e4 3e 54 bd ef 3e
       0.38522914 0.37553686 0.4456903 0.46824133
000120 c9 32 bd be e3 21 b9 3e 48 ca d1 3e bf 83 34 bf
       -0.36952808 0.36158666 0.4097464 -0.7051353
000130 d1 0b e0 3e ec 1e a9 3e 28 a2 03 3f da ce a5 be
       0.43759015 0.33031404 0.51419306 -0.32384378
000140 18 d5 a6 3e b7 5f 04 3f fa eb bc 3e 85 cb 52 bf
       0.32584453 0.5170855 0.36898786 -0.82341796
000150 a0 58 9b 3e cc a0 aa 3e 0a f4 ec be 52 53 07 3f
       0.30341053 0.33325803 -0.46279937 0.5286151
000160 86 63 1c bf 91 71 ed 3e 36 70 ec 3e 27 76 d2 3e
       -0.6108936 0.46375707 0.4617936 0.41105768
000170 94 17 c5 3e b2 cc e2 3e 83 d6 ab 3e 23 4d b2 bd
       0.3849455 0.44296795 0.33562097 -0.08706119
000180 77 17 6f bf e2 7f e5 3e af 75 88 bf ba 1b d2 3d
       -0.9339518 0.4482413 -1.0660914 0.10259195
000190 e8 15 56 bf 0a 3d ff 3c 54 86 ca 3e 70 f6 ef 3e
       -0.83627176 0.031157035 0.3955561 0.46867704
0001a0 19 d3 be 3e 5c c1 06 3f 1c 29 c8 be 00 39 04 3f
       0.3727043 0.52638793 -0.39093864 0.51649475
0001b0 f9 2f a4 3e 3b 07 a1 3e b0 fc c5 3e 26 8f cf be
       0.3206785 0.3145083 0.38669348 -0.405389
0001c0 25 66 05 3f a7 3f 85 3e a9 3e 04 3f fb 00 d3 3e
       0.52108985 0.26025125 0.5165811 0.41211686
0001d0 1f 3a 4c bf 95 4f b7 3e 6c a9 d7 3e 88 82 c0 3e
       -0.79776186 0.35802904 0.42121446 0.37599587
0001e0 b2 50 53 bd 71 d9 1f bf 77 b6 01 3f a9 d0 a2 3e
       -0.05159063 -0.62441164 0.50669044 0.3179982
0001f0 05 26 f2 3e a5 23 f0 be 1d e4 f1 3e a3 6d d6 3e
       0.47294632 -0.46902195 0.4724435 0.4188052
000200 64 41 c9 3e 86 fe df 3e 70 01 fe 3e db 02 d5 3e
       0.39307702 0.43748873 0.49610472 0.4160374
000210 6d a8 2e bf ef 40 ab 3e d2 11 0c 3e a8 fc 0d bf
       -0.6822575 0.33447978 0.13678673 -0.5546365
000220 e6 61 cc 3e d3 29 be 3e e1 f4 b7 3e 3a 1f bc 3e
       0.3991844 0.37141284 0.35929015 0.36742574
000230 4b 07 bf 3e f0 80 fe 3e 32 f6 d5 3e d3 a9 41 bf
       0.37310252 0.49707747 0.41789395 -0.75649756
000240 c3 5b e2 3e 86 cd 53 3f c1 0c 3a be 00 f0 33 3f
       0.44210634 0.8273548 -0.18168928 0.70288086
000250 4f 68 98 3e ce 14 d4 3e d1 18 d8 3e 94 d3 e7 3e
       0.2976708 0.41422123 0.42206433 0.4527861
000260 3e 92 6d 3d 23 bf 81 3c aa 1d c8 3e 24 36 eb 3e
       0.058000796 0.015838211 0.39085132 0.45939744
000270 6b 7a 28 bf ba 5e e3 3e 35 6b fc 3e 9c d2 14 bf
       -0.65811795 0.44408208 0.49300542 -0.58133864
000280 f9 9d 24 bf 4e 6d c3 3e 8a 2e e3 3e 11 e7 d5 be
       -0.6430355 0.3816933 0.44371444 -0.41777852
000290 aa 85 36 bf 17 43 03 3f 9c 89 aa 3e c8 16 fe 3e
       -0.71297705 0.51274246 0.33308113 0.49626756
0002a0 34 3a 98 3e fc 09 c9 3e e3 b0 c2 3e 16 fa 34 bf
       0.29731905 0.3926543 0.3802558 -0.706941
0002b0 bc ac 2f bf 6d d5 e6 be 28 74 45 bf f4 c9 bb 3e
       -0.68622947 -0.45084706 -0.77130365 0.36677516
0002c0 c0 49 02 3f 11 54 cc 3e 24 13 e6 3e e1 21 11 bf
       0.50893784 0.39907888 0.44936478 -0.5669232
0002d0 de 7f 84 bf a7 9c 93 3e 07 0c ca 3e 59 79 c6 3e
       -1.0351522 0.28830454 0.394623 0.38764456
0002e0 0b 06 20 bf a0 e6 f0 be 7a 2a cd 3e 73 88 00 3f
       -0.6250922 -0.47050953 0.4007147 0.50208205
0002f0 c5 cc d0 be b8 63 dc 3e e8 a7 ef 3e a9 e3 fd 3e
       -0.40781227 0.4304483 0.4680779 0.49587753
000300 d9 f2 21 bf b1 70 cc 3e 8a 90 1d 3f 39 0c 0f bf
       -0.6326118 0.39929727 0.61548674 -0.55878025
000310 3c 74 c8 3e 80 79 bf 3e 2d 89 f8 3e fd 5c eb 3e
       0.3915118 0.37397385 0.48542157 0.45969382
000320 65 6f a0 be f6 ca d3 3e 11 dd de 3e 6a bc 0d bf
       -0.31334987 0.41365784 0.43528035 -0.5536562
000330 3c 57 bd 3e d0 2f b1 3e 74 86 f7 3e 12 56 31 bf
       0.36980617 0.3460679 0.48344767 -0.6927196
000340 1c 02 aa 3e a7 57 12 3f f3 88 57 bf a8 8b 0c bf
       0.33204734 0.57164997 -0.8419334 -0.549006
000350 6b 3b 9d 3e e5 59 e6 3e 83 39 6c 3e af cb 18 3f
       0.30709395 0.4499046 0.23068814 0.59685796
000360 37 b8 7d 3e 43 da 10 3f b9 e3 f5 3e 23 f9 cb 3e
       0.24777304 0.5658304 0.480253 0.39838514
000370 9e b1 01 3f ef d6 f5 3e 3e 19 c4 3e 87 bd 43 bf
       0.5066165 0.48015544 0.38300508 -0.7646107
000380 89 d0 38 3e e8 4c fc 3e f0 cb b2 3e 2e e0 23 be
       0.180483 0.49277425 0.34921217 -0.16003487
000390 76 f8 11 bf 34 30 be ba 45 ad c5 3e 4a dc f0 3e
       -0.57019746 -0.0014510215 0.38608757 0.47043067
0003a0 d6 66 c8 3e db ab fb 3e 0a 74 22 bf 6e 5d e2 3e
       0.39140958 0.49154553 -0.6345831 0.44211906
0003b0 d3 8a ab 3e 80 57 a0 3e 3c a7 cb 3e c6 d2 09 bf
       0.33504352 0.31316757 0.39776027 -0.5383724
0003c0 ba b1 ef 3e 13 85 03 bf cf ac 06 3f c9 4a ee 3e
       0.46815282 -0.5137493 0.52607435 0.46541432
0003d0 ae 9d 48 bf 89 f4 ab 3e 36 ac c2 be f6 ba b3 3e
       -0.783656 0.33585003 -0.38022012 0.35103577
0003e0 41 a3 ac 3e 2d 0f 80 bd 6c f2 fe 3e 96 9c ba 3e
       0.33718303 -0.062528946 0.49794328 0.3644759
0003f0 eb 27 08 3f 99 9a 9d 3e 98 45 f1 3e 82 71 a5 be
       0.5318591 0.3078201 0.47123408 -0.32313162

network.6.bias f4 [5]
000000 c1 80 0f 40 e5 d0 60 40 be de 0e 40 52 e5 55 40
       2.2422335 3.51275 2.232345 3.3421216
000010 2a 50 b9 3e
       0.36193973

network.0.weight f4 [128, 16]
000000 70 85 a8 3d b7 a6 78 3d 88 39 c7 bd 5c 3e 14 3e
       0.08228576 0.060705867 -0.0972777 0.14476913
000010 7c e7 c6 be f9 fe 97 be 16 27 6f 3e 12 c9 4c bc
       -0.38848484 -0.29686716 0.23354754 -0.012499111
000020 b8 62 cd 3e 78 9e 89 3d 3c 70 09 bd d1 0b 9a bd
       0.4011438 0.06719679 -0.0335543 -0.07521785
000030 7f 68 ae bc 02 36 59 3d e0 97 cf bd 04 02 85 bd
       -0.021290062 0.05303002 -0.1013639 -0.06494525
000040 8a 49 21 3e 3e b2 4f 3e c6 31 63 be 79 da 46 3d
       0.15750709 0.20282838 -0.22186956 0.048548196
000050 e1 83 e1 be bf bb d0 3d 52 e5 bd bd a4 4a 37 3e
       -0.44045928 0.1019206 -0.09272255 0.17899567
000060 d6 d2 4b 3f 7a 20 6c 3e b4 55 f1 bc 77 99 1b be
       0.79618585 0.23059264 -0.029459812 -0.15195261
000070 ef c2 9d 3d c1 50 25 bd 91 8a 29 be b9 9a 1b be
       0.07703196 -0.040360216 -0.16556765 -0.15195741
000080 b7 c9 4a 3d 72 b9 87 3e 38 42 de bc cd 6c 3f 3e
       0.049508777 0.2650867 -0.027131185 0.18693848
000090 8f 2c fb be d2 81 9b 3e 06 bb 47 3c a3 3a e0 bd
       -0.49057433 0.30372483 0.012190586 -0.10948684
0000a0 26 6d b4 3d 4b ab 54 bc c6 7b 38 3d f9 19 32 be
       0.08809881 -0.012980293 0.045039915 -0.1739272
0000b0 ec f5 83 3c 38 01 ba 3d 32 03 a2 3c a0 6f 19 3d
       0.016108476 0.09082264 0.019776914 0.03745997
0000c0 54 4f 9c be 5d 04 22 be 61 e8 88 3b 09 e1 ab bd
       -0.30529273 -0.15821977 0.0041780923 -0.083925314
0000d0 9a 0f 06 be 3d 74 18 3d a1 c0 5e be 11 69 b4 bd
       -0.13091889 0.03722023 -0.2175317 -0.08809102
0000e0 2d cc 3e 3e 56 1e 69 3d 8c 5d b8 bd 81 69 1e be
       0.18632574 0.056913696 -0.09002218 -0.15469934
0000f0 f5 a8 ec 3e 7e 54 b7 bc ba ad c5 bd ab b8 ce 3b
       0.46222654 -0.022379156 -0.09652276 0.006308635
000100 64 05 e7 bc 7b 13 a8 be 71 a8 0d 3e cc 8b e6 3d
       -0.028200813 -0.32827362 0.13833787 0.11257133
000110 1d f6 a0 be 67 08 4b 3e 6b 22 a5 bb c0 79 f8 bd
       -0.3143777 0.19827424 -0.0050395033 -0.12132597
000120 6a 98 af be f1 e0 7c bd 22 15 ee 3c ad fe 2c 3d
       -0.3429597 -0.06173796 0.029062811 0.042235065
000130 53 43 3a 3e cc 95 01 3e 44 c0 d5 be cc c7 a9 3e
       0.18189745 0.12654799 -0.4174825 0.33160245
000140 30 db 47 3e 86 a1 9a 3d 16 0e 97 3d 08 c9 af bc
       0.19517207 0.075503394 0.073757336 -0.021458164
000150 a7 7c aa bb 00 eb 12 3f 69 12 df bd a6 30 4c 3d
       -0.005202848 0.5738983 -0.10892183 0.049851082
000160 83 c8 f4 3d d5 78 81 be 0e 2a e2 3e 71 e4 4a 3e
       0.11952307 -0.252875 0.4417271 0.19813706
000170 25 e0 a9 3d 31 5f 3b 3e 00 e0 f1 bd 1b 9a 25 bd
       0.08294705 0.18298031 -0.11810303 -0.04043017
000180 ca 5e 55 3e d7 bc 09 3c 05 12 26 3d f7 bc fb bd
       0.2083694 0.008406839 0.04054453 -0.122919016
000190 ed f6 aa bd e2 75 23 3f 24 75 36 3e 1f 15 00 3d
       -0.083478786 0.6385175 0.17818123 0.031270143
0001a0 63 46 a6 bc 28 e7 1c 3e 72 f6 5c bd 4a 54 15 be
       -0.020297235 0.15322554 -0.053945966 -0.14582935
0001b0 56 ea 45 3e ea ff 90 bd 26 33 9e 3d f4 a3 d7 3e
       0.19327673 -0.07080062 0.077245995 0.42117274
0001c0 0e 2c 4a bf b2 0b 21 bf 00 7b 35 be e5 62 9e be
       -0.7897347 -0.6290847 -0.17722702 -0.30934826
0001d0 e2 0b 09 3c aa c0 da be c1 82 bc be 75 21 7c 3d
       0.0083646495 -0.42725116 -0.36818507 0.061555345
0001e0 d0 5b 61 be c8 ae 95 bd 4a 6b 7f be 9c 4f 84 3d
       -0.2200768 -0.073087275 -0.24943271 0.06460497
0001f0 05 da cc be 90 24 16 be 20 d5 e1 be 40 d2 d3 3c
       -0.40010086 -0.14662385 -0.44107914 0.025857091
000200 32 3e 99 3d 08 b0 38 3c 5f d7 d7 bc 55 8f 23 be
       0.07482566 0.011272438 -0.026347814 -0.15972646
000210 2b 66 a3 be 7a 60 e2 bd b6 05 23 3d 6f e4 f6 bc
       -0.31913885 -0.11053558 0.03980037 -0.030138223
000220 81 d5 11 3f b9 f4 e2 3d 1f 8e 80 be 93 74 af 3d
       0.56966406 0.110818334 -0.2510843 0.08567157
000230 48 51 11 3d af 39 81 bc b3 dd 41 bf b5 bc a8 bd
       0.035477906 -0.015774576 -0.7572891 -0.08239118
000240 12 e1 be 39 92 03 84 bc 8e 36 32 3e 7c d4 83 3d
       0.00036407314 -0.016114984 0.17403623 0.064370126
000250 3a c8 12 be 42 25 32 3d fd 01 be bc 59 eb 8e 3d
       -0.14334193 0.043492563 -0.023194307 0.06978483
000260 e0 05 c0 bb 16 d1 43 be 13 12 01 3e 51 b4 35 3e
       -0.0058600754 -0.19122729 0.12604551 0.17744567
000270 cd 50 6f bd 92 90 91 3c a8 79 33 3d 6e 3e ac bc
       -0.058426667 0.017769132 0.043817192 -0.021025863
000280 8b 26 74 3e 0d b8 74 3e e4 50 4d 3d 5a b6 3c bd
       0.23842828 0.23898335 0.05012597 -0.04607234
000290 8e 46 c1 be bd 51 ac 3e 44 fb 1e 3d 5a ad 9f bd
       -0.3774914 0.3365611 0.038813844 -0.07796736
0002a0 0a 76 6c 3d f2 33 d5 3b d4 8c c4 3c 84 a3 2d 3e
       0.05772976 0.0065064365 0.023992933 0.16956908
0002b0 5c 02 12 3e 59 8c 58 3c 89 da 04 bd 33 33 c4 3d
       0.14258713 0.013217055 -0.032434974 0.09580078
0002c0 64 4c c1 3d f3 70 30 3e 48 11 5e bc 10 29 d9 bd
       0.094383985 0.17230587 -0.013553925 -0.10603535
0002d0 d7 9b da be 84 b9 d4 bd 25 23 77 3e b0 7c d6 bd
       -0.4269702 -0.10386947 0.241345 -0.10473001
0002e0 10 b0 f2 3e 02 3d ef bc f3 c9 9a bd 6a bc 19 3e
       0.4739995 -0.029203895 -0.0755805 0.1501328
0002f0 00 57 de 3d a6 69 10 3e 30 34 b5 bd 3f 7b 6d 3b
       0.10856438 0.14102802 -0.088478446 0.003623679
000300 94 aa 83 bf 0b 06 2d bf 00 3a 78 be 7b 2d 80 be
       -1.0286431 -0.67587346 -0.24240875 -0.250347
000310 05 7c 66 3e 79 ac 86 bd 8a 58 d0 be b9 70 84 3b
       0.22508247 -0.06575865 -0.4069255 0.004041758
000320 85 dc d8 bd be de 9e 3a ba fd 10 be cc 81 00 bd
       -0.10588936 0.0012120826 -0.14159289 -0.031373784
000330 24 58 a7 be 56 3a 9e bd e7 ff cd be ee 40 4e be
       -0.32684433 -0.077259704 -0.402343 -0.20141956
000340 76 63 73 3e d3 dc 9d 3d f3 7b 29 3d 8e 3e 78 3e
       0.2376841 0.077081345 0.041377973 0.24242613
000350 3a 3f cd be 62 cb 60 be 14 44 79 3d e9 e0 cc 3b
       -0.400873 -0.21952584 0.06085594 0.0062523973
000360 04 08 45 3d 2e 20 44 3d 67 02 4b 3d 6b 1b 31 3d
       0.048103347 0.04788225 0.049562838 0.04323904
000370 af 96 47 3d b9 02 0a bd a0 ec 10 3e 00 a5 62 3d
       0.048727687 -0.033694003 0.14152765 0.055333138
000380 a1 72 67 bf 55 7b 24 bf d1 8a a8 be 83 bd 73 be
       -0.90409285 -0.6425069 -0.3291841 -0.23802762
000390 1e c5 1d 3e a0 e4 ec bd 50 93 63 be b3 69 94 3d
       0.15407225 -0.11567044 -0.22224164 0.07246723
0003a0 6a 42 ec bd 74 7d 9b bd a8 ba 2a be 59 c3 0f 3e
       -0.11536105 -0.07592288 -0.16672766 0.14039363
0003b0 57 4c 91 be d2 ca dc bd be 40 a1 be 57 89 f6 bd
       -0.28378555 -0.107808724 -0.31494707 -0.12037914
0003c0 dc 2d 86 3d ae 6b 39 be d2 38 81 bc 19 d8 98 3c
       0.06551716 -0.18107483 -0.015774164 0.01865773
0003d0 a0 dd af bd 43 9a 1d be 87 d9 06 be 1c 08 c1 3d
       -0.085871935 -0.15390877 -0.13168918 0.09425375
0003e0 32 0b 90 bd 7b 66 97 bc c7 77 7d 3d b1 fb 09 3e
       -0.07033385 -0.018481484 0.061881807 0.13474919
0003f0 7b f0 d7 3d 95 28 bb 3d 64 4e 3d 3e 48 a8 19 3d
       0.10543915 0.091386 0.18486935 0.037514

network.0.bias f4 [128]
000000 99 9d c5 3c 42 53 0a bd 66 db 78 3d 53 d9 28 be
       0.024123 -0.033770807 0.06075611 -0.16489153
000010 27 91 19 bd 5e d6 bb 3d a9 3e 65 3d 82 2d 89 be
       -0.037491944 0.09171747 0.05596796 -0.26792532
000020 3c 3e 4d bd 57 df dd 3d 13 18 87 3d 13 f7 2f 3d
       -0.05010818 0.10833614 0.06596389 0.042960238
000030 be a1 6b be d8 23 5f 3d ad ca 74 be 00 00 00 00
       -0.23010918 0.054477543 -0.2390544 0.0
000040 b1 af 07 bc c4 1c 51 be 5b 80 fd bc 3c 57 19 3d
       -0.008281634 -0.2042113 -0.030944994 0.03743671
000050 22 41 ca 3d 7b f3 0f 3c d8 94 a0 3c 6e b2 c3 3d
       0.09875704 0.008786078 0.019602224 0.09555517
000060 a0 6a 50 3d 6e c7 18 3d 5d 62 13 be 77 27 4d be
       0.050882936 0.037299566 -0.14392991 -0.20034586
000070 47 a3 4a 3d 2b a5 54 3d 39 1a 3f bd 2f 18 54 be
       0.04947212 0.05191533 -0.046655867 -0.2071235
000080 00 00 00 00 8f 1f af 3d a9 1c 87 be 26 87 ee bc
       0.0 0.08550941 -0.26389053 -0.029117178
000090 98 a2 82 be de 9b 35 3c 69 2a 5e 3c 74 86 bd 3c
       -0.25514674 0.011084525 0.013559916 0.023135401
0000a0 6b 57 b9 3d 2f 7a 9e bc ce 81 e1 bb 00 00 00 00
       0.09049877 -0.019345371 -0.006881929 0.0
0000b0 63 dd df 3d 33 78 f0 3d 2c 95 aa 3d 9e bd 82 bd
       0.10930898 0.11741676 0.083292335 -0.06383823
0000c0 a2 4d 7a be 00 00 00 00 ca 97 88 be 4b b0 55 be
       -0.24443677 0.0 -0.26678306 -0.20868032
0000d0 9f 10 e2 3d 76 f4 85 3d c2 e1 d6 3d 89 71 3d be
       0.110383265 0.06540768 0.10492279 -0.18500341
0000e0 50 5b e8 3d de 86 ea bb f6 5a 13 3d 90 bc cd 3d
       0.113455415 -0.0071571907 0.03597542 0.10045731
0000f0 8a 41 bf bd f7 18 17 3d 31 84 64 3c da c8 6f be
       -0.093386725 0.036889043 0.0139475325 -0.23416463
000100 f7 95 39 3d c7 a4 1c 3d 51 d4 19 bc 31 cc 8e be
       0.045309033 0.03824308 -0.009388999 -0.2789016
000110 0b bd 2c 3d a0 bc 8a be 00 00 00 00 3b a4 a1 3c
       0.042172473 -0.27097034 0.0 0.019731632
000120 a1 2e 97 3d ed 0b 5f bd 80 f5 11 be 0a 03 eb bd
       0.07381941 -0.054454733 -0.14253807 -0.11475189
000130 39 34 ff 3c c3 54 a7 3c 54 dd 2d bd 00 00 00 00
       0.031152831 0.02042616 -0.042447403 0.0
000140 dd d4 89 3d 6d 2d 1e 3e d2 8f b2 bd 79 5c 50 3d
       0.067300536 0.15447016 -0.08718838 0.05086944
000150 e4 cc 66 3d 60 13 37 be c2 bb b9 3d 2e 3f eb bb
       0.056347743 -0.17878485 0.09069015 -0.0071791625
000160 e1 df f4 3c 29 8a ca bb a9 95 41 3d d5 9b 98 3d
       0.02989191 -0.0061810208 0.047261868 0.074515976
000170 00 00 00 00 5d 55 6f bd 33 70 3e 3d 11 e7 4e bc
       0.0 -0.05843102 0.04649372 -0.012628333
000180 c8 fd f1 bc b9 01 5a 3d 42 a4 bc 3c b8 3c 50 be
       -0.029539958 0.0532243 0.023027543 -0.20335662
000190 c6 51 73 bd 4f fb bb 3d 94 c7 3b bc 5e 0f ca bd
       -0.059404157 0.09178793 -0.011461157 -0.09866212
0001a0 44 d9 78 bd ad 24 84 3c bc 7c d4 3c 51 68 51 be
       -0.060754076 0.01613077 0.025938384 -0.2044995
0001b0 7d ae f4 3c fb d0 0d 3d 70 e5 24 3d 1c c5 7a bb
       0.029868359 0.034623127 0.04025787 -0.003826446
0001c0 61 8c 32 be 2f 5d 87 be f5 c6 4f be 51 88 e9 3c
       -0.17436363 -0.2643828 -0.2029074 0.028507384
0001d0 33 08 a9 bc 9c ea b2 3d 1f fd b4 3d 68 f2 d5 3d
       -0.020633793 0.087361544 0.088373415 0.10446626
0001e0 6f d7 8b 3d a0 1d ea bc 68 c3 86 3d df a7 4b bc
       0.068282 -0.02857858 0.065802395 -0.01243016
0001f0 99 e5 94 3d 8e 2f 0e be 16 e3 2a be 6c d5 85 3d
       0.07270355 -0.13885328 -0.16688189 0.065348476

network.3.weight f4 [128, 128]
000000 d7 47 a0 3d 71 9d 84 3c c7 af ae 3d 16 61 9f 3d
       0.07826202 0.016188355 0.085296206 0.077821895
000010 64 24 61 bd 5d f8 72 3d 25 48 e9 3d a2 bd 29 bf
       -0.054966345 0.05931889 0.113907136 -0.6630498
000020 5f 5c 06 be a7 07 c1 bc f3 c3 3b be 30 7d 4c 3d
       -0.13121174 -0.02356322 -0.18336467 0.049924076
000030 25 32 af be 26 97 9b 3c 0c 59 e6 be 4b 86 b3 bd
       -0.34217945 0.018992972 -0.44989812 -0.08765849
000040 7f d9 f7 bc a7 3d 26 bf c6 d4 0d be 02 e4 ab bc
       -0.030255077 -0.64937824 -0.13850698 -0.020982746
000050 38 f7 9a 3d 76 41 39 3d 4b 8a 97 bd a1 4a fe 3d
       0.075666845 0.045228444 -0.07399424 0.12416578
000060 26 40 33 3d b1 13 a8 3c 4c 2b 66 3d 67 46 bc be
       0.04376235 0.020517202 0.056193635 -0.36772463
000070 fb 2d 7f bd 3b 08 ed 3d b9 1c 13 be 5d 88 0e be
       -0.06229971 0.115738355 -0.14366426 -0.13919206
000080 96 8e 3e 3c ce a8 b0 3d 28 db 33 bf 94 a5 e3 3d
       0.011630675 0.08625947 -0.7025628 0.11115566
000090 a6 e8 4d bf 91 18 fb 3d e9 5c 92 3d 10 56 2a be
       -0.8043312 0.12260545 0.071466275 -0.16634393
0000a0 b1 8d c0 bd 7b 60 5b bd 02 d5 16 3e 35 1b 68 3d
       -0.094020255 -0.053558808 0.14729694 0.05666657
0000b0 91 20 44 3e 12 53 49 bd a2 03 30 3e 90 e9 31 3e
       0.19153048 -0.049151488 0.17188886 0.17374253
0000c0 07 d2 77 bf 6d 6a 0f 3d ee 6c 58 bf 4f ca 1c bf
       -0.9680485 0.035013605 -0.84541214 -0.612462
0000d0 11 48 ce bd 8c 2b 27 bd 1d ef 57 be 93 40 06 3d
       -0.10072339 -0.040813014 -0.21087308 0.032776427
0000e0 7a 8c da 3d 49 ba 38 be 72 2d 87 bd 88 f9 af 3d
       0.10671325 -0.18039812 -0.06600465 0.08592516
0000f0 6c a2 49 bd 48 1a 53 bd 7a ec 9c bd f5 14 39 bf
       -0.049227163 -0.051538736 -0.07662292 -0.722976
000100 a9 eb 8f bd 5a 5e f4 3a 92 aa 14 be 4c 6a 6a bf
       -0.070273705 0.0018643842 -0.14518192 -0.91568446
000110 97 ca 9d 3d 50 bd 2f bf 93 72 18 bd ce ac a1 bd
       0.077046566 -0.6864824 -0.03721864 -0.07894288
000120 a3 14 61 3d 6c 34 90 3d a6 e2 9e bd 53 b0 61 bd
       0.05495132 0.07041249 -0.077580735 -0.055099797
000130 c5 7f c2 bd 9a f0 7d bc ee aa 2c 3d 24 9f ad bd
       -0.09497026 -0.015499258 0.0421552 -0.08477619
000140 a5 8c 1b 3d a8 4a 3c 3d 5c bd 09 3e 99 16 5f 3e
       0.037975926 0.045969635 0.13451141 0.21785964
000150 d1 16 5c bd e5 16 dc bd 61 11 8e bc f9 b0 a5 bd
       -0.053732697 -0.10746554 -0.017342271 -0.080903955
000160 07 f6 be bc fa 79 28 3e 52 d8 85 3c 11 25 ef 3d
       -0.023310674 0.1645278 0.016338501 0.11676992
000170 0b 5c bc 3a 9f 3d 23 3e a7 a2 f3 bd 8a 3e 11 3e
       0.0014370693 0.15941475 -0.11896258 0.14184013
000180 d1 b6 18 3d 97 6c 8e 3e a9 8c 13 3e 63 c7 4c bf
       0.037283722 0.27817222 0.14409126 -0.7999174
000190 cd 35 52 3e 8e f1 0a 3e be 6f 15 be 91 5f 36 3d
       0.20528336 0.13568708 -0.14593408 0.044524733
0001a0 9a cf 2f 3c 80 57 01 3e 96 4b 68 3d e9 91 3d be
       0.010730648 0.12631035 0.05671271 -0.18512692
0001b0 d0 15 71 bd 47 c8 f6 3c 30 fa 9b 3d 00 0d 50 3d
       -0.058858693 0.030124797 0.07616079 0.050793648
0001c0 69 95 33 bd 13 ae 67 be 3b c6 b2 bd 7f a5 8d bd
       -0.04384366 -0.22624998 -0.08729216 -0.069163315
0001d0 d0 5f ff 3d c5 40 2d 3e d8 40 e8 3d 79 b0 c7 bc
       0.12469447 0.16919239 0.11340493 -0.02437614
0001e0 cc ab 51 3e 26 12 68 bb 6c 1f 2c 3d f2 f5 b0 bd
       0.20475692 -0.0035411208 0.042022154 -0.0864066
0001f0 27 27 28 bd f6 d2 9f ba bc 04 8a 3c 5c e2 45 3c
       -0.041052964 -0.0012193609 0.01684796 0.012077894
000200 d6 5a 38 3d 29 85 0a 3d 4e a3 2a 3e 1b 10 30 3e
       0.045008503 0.033818398 0.16663858 0.17193644
000210 c1 c7 f6 3c 4b 98 9a bd 03 34 f2 3c aa 81 1f bf
       0.030124547 -0.07548579 0.029565817 -0.62307227
000220 e5 51 88 bd 0d 2e 44 3e 20 b0 e0 3c 78 0f 44 be
       -0.06656245 0.19158192 0.027427733 -0.19146526
000230 66 71 f9 be d7 45 c2 3c 9f b4 f4 be 50 01 60 bb
       -0.4871933 0.023714943 -0.47794053 -0.003418047
000240 1e 5b 37 3c e2 71 51 bf bc 9c 4c 3d 0b 1c 09 3d
       0.011191158 -0.81814396 0.04995416 0.03347401
000250 4d 75 8e 3c 51 ba 06 3d 1b 47 41 bc 80 88 eb 3d
       0.017389918 0.03289253 -0.011796738 0.11500645
000260 73 7d 84 bd d2 6a 90 bd 74 7f 94 3e 2c 37 d1 be
       -0.0646924 -0.07051624 0.2900349 -0.40862405
000270 39 15 87 3d 5e d1 b3 3d f3 85 82 3d 96 c6 3e 3d
       0.06595845 0.08780168 0.06373205 0.046576105
000280 40 c0 ff 3d 56 43 58 3d 0f 86 12 bf 69 82 a8 bd
       0.12487841 0.05279859 -0.5723581 -0.08227999
000290 74 43 48 bf ad fd 2d 3e 4c 18 33 bb 96 3f 1a bd
       -0.78227925 0.16991301 -0.0027327714 -0.037658297
0002a0 02 4c 01 be 2b 45 86 3d 55 fe 20 3e 84 9a 0e be
       -0.12626651 0.065561615 0.1572202 -0.1392613
0002b0 91 f6 80 bd f1 05 06 3e 67 08 00 be 30 fa 40 3d
       -0.06297029 0.13088204 -0.12503205 0.047113597
0002c0 c7 ad 45 bf 2d fe cf 3d 1e fb 5e bf d5 fa 3d bf
       -0.7721829 0.10155902 -0.87101924 -0.74210864
0002d0 12 e0 84 3e dc 0c 42 3e 32 19 41 be c1 52 45 be
       0.25952202 0.18950218 -0.18857267 -0.1926985
0002e0 d5 2e da 3d 5a 3e 23 3e 5f 83 c0 bd db 4e 89 3d
       0.10653464 0.15941754 -0.09400057 0.067044936
0002f0 c9 e0 47 be a7 b1 be 3d 33 3b 1c 3e ca 82 42 bf
       -0.19519342 0.09311228 0.15256958 -0.7598082
000300 a4 f3 e8 3c d4 97 36 be 52 47 f5 3c a2 d7 48 bf
       0.02843649 -0.17831355 0.029941235 -0.7845403
000310 9a 7a e5 3c 08 00 2b bf 89 10 5b bd 6c fe 99 bd
       0.028012563 -0.6679692 -0.053482566 -0.0751923
000320 c9 57 50 3e f9 1b b8 3d 23 c4 b8 bd f4 ef 7c bd
       0.20345987 0.0898971 -0.09021785 -0.061752275
000330 36 8f 61 bd 12 64 88 bd e5 a2 12 3e 24 12 12 bd
       -0.055068217 -0.06659712 0.14319952 -0.03566183
000340 37 7e df bc 1c ad f9 bd bc 9c f1 3d 6b b3 e3 3d
       -0.027281864 -0.12191221 0.11797473 0.11118206
000350 27 e9 b5 3d 6d 74 e6 b9 cf b4 f0 3d c0 1b 3a bc
       0.08882361 -0.00043955763 0.117532365 -0.011359155
000360 87 e9 50 3e 02 4e 2c 3e 5f 38 5a bd 61 95 3b 3e
       0.20401584 0.16826633 -0.053276416 0.18318702
000370 00 b5 d0 bd 20 5f b0 3d d8 d2 76 bd a2 a9 86 bd
       -0.10190773 0.08611894 -0.06025967 -0.06575324
000380 f6 7d 9e bd e4 62 20 3d bb 4e aa 3d ca a4 53 bf
       -0.07738869 0.03915681 0.08315798 -0.82673323
000390 77 6c 1f 3e a2 cb 28 3e 82 88 ee bd c4 b4 cb bd
       0.1556872 0.1648393 -0.116471305 -0.09946588
0003a0 a1 bc 9f 3d a2 51 1c bd ec 22 15 bb 58 18 03 be
       0.0779965 -0.03816379 -0.002275641 -0.12802255
0003b0 43 94 a5 bd 4f da aa 3d cb 88 03 3e 5a e5 06 3e
       -0.08084919 0.0834242 0.12845151 0.13173428
0003c0 51 6c 8a be e2 ab 74 be 22 20 af be 43 a6 b7 bd
       -0.27035764 -0.23893693 -0.34204203 -0.08967259
0003d0 39 2e bb 3c c3 9c 23 be 4c ab b3 3c 4c e6 02 3d
       0.02284919 -0.15977769 0.021932267 0.03195791
0003e0 49 91 40 3e 52 16 13 3e fb 40 24 3e c1 f1 02 3d
       0.18805422 0.14363983 0.16040413 0.031968836
0003f0 8e fe 2f 3e e7 c7 19 be 2b d1 d7 3d 4f 37 ad 3d
       0.17186949 -0.15017663 0.105379425 0.08457815

network.3.bias f4 [128]
000000 c9 c6 ee 3f 92 3e e2 3f 28 00 dc 3f 99 ee ea 3f
       1.8654414 1.7675345 1.7187548 1.8354064
000010 a1 64 78 3e 42 5e bb 3f 42 de 4a 3e af 6e 21 3f
       0.24257137 1.463814 0.19811347 0.63059515
000020 a1 59 e2 3f 12 1c 92 3f f4 b1 db 3f 6c 05 e7 3f
       1.7683603 1.1414816 1.7163682 1.804853
000030 db 26 e8 3f 3b 1f da 3f 5c 94 de 3f cc 32 13 3f
       1.8136858 1.7040781 1.7389026 0.57499385
000040 8d bd e5 3f 1c 2c 97 3e a5 db 0c 3e 15 54 e6 3f
       1.7948471 0.2952584 0.13755663 1.799441
000050 1f bb 55 3f 3a cc e4 3f 06 0c f1 3f a1 de c8 3f
       0.8348865 1.7874825 1.8831794 1.5692941
000060 f0 93 cd 3e 30 41 e9 3e 5a ea e3 3f 4f 0e e4 3f
       0.4015193 0.45557547 1.7805893 1.7816867
000070 fc bd 96 3e aa d4 e4 3f c4 7a e5 3f 5b fe fd 3e
       0.29441822 1.78774 1.792809 0.4960812
000080 ff c5 9b 3e 0c e5 d9 3f 43 b7 db 3f 5d 82 c3 3e
       0.30424497 1.7023025 1.7165302 0.38185397
000090 04 27 f2 3d df ca db 3f 11 94 c5 3f d6 13 dc 3f
       0.11823848 1.7171286 1.5435811 1.7193553
0000a0 1f 85 31 3e 73 ce 14 3f 7f da d6 3f 38 0d 1c 3f
       0.17335938 0.58127517 1.678543 0.6095767
0000b0 50 01 ba 3d 83 4c 90 3e 84 99 bf 3e ba 8e c3 3f
       0.090822816 0.28183374 0.3742181 1.5277932
0000c0 41 30 dd 3f 6d 5b d5 3f f4 ff e7 3f 36 fb 04 3f
       1.7280351 1.6668526 1.8124986 0.5194582
0000d0 d6 c8 1f 3f ee e6 be 3f 67 14 e8 3f 4c a5 e4 3f
       0.62415826 1.4914224 1.8131226 1.7862945
0000e0 f5 3d 22 3f 1d 21 cd 3e fb ce f2 3f d8 fa e0 3f
       0.6337579 0.40064326 1.8969415 1.7576551
0000f0 1e 72 13 3f 33 7d e3 3f 3d 39 de 3f cb 6e d6 3f
       0.57596004 1.7772583 1.7361218 1.6752561
000100 1a 79 e5 3e 8c 72 c1 3f a8 aa d1 3f 25 17 ee 3e
       0.44818956 1.5113082 1.6380205 0.46502033
000110 5e 61 e3 3f be a7 ca 3f 30 a6 dc 3f 3e 3f e6 3f
       1.7764089 1.5832441 1.7238216 1.798805
000120 47 8f 9e 3e 95 61 e4 3f 70 c7 e0 3f 35 ee a2 3e
       0.30968687 1.784228 1.7560863 0.31822363
000130 92 0f f1 3f a2 5e e2 3f f8 95 da 3f 24 4d 0f 3f
       1.8832877 1.768513 1.7077017 0.5597708
000140 dc 07 cd 3f 10 e1 d8 3f 64 33 0b 3e 54 14 70 3e
       1.6018023 1.6943684 0.13593823 0.23445255
000150 d3 bc 4f 3f 23 92 d0 3f 5c 66 fd 3e 01 b5 e2 3f
       0.811475 1.6294597 0.49492157 1.7711488
000160 b7 1a e1 3e cd d0 db 3f a6 3a e7 3f a2 2d e1 3f
       0.43965694 1.7173096 1.8064773 1.7592051
000170 b2 70 63 3f ec e2 df 3f 86 f8 ae 3f f8 43 4f bf
       0.88843834 1.7491126 1.3669593 -0.8096309
000180 59 7b a9 3e 9e a2 d7 3f 57 13 f6 3e d6 b0 10 be
       0.3310192 1.6846502 0.4806163 -0.14129958
000190 55 b5 00 3f 3f 22 74 bd 5a cc de 3f 19 00 dd 3f
       0.5027669 -0.059602972 1.7406113 1.7265655
0001a0 14 8a e6 3f f0 6d e2 3f 0c 6c 18 3f ec 45 e2 3f
       1.8010888 1.76898 0.59539866 1.7677588
0001b0 aa 59 da 3f b6 a8 da 3f e9 0b dc 3f b6 90 1c 3f
       1.7058613 1.7082736 1.7191135 0.6115831
0001c0 8c 8a e2 3f 46 cd 9e 3e 41 6d da 3f 0c 1b df 3f
       1.7698531 0.31015986 1.7064592 1.7430129
0001d0 a8 ac fc 3e bb a8 d5 3f 83 d1 a0 3e ae 31 e1 3f
       0.49350476 1.6692117 0.31409845 1.7593286
0001e0 3b f5 1a 3f 3c 02 f5 3e 38 85 de 3f 52 ca 4e 3f
       0.6053044 0.47853267 1.7384405 0.80777466
0001f0 ac db e0 3f 61 49 09 3f 07 04 db 3f fd 6b ae 3e
       1.7567039 0.5362759 1.7110604 0.34066764
