教学演示项目/项目1_强化学习智能体训练/results/results/model_episode_1200.pth (torch, 689237 bytes, 24 tensors)

network.0.weight f4 [128, 16]
00000000: 987d 943d 5bc6 5e3d 3c5d a1bd 582c 273e
00000010: eb16 88be 9919 8ebe 77d6 783e 7e71 013d
00000020: 18c6 a53e d5d1 103d b833 9e3c d10b 9abd
00000030: 3f1b 63bd 45f6 f73d dcdb 13ba 28af c1bd
00000040: c8c1 673e f3b9 073e 8035 1fbe e165 eb3d
00000050: 82c5 61be 834d 933e 720b 24bd a9e0 e43d
00000060: 7032 3d3f 8cd7 afbc b95a e9bd 7799 1bbe
00000070: 9457 0b3d 7d57 64bc d401 ddbd b802 03be
00000080: 64d7 973d b18b a03e 88b2 0dbd 6bc8 373e
00000090: 78a2 c0be be48 903e 77a5 1ebc 53bd 9bbd
000000a0: df44 9cbc 49f8 94bd fe92 0b3e f919 32be
000000b0: cd08 b33d e50b 0b3e 9099 98bd 5999 21bc
000000c0: 544f 9cbe 5d04 22be 61e8 883b 09e1 abbd
000000d0: 9a0f 06be 3d74 183d a1c0 5ebe 1169 b4bd
000000e0: 2dcc 3e3e 561e 693d 8c5d b8bd 8169 1ebe
000000f0: f5a8 ec3e 7e54 b7bc baad c5bd abb8 ce3b
00000100: 943f 1d3e f89c 53be 5f0e 253e c5ab 0a3e
00000110: 4235 c4be ee5b 353e 1d75 a73c c1f6 ddbd
00000120: 437f 9ebe e6a3 0f3e da26 e0bc adfe 2c3d
00000130: 7f8b ad3e 0bd6 87bd 2f9e 98be f396 c23e
00000140: 8110 233e 1f03 e13d 4c1d c43d d27e 0e3a
00000150: 03d2 c23d 5089 eb3e 14ae a6bd 2bf5 b6bc
00000160: 74e6 803e 1f28 14be 646c af3e 71e4 4a3e
00000170: e165 273e f410 5d3e 6f6c b7bd 8356 98bd
00000180: 844b 393e f4fa 113e fa15 433d eb3a edbd
00000190: a9b2 0ebc e255 dc3e 5a26 453e 1b0a a13d
000001a0: f5c0 46bd e758 833e e60d 3fbe 4a54 15be
000001b0: dff6 ca3e 339a bdbd 79ab cc3d 5f11 9c3e
000001c0: 16e3 26bf e15d 09bf b7e7 22be 2419 95be
000001d0: 3bc5 a33c eb71 d2be cf2f b3be 5198 433d
000001e0: 3b49 46be 077a 58bd 1b03 6abe 9c4f 843d
000001f0: 00ba a5be eeb3 28be e89f d0be af77 fa3d
00000200: 35aa 84bb 26ec e83c 4fb0 a4bb 10ba 0dbe
00000210: a8dc 5abe 9bd8 cbbd 08e9 763d 7915 c0bc
00000220: 52fa a33e f7f4 323e 8d27 17be 9374 af3d
00000230: d31f b83d fc70 c9bc 2113 2cbf 017a 13be
00000240: 0abf 673d f00a 94bc 435d 543e bb21 c83d
00000250: fa0d 043c 4703 e63d 2b3c e9bb c804 a13d
00000260: ae4d fa3b fe76 cabd b0e2 3a3e 51b4 353e
00000270: 224a 9e3d c553 093d 6453 ffbc 699a 803c
00000280: 7d4e 9c3e f5f1 8c3e 9da7 893d d26f edbc
00000290: 6205 94be 897e c43e a8bc 273d 3433 1abe
000002a0: 894d 093e d5d9 6abd 7fe1 21bd 84a3 2d3e
000002b0: 27ca fe3d 8056 6a3d 815d 68bd da91 a33d
000002c0: 5a6e e13d 92bd 613e ad30 2f3c d080 a7bd
000002d0: f62f 8bbe b2ed 06be 739e 833e f639 6abd
000002e0: 59a1 b13e 2666 b63c 4ba4 f7bd 6abc 193e
000002f0: 388a 113e 1f43 833d c8cb 81ba c22e da3c
00000300: 9203 58bf a1e3 f1be 3e88 56be 2ea9 5ebe
00000310: 8568 7c3e 9b54 0ebd 8a7f bfbe 81ec babc
00000320: 5883 eabd 5abc d43c a850 bdbd cc81 00bd
00000330: 3856 c3be 0573 3cbd 482d 9abe 5cdc 63be
00000340: df79 933e 8c46 f43d 6b90 183d b303 743e
00000350: 25a9 9ebe 3a92 5dbe ebd1 2c3d 6e1a 99bd
00000360: 3831 363d 180f 21bd b373 0b3e 6b1b 313d
00000370: 11b1 6f3d e718 903d 251b 863e 1430 e5bc
00000380: a531 4dbf 9b17 e9be 99ed 8fbe f082 42be
00000390: b106 443e 525e 98bd 3806 32be c3f0 133d
000003a0: 438b 0abe 794b 8cbd 86fb 0cbe 59c3 0f3e
000003b0: 6239 97be 6471 21be 7a14 92be d947 353e
000003c0: dc2d 863d ae6b 39be d238 81bc 19d8 983c
000003d0: a0dd afbd 439a 1dbe 87d9 06be 1c08 c13d
000003e0: 320b 90bd 7b66 97bc c777 7d3d b1fb 093e
000003f0: 7bf0 d73d 9528 bb3d 644e 3d3e 48a8 193d
0.072505176 0.054388385 -0.07879111 0.1632551 -0.26579985 -0.27753904 0.24300562 0.031602375
0.32377696 0.03535636 0.01931177 -0.07521785 -0.055445906 0.12107519 -0.00056403666 -0.094572365
0.22632515 0.13254528 -0.15547752 0.11494041 -0.22048 0.28770074 -0.040049978 0.11175663
0.73905087 -0.021465085 -0.11394257 -0.15195261 0.034019068 -0.013936874 -0.10791364 -0.12794006
0.074141294 0.31356576 -0.03459409 0.17947547 -0.37623954 0.28180498 -0.009683005 -0.0760447
-0.019075809 -0.07273919 0.13630292 -0.1739272 0.08741913 0.13578756 -0.07451165 -0.009863221
-0.30529273 -0.15821977 0.0041780923 -0.083925314 -0.13091889 0.03722023 -0.2175317 -0.08809102
0.18632574 0.056913696 -0.09002218 -0.15469934 0.46222654 -0.022379156 -0.09652276 0.006308635
0.15356284 -0.20665348 0.16118763 0.13542087 -0.38321882 0.1771085 0.020441586 -0.1083808
-0.30956468 0.14027366 -0.027362276 0.042235065 0.3389549 -0.06632622 -0.29808185 0.3800579
0.15924264 0.109869234 0.095759004 0.0005435768 0.09512713 0.460032 -0.081386715 -0.022333702
0.25175822 -0.1446843 0.34262383 0.19813706 0.16347457 0.21588498 -0.08956229 -0.07438376
0.18095213 0.14255887 0.04762838 -0.11583503 -0.008709588 0.43034273 0.19252911 0.078632556
-0.048523862 0.25653765 -0.18657646 -0.14582935 0.39641473 -0.09257927 0.09993643 0.30482003
-0.65190256 -0.5365887 -0.15908705 -0.29120743 0.019991508 -0.41102538 -0.34997413 0.047752682
-0.19363873 -0.05285075 -0.22852747 0.06460497 -0.3236847 -0.16474888 -0.40747 0.12229859
-0.0040486106 0.028432917 -0.0050259004 -0.13840508 -0.21373236 -0.099534236 0.06028083 -0.023447739
0.32026917 0.17476259 -0.14761181 0.08567157 0.08990445 -0.024590008 -0.6721669 -0.1440201
0.056578673 -0.018071622 0.20738702 0.097720586 0.008059973 0.11231094 -0.0071177683 0.0786224
0.0076386547 -0.09885977 0.18250537 0.17744567 0.077289835 0.033527154 -0.031167693 0.015698629
0.30528632 0.2752835 0.06721423 -0.028983984 -0.28910357 0.3837779 0.0409514 -0.15058595
0.13408484 -0.057336647 -0.03952169 0.16956908 0.12440901 0.0572114 -0.056729797 0.07986803
0.11007376 0.22044972 0.010692758 -0.08178866 -0.2718503 -0.13176611 0.25706825 -0.057184182
0.3469341 0.022265505 -0.12091883 0.1501328 0.14212883 0.06409287 -0.000990265 0.026633624
-0.8438045 -0.4724398 -0.2095041 -0.21744224 0.24649246 -0.034748655 -0.37401992 -0.022817852
-0.11450833 0.02596872 -0.092438996 -0.031373784 -0.38151717 -0.04600813 -0.30112672 -0.22252029
0.28803918 0.11927518 0.037247103 0.23829536 -0.30988422 -0.21637812 0.04219238 -0.07475744
0.044480532 -0.039321035 0.13618354 0.04323904 0.058518473 0.07036 0.26192585 -0.027977027
-0.80153877 -0.45525822 -0.2811096 -0.18995261 0.19143178 -0.07439865 -0.17385185 0.03611828
-0.13529687 -0.06850333 -0.13767824 0.14039363 -0.29535967 -0.15765911 -0.28531247 0.17703189
0.06551716 -0.18107483 -0.015774164 0.01865773 -0.085871935 -0.15390877 -0.13168918 0.09425375
-0.07033385 -0.018481484 0.061881807 0.13474919 0.10543915 0.091386 0.18486935 0.037514

network.0.bias f4 [128]
00000000: 5b87 2e3d 139e 053d 084a 5a3d 53d9 28be
00000010: d3e6 6fbc 91e5 e83d 7121 813d 9ac7 7fbe
00000020: f2d0 ebbc 4b16 113e 4817 aa3d d5a3 893d
00000030: feef 49be 4538 4e3d 1490 43be 0000 0000
00000040: c2c1 57bc e96a 37be 5b80 fdbc 03a8 853d
00000050: dd8e e93d 0c99 a63b 9e63 8d3c 65fc bb3d
00000060: b1b1 b33d 6921 633d 187d c4bd 10d0 2cbe
00000070: 816d a13d a04f 373d ea52 2cbd 1e73 66be
00000080: 0000 0000 5179 d03d 9b00 72be b9e8 6bbb
00000090: 365c 64be 1c6f af3c 0ff5 893c c4d6 0f3d
000000a0: 284a 673d afd2 5abd ce81 e1bb 0000 0000
000000b0: 1c6e 033e a505 0d3e b77f cd3d 0988 c5bc
000000c0: c902 5cbe 0000 0000 954d 74be a427 3fbe
000000d0: 26fb 053e 12f7 923d 3ec7 cb3d 604c 47be
000000e0: d0dd bd3d f7cd f33c e599 a93d b0a8 c03d
000000f0: b610 12be 003c ec3a fcd1 063c 5f0a 56be
00000100: 6cca 043d 3126 6d3c bf1c 853c 9adc 82be
00000110: 5d05 da3d 4a6e 7dbe 0000 0000 2c74 573c
00000120: de96 9b3d ed0b 5fbd 871a 27be 5e25 e0bd
00000130: d973 303d 959f 803c 54dd 2dbd 0000 0000
00000140: 8704 af3d a4e3 173e d28f b2bd 445a 4c3d
00000150: 2d42 5d3d 4290 0dbe c563 ac3d 2e3f ebbb
00000160: 7495 923d 8fa7 023d 0f80 933d 9afe 643d
00000170: 0000 0000 31fd 3fbd a884 113d 9a58 fcbc
00000180: d237 13bc 13eb 9f3d 8b6c ce3c 4015 47be
00000190: 9c68 fbbc 81aa f03d c954 c2bb f612 55bd
000001a0: d08c 5ebd 0cbe d73c 88fe 313d c61f 5abe
000001b0: d164 ea3c 9e09 623d ac2f 913b f5d0 153d
000001c0: 035e 31be 6e46 51be 164f 63be 97fb b43d
000001d0: 3308 a9bc 14d2 893d bb37 b43d 5c7a f73d
000001e0: 44c1 8f3d 5d68 9dbc e859 5d3d 27a5 0f3d
000001f0: 13e4 ba3d 58dd 30be 16e3 2abe a1e5 aa3d
0.042609554 0.032621454 0.053293258 -0.16489153 -0.014642435 0.11371911 0.063052066 -0.24978486
-0.028786156 0.1416866 0.08305222 0.067207016 -0.19720456 0.05034663 -0.1909793 0.0
-0.013168754 -0.17911877 -0.030944994 0.06526186 0.11404202 0.0050841626 0.017259415 0.09179
0.08774126 0.055451784 -0.09594172 -0.16876245 0.07882214 0.04475367 -0.04207126 -0.22504851
0.0 0.10179389 -0.23633043 -0.0035996868 -0.223008 0.021415286 0.016840486 0.035116926
0.056467205 -0.05342358 -0.006881929 0.0 0.12834972 0.13771684 0.10034125 -0.024112718
-0.21485437 0.0 -0.2385772 -0.18667465 0.13084087 0.07176031 0.09950112 -0.19462729
0.09270823 0.029761298 0.08281306 0.094071746 -0.14264187 0.0018023252 0.008228775 -0.20902394
0.032419607 0.014474438 0.016249059 -0.2555893 0.10645554 -0.24749103 0.0 0.013150256
0.07597135 -0.054454733 -0.16318713 -0.10944627 0.04307923 0.015701095 -0.042447403 0.0
0.085457854 0.14832932 -0.08718838 0.04989077 0.05401819 -0.13824561 0.08417467 -0.0071791625
0.07157412 0.031898078 0.072021596 0.05590687 0.0 -0.04687232 0.0355269 -0.030803967
-0.008985477 0.07808509 0.025198242 -0.194417 -0.03068953 0.11751271 -0.0059305173 -0.052020036
-0.054333508 0.026335739 0.04345563 -0.21301183 0.028612526 0.055184953 0.0044307318 0.03657623
-0.17321019 -0.20437023 -0.22198138 0.088370495 -0.020633793 0.06729522 0.08799692 0.12083885
0.07019284 -0.019214803 0.05404082 0.03506961 0.09125533 -0.17271936 -0.16688189 0.083445795

network.3.weight f4 [128, 128]
00000000: 49a5 a13d 9719 8cbd c9b2 d63d 1661 9f3d
00000010: f823 f63c 5fc0 953d 0723 143e fba3 c9be
00000020: 0f21 96bd 60f0 283c 8f12 24be 8822 a63d
00000030: e7d3 aebe 27b7 263d b10b adbe 4b86 b3bd
00000040: 656f 1c3b adb6 08bf c6d4 0dbe 4ab5 fbbb
00000050: 7abd 913d 4f26 e83c 78af e1bc 925b 053e
00000060: 3823 b43d 509c 063d a314 bb3d 7aaf 69be
00000070: eb1b 94bd bc91 f93d 4728 11be e20a f0bd
00000080: 968e 3e3c 568f fd3d 51d8 00bf 53a9 c33d
00000090: e960 1fbf bfab 063e fa45 683d a4fb 4cbe
000000a0: 0cf1 2dbd c21c 99bc 02d5 163e 351b 683d
000000b0: 51ba 8f3e d896 7c3c 021d 0d3e ad54 573e
000000c0: 53b2 73bf 6d6a 0f3d 6cc1 2ebf 72e3 ccbe
000000d0: 74d1 d1bd 0532 09bd 8ef9 4cbe 524c 873d
000000e0: 1ef5 b03d 5426 18be 06b8 02be 3388 173e
000000f0: 59c7 903a cfaa 2a3d 67c3 c53c e12c 0fbf
00000100: 726e 4ebd 89ff 0fbc 6ecc f3bd 9808 4fbf
00000110: 91d6 a53d 4031 07bf 9372 18bd b200 95bd
00000120: 4c54 323d 6c34 903d 73b7 07be d05c 92bd
00000130: 20bc dbbd d079 013c eeaa 2c3d 249f adbd
00000140: 1b72 e13c 8091 ac3d 5cbd 093e d2c2 573e
00000150: 20b5 9cbd fe3d e9bd a359 a03b f9b0 a5bd
00000160: d354 efbb c552 1c3e 6341 dc3c bb59 0f3e
00000170: 0b5c bc3a f8f6 263e 3ffc adbd 064a 233e
00000180: ef3c b03d 58e9 7a3e 8d83 383e cbee 13bf
00000190: a7ac df3d 46a2 383e 33a3 fdbd 7523 9eba
000001a0: 3a1c fd3a 07b7 1f3e a4be 803d ac57 40be
000001b0: 7b09 78bd 0f34 2c3c 7d3c e93d 419f 213d
000001c0: 2491 adbd 1107 83be c471 afbd de26 cd3d
000001d0: d05f ff3d 46b5 303e 8237 0b3e e19d 36bd
000001e0: 73e8 513e 798f c9bc 9f87 033d bc44 ca3b
000001f0: 5611 f73c c86f b73c bc04 8a3c 0cd4 2a3d
00000200: 7867 7f3c 02e0 06bd 6894 1b3e 1b10 303e
00000210: 7985 2f3d 2039 adbd 9cfa c63c 8d11 91be
00000220: a796 ccbd 594a 3e3e 5ba6 7a3b 8ce0 4ebe
00000230: f133 d8be d4d5 833d 0c42 b7be 5001 60bb
00000240: 0ffa 383d 8617 31bf bc9c 4c3d 5c8f 1e3c
00000250: 3e32 8dbb fd23 3e3c bccb 583c 68be 0f3e
00000260: 982a cbbd 4244 73bd 9382 503e 268c 81be
00000270: ae42 6cbb fa77 da3d 54da 7c3d 72a1 073d
00000280: 40c0 ff3d 2b09 d03c de61 9bbe b69c f8bd
00000290: aaac 19bf b00f d03d 7ed3 adbc ecfa 07bc
000002a0: 3ebd f7bd ae2a c63c 55fe 203e 849a 0ebe
000002b0: 2b82 a5bc 43aa f73d b4e4 febd 4244 583d
000002c0: 378e 19bf 2dfe cf3d 0693 2ebf 4be5 14bf
000002d0: 79d1 733e db60 2c3e 8fb4 39be 003a 51be
000002e0: 0436 c13d 7960 fc3d 5e3f 0bbe 4aa0 1c3e
000002f0: 2cc6 6abe d8fc 0d3e 184d 573e 1832 0dbf
00000300: fdfd 9a3c a0b6 47be f66c 9d3b 58a3 12bf
00000310: fcdc 333c 9def c3be 8910 5bbd 8441 ffbd
00000320: 9f3e 533e f91b b83d 0540 22be 6f2e c5bd
00000330: 741f 8cbd 3e7b 9ebd e5a2 123e 2412 12bd
00000340: 09b9 b8bc 276b c2bd bc9c f13d ee93 c63d
00000350: 7a7a ad3d 5508 35bc afa0 fd3d c01b 3abc
00000360: 6f50 213e 95cc 3d3e 83b2 88bd 3d25 353e
00000370: 00b5 d0bd 1208 093c 0351 2bbd b319 74bd
00000380: 5477 c6bd c03d 803c 9a14 bd3d ffd3 0cbf
00000390: 738e 813d 9704 113e 197e e6bd 804b 04be
000003a0: 3e7f 9a3d 6347 05bd e662 993c 0540 12be
000003b0: 189c b1bd 1575 f63d a277 c33d 6b9d 233e
000003c0: a0d1 a9be 0c73 acbe ade2 d3be 07fb f0bc
000003d0: 392e bb3c 405b 10be 0a1f 133d 6d87 4e3d
000003e0: d9d8 433e d0d6 0e3e 590e 393e 40fc b53d
000003f0: 3192 583e 753c 3abe 2bd1 d73d b7be 573d
0.07892854 -0.068408184 0.10483319 0.077821895 0.030046448 0.073120825 0.14466487 -0.3938292
-0.07330524 0.010311216 -0.16022705 0.08112055 -0.34146044 0.04070201 -0.33797982 -0.08765849
0.0023870107 -0.5340374 -0.13850698 -0.0076815234 0.07116218 0.02833858 -0.02754949 0.13023213
0.0879578 0.032863915 0.091347955 -0.22820845 -0.072318874 0.12186 -0.14175521 -0.11720826
0.011630675 0.12380855 -0.5033007 0.095537804 -0.6225725 0.13151453 0.05670736 -0.20017868
-0.04246621 -0.01869047 0.14729694 0.05666657 0.28071836 0.015416823 0.13780597 0.21028395
-0.95193976 0.035013605 -0.6826389 -0.40017277 -0.10245028 -0.033494968 -0.20017073 0.06606354
0.086405024 -0.14858371 -0.12765512 0.1479805 0.0011045738 0.041666802 0.024141027 -0.55927855
-0.050398298 -0.008788952 -0.11904226 -0.8087249 0.08097566 -0.52809525 -0.03721864 -0.07275523
0.043537423 0.07041249 -0.13253574 -0.07146609 -0.10729241 0.0079025775 0.0421552 -0.08477619
0.02752023 0.084261894 0.13451141 0.21070412 -0.07651734 -0.11388777 0.004893498 -0.080903955
-0.007303813 0.15265949 0.026886648 0.13999073 0.0014370693 0.16305149 -0.08495378 0.15946206
0.08605372 0.24503076 0.18018933 -0.57786244 0.10921603 0.18030652 -0.123846434 -0.001206501
0.001931078 0.15597163 0.06286362 -0.18783444 -0.060555916 0.010510459 0.1138849 0.039458517
-0.08474949 -0.2559133 -0.08566621 0.10017179 0.12469447 0.1725665 0.13595393 -0.04458416
0.20498829 -0.024604546 0.03211176 0.0061727446 0.030159634 0.022392169 0.01684796 0.04170613
0.015588634 -0.032928474 0.15193331 0.17193644 0.0428519 -0.08458161 0.024289422 -0.28333703
-0.09989672 0.18583049 0.0038246128 -0.20202845 -0.42227128 0.06437269 -0.35792577 -0.003418047
0.04516035 -0.6917652 0.04995416 0.009677734 -0.004308968 0.01160526 0.013232168 0.14037478
-0.099202335 -0.059391268 0.2036231 -0.25302237 -0.0036050486 0.10667415 0.06173165 0.03311295
0.12487841 0.025394997 -0.30348104 -0.12139265 -0.6002909 0.10159242 -0.021219011 -0.0082995705
-0.12096642 0.024190273 0.1572202 -0.1392613 -0.02020367 0.12093022 -0.124459654 0.05279947
-0.5998263 0.10155902 -0.6819309 -0.58162373 0.23810376 0.16833822 -0.18135284 -0.20432281
0.09434131 0.12323088 -0.13598391 0.1529552 -0.22927159 0.13865983 0.21025503 -0.5515456
0.01891994 -0.1950326 0.004804249 -0.5728049 0.01097798 -0.38268748 -0.053482566 -0.12463668
0.20629357 0.0898971 -0.15844734 -0.09627997 -0.06841937 -0.0773835 0.14319952 -0.03566183
-0.02254917 -0.09493094 0.11797473 0.09696184 0.08470626 -0.01104935 0.123841636 -0.011359155
0.15753339 0.18535073 -0.066746734 0.17689987 -0.10190773 0.0083637405 -0.041825306 -0.05959482
-0.09690729 0.015654445 0.09232445 -0.5501098 0.06325998 0.14161907 -0.1125452 -0.12919426
0.07543801 -0.032538783 0.018723916 -0.14282234 -0.08672351 0.120340504 0.095443025 0.15978019
-0.33167744 -0.33681524 -0.41383877 -0.029416574 0.02284919 -0.14097309 0.035918273 0.05042212
0.1912569 0.13949132 0.1807188 0.088860035 0.21149518 -0.18187125 0.105379425 0.052672114

network.3.bias f4 [128]
00000000: eba1 d83f e3ac c23f a17d c93f 2595 d33f
00000010: d13d 333e 7240 973f 79dc b1bc a149 163e
00000020: bae5 ca3f 45d9 4a3f 4a14 bf3f 39bd c13f
00000030: 4e9c cc3f 9a47 c83f 8f95 c63f d0b4 c13d
00000040: ab05 d63f d658 c33d 4b54 083d 9be2 e13f
00000050: 5e36 cd3e 2f23 ce3f 7bc4 d73f c563 ad3f
00000060: 275b 5d3e bcc7 1ebd f7e4 ce3f ab96 cb3f
00000070: 7ae3 cd3c 486b ca3f f6d0 d43f 7f33 5e3d
00000080: 7e18 8d3c a7fe bf3f 5d8c c33f 95c3 913d
00000090: a2ca cb3c 8a26 c83f 3be5 9e3f 6ebf c13f
000000a0: 38b3 3a3e a8c1 893e af17 b83f f45e 853d
000000b0: 7c75 1bba ee59 ef3b 1087 a53d 7f79 a03f
000000c0: 4a25 c93f 39f2 b33f 5e1e cf3f 6395 8d3d
000000d0: fa62 c63d 619e 993f 3bb5 ce3f b072 c83f
000000e0: c39e 223e a301 6b3d 8538 e03f c33c cf3f
000000f0: 88b1 3d3e 2056 c63f c805 c83f 1b08 be3f
00000100: c1e7 fdbc 8c7d 9e3f 4b12 c33f 9ed8 583e
00000110: 3de0 c43f 913a aa3f b7f1 c73f ab6e ce3f
00000120: 8d17 a63d 4b83 c63f 3fd7 c73f fa70 0abd
00000130: 3430 d93f 6606 c73f 8d9d ca3f 3fc1 a63d
00000140: fd2d a83f e9ac cb3f b579 6f3c ec99 bc3d
00000150: 2a6c 423e e8d4 ae3f 0553 6f3e ac32 cf3f
00000160: 4cda 933e 11e8 c73f 8a67 d23f 1b64 c23f
00000170: 71df fb3e 7c70 c83f 38cb 873f 5648 d9be
00000180: 39c6 933e 3edc be3f b134 be3e 3710 d5bd
00000190: b505 ec3d 3f22 74bd 2f68 c33f 6309 c83f
000001a0: f98f c93f 219d d43f 8c9e 593d fb15 cc3f
000001b0: 44b9 be3f 8df3 bc3f ae6f c43f 6550 823e
000001c0: eeb0 cf3f f211 5c3d bc9f d03f dde8 cc3f
000001d0: e1fe cc3d 33d5 b03f be03 ff3d d890 c43f
000001e0: 541b 9d3e cff6 4a3e ad57 cb3f 3d94 ba3e
000001f0: 9f05 d43f 5256 843e cd46 c43f a1b4 3a3e
1.6924413 1.5209011 1.5741464 1.652989 0.1750405 1.1816542 -0.021711575 0.14676525
1.5851357 0.79237777 1.4928067 1.5135871 1.59852 1.5646851 1.5514392 0.09458315
1.672048 0.095384285 0.033283513 1.764728 0.4008054 1.6104487 1.6856836 1.3546072
0.21616803 -0.0387647 1.6163625 1.5905355 0.025132883 1.581399 1.662627 0.05424833
0.017223593 1.4999589 1.527721 0.071173824 0.024876896 1.5636761 1.2413706 1.5136545
0.18232429 0.2690556 1.4382228 0.065122515 -0.00059302873 0.0073044216 0.08082402 1.2537078
1.5714505 1.4058295 1.6181142 0.06913259 0.09686847 1.2001458 1.6149057 1.566
0.15880875 0.057374608 1.7517248 1.6190418 0.18524754 1.5495033 1.5626764 1.4846224
-0.030994298 1.2382064 1.5239958 0.21176383 1.5380932 1.3299123 1.562064 1.6127523
0.08109961 1.5508817 1.5612563 -0.03379915 1.6967835 1.5548828 1.5829331 0.081423275
1.3139035 1.5912143 0.01461642 0.09209046 0.18986574 1.3658724 0.23371513 1.6187339
0.28877485 1.5617696 1.6437848 1.51868 0.4919391 1.5659328 1.0608892 -0.42438
0.2886217 1.4910963 0.37149575 -0.10403483 0.11524526 -0.059602972 1.5266169 1.5627865
1.5747062 1.6610452 0.053129718 1.5944208 1.4900289 1.4761826 1.5346582 0.2545196
1.622587 0.05372805 1.6298747 1.6008564 0.10009552 1.3815063 0.12451886 1.5356703
0.30684912 0.19820713 1.5886132 0.36441222 1.6564215 0.25847107 1.5334107 0.18232967

network.6.weight f4 [5, 128]
00000000: cef0 ca3e 3296 ae3e e360 db3e a1f2 c23e
00000010: 9076 c43e 9f9c 9b3e c7b2 c1bd 8248 50be
00000020: 08cd c63e be2c a63e 6c7f b43e 5cdf a63e
00000030: 140f 9e3e cf62 f13e 2040 c93e 2f48 1fbf
00000040: 9763 d53e 3b07 9e3e b65b 47bf a340 053f
00000050: 61d2 843e 5304 b83e d5dd cc3e e92d d03e
00000060: 292b 62bf 2c08 c23d 58b1 cb3e a3d2 b53e
00000070: bd0e 353e a101 e13e 31fc 063f ec5d 0ebf
00000080: fb36 09bf f50c b83e 8ab0 db3e a9b7 2ebf
00000090: 17dd 9c3e b9c6 e03e 136f a43e 12c7 e93e
000000a0: 3049 1a3e 6732 bebe 01a9 a83e 6087 1abe
000000b0: ff83 973e 0023 1cbf 1ced c23e 65bb 833e
000000c0: 7f54 b83e e43e ac3e b548 c43e 67d8 0cbf
000000d0: e79a 22bf d217 9b3e 94bb b43e 9f6f a53e
000000e0: d721 9ebe 5916 44bf 16dc b53e 0b8d e53e
000000f0: 5451 30be dc67 c03e 83f8 de3e f2c7 b73e
00000100: 0069 9abe 6671 cf3e 3dfd 033f 6b4a dbbc
00000110: d6b8 a23e 2afe a23e 9e7f db3e 62f8 d53e
00000120: 5a37 99be d892 b43e 53c8 ba3e edca 15bf
00000130: 3c3d c63e cc6a 8c3e aa0f f73e fd7a 8cbe
00000140: 3df3 833e 34a7 053f f534 dc3e 94f9 24bf
00000150: 3f80 c83d d033 863e fa58 01bf c350 f33e
00000160: 3435 12bf b133 c73e 0db6 c93e bcfc af3e
00000170: 9cae 223e 2fd7 cf3e 9ee8 323e 4845 5cbe
00000180: a28c 66bf e7bc e53e 09d3 66bf 415e 0a3e
00000190: f91f 1ebf 0a3d ff3c 2d31 a73e 70dd d03e
000001a0: 1eb1 ac3e e6c2 fe3e 5e95 cabe b5a9 ed3e
000001b0: ee3b 9c3e f812 983e 306a c73e 1c9d dcbe
000001c0: 77eb f13e 861f 613e 03db 033f ba1b d03e
000001d0: aa43 19bf 1000 8b3e 4891 e73e 55cb a43e
000001e0: d2df b4be 63ca 0cbf 6ccf eb3e 4282 a83e
000001f0: dbf9 dd3e ac28 43bf 2008 043f 5974 cd3e
00000200: dd63 be3e cdad c23e 0f61 f23e dab5 be3e
00000210: 4afc 27bf 3df5 863e f0ac c8be 4959 d6be
00000220: 79f6 bd3e 855a a43e f2de a53e 1128 8d3e
00000230: 44fb 9a3e f182 f03e eb86 b93e 787b 10bf
00000240: 6e68 bf3e 9ccf 003f 6883 44be dbfa 313f
00000250: b58c 9f3e ae5e c23e 260b be3e c6c6 e53e
00000260: e4f6 5e3e 5f27 133e e4ac b83e d3db d53e
00000270: 1450 11bf c057 cd3e 71db e83e 9f87 cfbe
00000280: 0a1c 08bf d61a bd3e 4255 ce3e 66f2 a9be
00000290: 3f94 15bf 4357 f73e 25a8 9d3e 1226 f53e
000002a0: 2f7a 553e 20f5 323d 6ec1 a93e a505 fbbe
000002b0: ca1b 15bf 66a5 cfbe 3f13 36bf 1d68 a43e
000002c0: ac12 013f 9075 ac3e ea78 cc3e 7340 babe
000002d0: 592d 3bbf 4f94 963e a51e af3e 3931 aa3e
000002e0: 3570 dfbe 4f14 a9be dc41 d13e 366d ff3e
000002f0: 4e87 edbd 751f b73e 8625 e43e e5b3 f43e
00000300: b702 aabe 313a b73e 6eb2 1e3f 7630 cfbe
00000310: 622d 9a3e e2c5 b93e d069 e83e e58f ea3e
00000320: ef24 d5be 1815 aa3e 4bbf d73e 5cc8 8cbe
00000330: 66c9 9f3e ff51 af3e e0c6 e63e 7b54 0fbf
00000340: 08d2 953e 6bc7 013f 0166 3fbf 55fa 10bf
00000350: d488 493e af5b bb3e 66e5 f53e 8c94 113f
00000360: e261 ba3e 4350 0e3f 18f7 e83e 098b b43e
00000370: 8b49 a03e fbf0 f03e b5aa ac3e f98c e1be
00000380: 5c92 923e fc10 dc3e 6119 d73d 2ee0 23be
00000390: a6c4 c5be 3430 beba 6258 b43e e895 e63e
000003a0: 35ba b63e 72d1 fb3e f1ad 05bf 8260 d13e
000003b0: a1a4 963e eef3 943e ab15 bd3e e23f d6be
000003c0: 2b5f e83e d4a7 03bf f401 073f 3de4 e33e
000003d0: 8204 1cbf e673 983e e82b 92be 21bc 9e3e
000003e0: 5fef bc3e 368e b23d c834 f43e 8a28 7f3e
000003f0: b551 043f 2a5b 803e 1e86 c83e b13e b1be
0.39636844 0.34098965 0.42847356 0.38075736 0.38371706 0.3039293 -0.09457927 -0.2034016
0.388283 0.3245601 0.35253465 0.32592285 0.3087088 0.47145697 0.39306736 -0.6221952
0.41677544 0.3086489 -0.77874315 0.5205175 0.25941756 0.359408 0.40012994 0.40660027
-0.8834711 0.09474215 0.3978374 0.35512266 0.17681403 0.43946555 0.52728564 -0.55612063
-0.5359952 0.35947385 0.42908126 -0.68248993 0.30637428 0.43901613 0.32115993 0.4565969
0.15066981 -0.3714783 0.3294144 -0.15090704 0.29592893 -0.60990906 0.38071525 0.25728908
0.36001965 0.33641732 0.3833672 -0.55017704 -0.6351761 0.3029161 0.3529936 0.32311723
-0.30885193 -0.765966 0.35519475 0.4483417 -0.17218524 0.37579238 0.43548974 0.35894734
-0.30158234 0.40516204 0.51558286 -0.026768884 0.31781644 0.31834537 0.42870802 0.41791064
-0.29925042 0.35268283 0.3648096 -0.58512765 0.38718593 0.2742523 0.48254138 -0.27437583
0.25771514 0.52208257 0.43009153 -0.64443326 0.09790086 0.26211405 -0.5052639 0.47522554
-0.5711243 0.38906625 0.39396706 0.3437251 0.1588692 0.4059386 0.17471549 -0.21510804
-0.9005834 0.44870684 -0.90165764 0.13512518 -0.61767536 0.031157035 0.32654706 0.40793943
0.3372888 0.4975807 -0.39567083 0.4641854 0.30514473 0.29701972 0.38948202 -0.43088615
0.47249958 0.21984681 0.5150606 0.40646154 -0.5986887 0.27148485 0.45228028 0.3218638
-0.3532701 -0.5499632 0.46056688 0.3291188 0.43354687 -0.76233935 0.515749 0.4012783
0.37185565 0.38023224 0.47339675 0.37248117 -0.6561934 0.26358977 -0.3919444 -0.41864994
0.37102106 0.3210031 0.32396656 0.2756963 0.30269825 0.469749 0.36235747 -0.564384
0.3738436 0.50316787 -0.19190753 0.695234 0.31162038 0.3796286 0.3711788 0.44878215
0.21773869 0.14370488 0.36069405 0.41769275 -0.56762815 0.4010601 0.4547992 -0.40533158
-0.53167784 0.36934537 0.40299422 -0.33192748 -0.5842933 0.48308763 0.30792347 0.47880608
0.2084739 0.0436908 0.33155388 -0.49027744 -0.5824553 -0.40555876 -0.7112312 0.32110682
0.50419116 0.33683443 0.39936 -0.36377296 -0.7311607 0.29410025 0.34203067 0.3324068
-0.43640295 -0.33023307 0.4087056 0.4988801 -0.11598073 0.35766187 0.44559878 0.477935
-0.33205196 0.35786584 0.6199101 -0.4046666 0.3011275 0.36283785 0.4539323 0.45812908
-0.4162974 0.33219218 0.42138132 -0.27496612 0.31208342 0.34242246 0.45073605 -0.5598828
0.29261804 0.5069491 -0.7476502 -0.56631976 0.19681102 0.36593387 0.4802658 0.5686729
0.36402804 0.5559122 0.45501018 0.35262325 0.3130611 0.47058854 0.3372399 -0.44052866
0.28627288 0.42981708 0.105028875 -0.16003487 -0.38626593 -0.0014510215 0.3522368 0.45036244
0.3568894 0.49183232 -0.5221854 0.40893942 0.29422477 0.29092354 0.36930594 -0.41845614
0.45385107 -0.5142796 0.52737355 0.4451007 -0.6094438 0.29775923 -0.28549123 0.31002906
0.36901376 0.08718531 0.4769652 0.24917808 0.51687175 0.25069553 0.39164823 -0.34618142

network.6.bias f4 [5]
00000000: 43c2 b53f d2d6 1240 e5f3 be3f 5dc5 0b40
00000010: adf1 503f
1.4199909 2.2943616 1.4918181 2.183921 0.8161877

network.0.weight f4 [128, 16]
00000000: 5308 983d 6c10 4d3d 0557 a2bd 75af 263e
00000010: 604c 87be 233c 8cbe e0e4 773e e254 2e3d
00000020: 646c a53e 40ee 123d f5a9 a03c d10b 9abd
00000030: 0cb8 6dbd cd04 fc3d 20e7 b139 2492 c1bd
00000040: c385 6b3e 3708 083e 2d05 1ebe 82c6 ed3d
00000050: b0b8 60be 4d7f 953e a971 21bd 67f5 f83d
00000060: 7032 3d3f 41fa eabc ebbd d1bd 7799 1bbe
00000070: 4df7 db3c e04a aabc cafe e7bd d062 09be
00000080: 5c58 963d b028 9d3e bce0 1ebd e27c 333e
00000090: 0682 c1be c757 8f3e 98d6 6abc d0fa 8fbd
000000a0: a096 a7bc 1b14 91bd 24b3 0d3e f919 32be
000000b0: bda1 b73d 2a11 0f3e bf7f 8cbd 6dc6 6ebc
000000c0: 544f 9cbe 5d04 22be 61e8 883b 09e1 abbd
000000d0: 9a0f 06be 3d74 183d a1c0 5ebe 1169 b4bd
000000e0: 2dcc 3e3e 561e 693d 8c5d b8bd 8169 1ebe
000000f0: f5a8 ec3e 7e54 b7bc baad c5bd abb8 ce3b
00000100: f49d 1c3e 524b 54be 923d 223e f8da 073e
00000110: d6d1 c5be 2fe3 333e e5e5 8e3c 9bea cdbd
00000120: f346 9ebe 374e 143e 0d45 d2bc adfe 2c3d
00000130: db09 ae3e 3d65 8bbd 6a7c 97be ef98 bf3e
00000140: 2547 243e dbe1 e53d 39c1 d63d 6707 1e3c
00000150: cb69 df3d 27e2 ee3e 35ff 93bd c92e 06bd
00000160: cc5d 733e 8be4 20be f596 af3e 71e4 4a3e
00000170: 60ba 1a3e 61e8 4c3e 7ff3 cfbd 4693 a9bd
00000180: 0b89 353e 6387 093e d20a 4a3d 7fc0 e9bd
00000190: 5018 12ba 20c0 dc3e 0ad7 463e c886 953d
000001a0: d2ce 69bd e295 793e fcde 4cbe 4a54 15be
000001b0: 47fa cc3e 7d44 c2bd c0a8 d13d f439 9c3e
000001c0: 16e3 26bf d75d 09bf caf3 22be 2b1f 95be
000001d0: e961 a33c 2578 d2be d735 b3be a0c8 433d
000001e0: e73c 46be 6749 58bd 6ff4 69be 9c4f 843d
000001f0: 04b3 a5be d1a7 28be d499 d0be af77 fa3d
00000200: 1ed7 feba 3ee6 e63c 9aa5 d8bb ba59 0fbe
00000210: 9f10 61be 7a8e c4bd e1ac 6e3d 4526 16bc
00000220: ca65 a33e 090d 403e a1a3 0bbe 9374 af3d
00000230: 26ca bc3d 6b64 d5bc 5a32 2bbf e5ca 15be
00000240: bd55 6c3d 29a9 adbc e2d2 543e fd0c c93d
00000250: 1b31 303c 4a8d eb3d 9348 e6bb 1a1e b23d
00000260: e727 4c3c 1290 ccbd 7935 3e3e 51b4 353e
00000270: d9b4 933d 8d12 163d 0529 ddbc ad56 523c
00000280: b9fe 9d3e fcd8 8c3e 94ee 863d ef53 f8bc
00000290: 844c 95be a8ba c43e bfb4 203d 4110 10be
000002a0: af6f 0c3e dc25 6ebd f307 00bd 84a3 2d3e
000002b0: af8f ec3d 85d3 643d 6dfa 56bd 47a7 b33d
000002c0: b1de f03d f6a6 5c3e 412f 793c fb40 9ebd
000002d0: 17f2 85be 6051 f7bd 037f 853e 5229 49bd
000002e0: 888a b23e 38ee 8b3c 587d 02be 6abc 193e
000002f0: ba90 043e 173b 853d 3c64 253c 4a5b f83c
00000300: 85af 56bf a444 f1be e727 47be d748 4fbe
00000310: f60c 863e 31d9 9dbc 50d3 b7be ac6b 1cbd
00000320: 209b 02be 3c36 513c 283c e1bd cc81 00bd
00000330: b5fa c6be 0281 70bd 1e46 9fbe 8181 76be
00000340: 1072 993e a2cb fb3d 9c6c 323d bf7a 7a3e
00000350: b4f2 9bbe 6fe4 52be 7ca4 433d f302 83bd
00000360: db3c 463d 6850 45bd 800d 0e3e 6b1b 313d
00000370: 49a0 443d 2c53 903d 0452 863e 0090 febc
00000380: 5e03 4ebf 99dd e9be 49d9 97be 4f5a 52be
00000390: efb9 333e bbd3 b9bd 1bd1 41be 6c5a 533d
000003a0: 14af f6bd 6882 5cbd cb82 02be 59c3 0f3e
000003b0: 0a3a 95be a6b1 12be 5483 87be d947 353e
000003c0: dc2d 863d ae6b 39be d238 81bc 19d8 983c
000003d0: a0dd afbd 439a 1dbe 87d9 06be 1c08 c13d
000003e0: 320b 90bd 7b66 97bc c777 7d3d b1fb 093e
000003f0: 7bf0 d73d 9528 bb3d 644e 3d3e 48a8 193d
0.07423463 0.05006449 -0.07926754 0.16277869 -0.26425457 -0.2738963 0.24208403 0.04256142
0.32309258 0.035871744 0.019612292 -0.07521785 -0.05803685 0.12305603 0.00033932272 -0.09451702
0.23000245 0.13284384 -0.15431662 0.11610128 -0.21945453 0.29198685 -0.039415035 0.12156182
0.73905087 -0.028683783 -0.10241302 -0.15195261 0.02685132 -0.020787656 -0.11327894 -0.134166
0.07341072 0.30695105 -0.038788542 0.17528108 -0.37794513 0.27996656 -0.01433339 -0.070302606
-0.020457566 -0.07083913 0.13837868 -0.1739272 0.08966396 0.13971391 -0.06860303 -0.014573676
-0.30529273 -0.15821977 0.0041780923 -0.083925314 -0.13091889 0.03722023 -0.2175317 -0.08809102
0.18632574 0.056913696 -0.09002218 -0.15469934 0.46222654 -0.022379156 -0.09652276 0.006308635
0.1529463 -0.20731857 0.158438 0.13267124 -0.38636655 0.17567132 0.017443607 -0.10054513
-0.30913505 0.14482962 -0.025667692 0.042235065 0.33991894 -0.06806419 -0.29587108 0.37421367
0.16042764 0.11224719 0.10486073 0.00964532 0.1090885 0.46656916 -0.07226411 -0.03275946
0.2376625 -0.15712182 0.3429486 0.19813706 0.15110159 0.2001052 -0.10153865 -0.08280043
0.17728059 0.13430552 0.049326725 -0.11413669 -0.0005573081 0.4311533 0.19417968 0.07301098
-0.057082005 0.24373582 -0.20006937 -0.14582935 0.40034696 -0.09485719 0.10237265 0.30512965
-0.65190256 -0.53658813 -0.1591331 -0.29125342 0.019944148 -0.41107288 -0.35002014 0.047798753
-0.1935917 -0.052804377 -0.2284715 0.06460497 -0.3236314 -0.16470267 -0.40742362 0.12229859
-0.0019442772 0.02818596 -0.006611538 -0.13999072 -0.21978997 -0.09597488 0.05827034 -0.009164398
0.31913596 0.18754973 -0.13636638 0.08567157 0.09218244 -0.02604886 -0.66873705 -0.1462818
0.057698954 -0.021198826 0.2078357 0.098169304 0.010753895 0.11501558 -0.0070276945 0.08697148
0.012460685 -0.09988417 0.18575086 0.17744567 0.07212228 0.036638785 -0.026997099 0.012838048
0.308584 0.27509296 0.06588474 -0.03031346 -0.2915994 0.38423657 0.039234873 -0.140687
0.13714479 -0.058141574 -0.03125758 0.16956908 0.11550843 0.055865783 -0.05248492 0.0877214
0.11761225 0.21548066 0.01520902 -0.07727238 -0.26161262 -0.12076068 0.26073465 -0.04911167
0.34871316 0.017081365 -0.12743127 0.1501328 0.12945834 0.06505411 0.0100946985 0.030316968
-0.8386157 -0.4712268 -0.19448815 -0.2024263 0.26181763 -0.019268604 -0.35903406 -0.03818862
-0.12754488 0.012769278 -0.10997802 -0.031373784 -0.3886315 -0.05871678 -0.31108183 -0.2407284
0.29969835 0.12294699 0.04356061 0.24460886 -0.30458605 -0.20594953 0.047764286 -0.06397047
0.04839788 -0.048172385 0.13872337 0.04323904 0.048004422 0.07047114 0.26234448 -0.031074524
-0.8047389 -0.45676878 -0.29657963 -0.20542262 0.17551397 -0.090735875 -0.18927424 0.051599905
-0.12045112 -0.053835303 -0.12745206 0.14039363 -0.29145843 -0.1432558 -0.26467383 0.17703189
0.06551716 -0.18107483 -0.015774164 0.01865773 -0.085871935 -0.15390877 -0.13168918 0.09425375
-0.07033385 -0.018481484 0.061881807 0.13474919 0.10543915 0.091386 0.18486935 0.037514

network.0.bias f4 [128]
00000000: ce93 2c3d 5a5f 0a3d d71b 493d 53d9 28be
00000010: cb79 8ebc 7f89 fb3d dd9b 843d acd3 7fbe
00000020: 3bce f8bc ea8b 113e 3f5e a73d a9e3 923d
00000030: a88f 3abe 7614 683d 7367 53be 0000 0000
00000040: 26b1 0abc b4d1 3abe 5b80 fdbc ca64 8d3d
00000050: 4e3e e63d eeeb 2a3c a48d 973c 51ce af3d
00000060: 6648 ba3d d680 603d 9b60 c5bd 2d3e 27be
00000070: 3f51 a33d 2582 2d3d 8af2 21bd ae23 5fbe
00000080: 0000 0000 d3c2 c13d 6af5 78be 6888 a5bb
00000090: ae66 69be 8368 843c dda3 df3c 3fba 303d
000000a0: c90d 663d bf3d 19bd ce81 e1bb 0000 0000
000000b0: 2d83 fe3d ab1b 0a3e 6600 c53d ecac dfbc
000000c0: e8cb 68be 0000 0000 c2fb 72be c400 3bbe
000000d0: b96a 0a3e aeec 983d 4bf1 d83d 80f4 44be
000000e0: 7cda c53d be4f 0c3d 5d67 b23d b5ce b43d
000000f0: 3c2a 07be 44ca 91bb c998 0b3c 5f38 5fbe
00000100: c9a7 1d3d 0cb5 a33c ae4e b33c 1c2b 81be
00000110: b85e de3d 79af 83be 0000 0000 1896 303c
00000120: b384 ac3d ed0b 5fbd 2b7a 29be 9bc1 debd
00000130: 8d2b 1d3d a85d 2f3c 54dd 2dbd 0000 0000
00000140: 8dd6 b13d 32b7 173e d28f b2bd 0376 5a3d
00000150: 1185 7f3d 15d4 15be f5d3 b23d 2e3f ebbb
00000160: 387b 9a3d 66d0 0f3d 8668 973d cc9b 833d
00000170: 0000 0000 66c5 23bd 5d90 253d 8ca5 14bd
00000180: e000 0cbc f290 ac3d e9d8 f73c 2a70 48be
00000190: a6f0 0abd c5df fd3d 1472 06bc ebab 3abd
000001a0: 8d03 6abd 329b d73c 9080 513d 8e79 5bbe
000001b0: 0f90 e73c da58 733d a93b 8c3b bf01 013d
000001c0: 862b 33be ea37 55be 8d0d 5abe c63c b93d
000001d0: 3308 a9bc d7ae 933d a74d ab3d ff30 f53d
000001e0: a949 9a3d a783 92bc 623f 553d 49af 0c3d
000001f0: 6ea5 c63d c37a 2cbe 16e3 2abe fbc8 ad3d
0.042133145 0.03378234 0.049098816 -0.16489153 -0.01739206 0.12282085 0.06475041 -0.2498309
-0.030371776 0.14213529 0.08172273 0.07172329 -0.18218863 0.056660138 -0.20644931 0.0
-0.008465087 -0.18244058 -0.030944994 0.069039896 0.112423524 0.010432227 0.018500157 0.085842736
0.0909584 0.054810368 -0.09637567 -0.16332312 0.07974481 0.042360444 -0.039537944 -0.21790954
0.0 0.09460988 -0.24312368 -0.0050516613 -0.22793075 0.016163116 0.027299816 0.043146368
0.05616549 -0.0374124 -0.006881929 0.0 0.124273635 0.13487117 0.096192166 -0.027304135
-0.22734034 0.0 -0.2372885 -0.18262011 0.13517274 0.07467018 0.10592898 -0.19233894
0.09660813 0.034255736 0.08711121 0.08828489 -0.13199705 -0.004449161 0.008520314 -0.21798848
0.03849009 0.01998379 0.021888103 -0.25228202 0.1085791 -0.25719813 0.0 0.010777973
0.08423748 -0.054454733 -0.1655051 -0.10876771 0.03837161 0.010703482 -0.042447403 0.0
0.086835004 0.14815977 -0.08718838 0.0533352 0.06238276 -0.14631684 0.08731834 -0.0071791625
0.07543033 0.035110854 0.07392983 0.064262 0.0 -0.039983176 0.04042088 -0.03629069
-0.0085451305 0.084260836 0.030254798 -0.19574037 -0.033920906 0.12396196 -0.008205909 -0.04557411
-0.057132293 0.02631912 0.051147997 -0.21433088 0.028266935 0.059410907 0.004279573 0.031495806
-0.17497072 -0.20822111 -0.21294232 0.09044795 -0.020633793 0.072110824 0.083644204 0.11972236
0.07533581 -0.017885042 0.0520624 0.034346852 0.09699522 -0.16843705 -0.16688189 0.084855996

network.3.weight f4 [128, 128]
00000000: 3009 a53d 0b6f 84bd 8a87 cc3d 1661 9f3d
00000010: c90d 7d3c 059a 983d 8387 123e fca3 c9be
00000020: 62dc 9ebd 3901 e13b 121a 24be bdce a63d
00000030: 0601 b5be 06f1 423d c187 abbe 4b86 b3bd
00000040: 7b83 3d3b fe88 06bf c6d4 0dbe e58f 0ebc
00000050: 66e7 933d e43c e23c 7195 13bd 156e 033e
00000060: a1a7 ab3d 6835 fb3c 6c42 ae3d 736c 72be
00000070: b111 a1bd 81f5 023e 9fbc 08be 73e1 efbd
00000080: 968e 3e3c b833 f83d d6a0 00bf 2009 c43d
00000090: 23ac 1fbf 1c25 023e 4290 7e3d 5a05 4fbe
000000a0: f64e 19bd 483b 6bbc 02d5 163e 351b 683d
000000b0: b4fb 8d3e 6c41 553c b4f8 0b3e fea5 4d3e
000000c0: b817 73bf 6d6a 0f3d 14d0 2ebf f40e cbbe
000000d0: b401 cbbd 0b97 17bd e6ee 4dbe 3590 8f3d
000000e0: d109 af3d 23cc 1fbe 1fb1 06be 4bdc 173e
000000f0: 4594 49bc aadf 4c3d 5fa1 9f3c 8c23 0ebf
00000100: 0579 6ebd ba83 79b9 2c3d 06be ed73 4fbf
00000110: d074 a13d 2ec2 07bf 9372 18bd ce86 98bd
00000120: 2728 3d3d 6c34 903d 700d 09be b3a2 94bd
00000130: e1ec e5bd 9c6a d43b eeaa 2c3d 249f adbd
00000140: f129 053d 3665 ae3d 5cbd 093e b779 573e
00000150: 8198 93bd c083 f6bd 620b 233c f9b0 a5bd
00000160: 9f3a 7ebb 46ca 1d3e 5f92 ec3c 1fa8 0d3e
00000170: 0b5c bc3a 267d 2d3e 7d2b 9fbd 5dc1 213e
00000180: d610 a83d f2c8 7d3e 0f8a 3e3e cbee 13bf
00000190: 988d d13d 8243 3a3e c1d9 04be 2ca6 22bb
000001a0: 4a37 aabb e415 1b3e 7c31 773d 9bd1 41be
000001b0: bd39 72bd 6415 813c d063 d73d c549 113d
000001c0: 30c9 b1bd c438 81be 69f2 b9bd cdda c83d
000001d0: d05f ff3d 9395 313e 598c fb3d 7f15 2cbd
000001e0: 6371 4d3e f110 c5bc decd e63c cb94 6dbb
000001f0: f02f dc3c 96d5 b43c bc04 8a3c a6f9 273d
00000200: 5dc4 7d3c 01cd ebbc 2aef 153e 1b10 303e
00000210: 9e1c 0c3d e016 aabd d384 c63c 8d11 91be
00000220: 9ad2 d5bd fe1a 3f3e 7b21 ff3b 352d 54be
00000230: 4019 debe aec6 973d 45d2 a8be 5001 60bb
00000240: ad04 4d3d d513 2ebf bc9c 4c3d 467a 223c
00000250: ef7d 63bb 594e 653c b54a 143b 19e2 0f3e
00000260: a654 c3bd 9288 72bd 32d8 4c3e 39fb 85be
00000270: e200 e2ba d887 e73d 6c70 943d 96bb 143d
00000280: 40c0 ff3d f544 9d3c ffef 9bbe bb81 00be
00000290: eea7 1abf d238 cf3d f7b4 90bc bd95 01bc
000002a0: 07e5 e4bd 8c80 fd3c 55fe 203e 849a 0ebe
000002b0: e7c6 9ebc b8c4 ff3d 50f6 ffbd 7a25 4b3d
000002c0: dbfe 18bf 2dfe cf3d 7fa3 2ebf 3396 16bf
000002d0: 0a05 773e b502 2f3e 4afd 3abe 3f8c 47be
000002e0: 46b6 c63d ace0 f53d fb87 0dbe 03c7 203e
000002f0: a182 76be beb5 163e 83a9 5a3e 182e 0bbf
00000300: 3fbf 6c3c bbe2 3ebe 5e30 d9ba a68f 12bf
00000310: 9fc2 df3b 15a9 c3be 8910 5bbd 4b81 f9bd
00000320: 0e70 5e3e f91b b83d 25b7 21be 44f5 b8bd
00000330: 74cc 95bd f803 a5bd e5a2 123e 2412 12bd
00000340: aaa0 9dbc 4b5f c0bd bc9c f13d 476d cb3d
00000350: fe1c ba3d d2be 50bc b330 083e c01b 3abc
00000360: ed3c 213e 0e11 403e 5ebb 7fbd 0d20 3d3e
00000370: 00b5 d0bd 3caa 373c e091 fdbc 063e 7abd
00000380: d457 c4bd 03dd b33c 1c0e c93d ffd3 0cbf
00000390: 5166 693d 853d 143e 8b16 efbd 3288 01be
000003a0: 0466 983d c109 16bd ee61 b33c 539a 12be
000003b0: 40bf afbd 3231 fd3d 9e2d bc3d da4a 1d3e
000003c0: d5ae a9be 750f a8be f72d d9be aa58 d2bc
000003d0: 392e bb3c 4666 12be 6227 023d 5a79 583d
000003e0: fe0e 453e 37d6 113e e54e 373e a4c2 b03d
000003f0: f887 553e 8d7b 37be 2bd1 d73d f235 593d
0.08058393 -0.06466492 0.099867895 0.077821895 0.015445181 0.07451252 0.14309506 -0.39382923
-0.077568784 0.006866601 -0.1602557 0.08144901 -0.35352343 0.04759314 -0.3350201 -0.08765849
0.002891748 -0.52552783 -0.13850698 -0.008701299 0.0722187 0.027616926 -0.03603119 0.12834962
0.08381582 0.030665115 0.08508763 -0.23674183 -0.078647025 0.12788965 -0.13353203 -0.11712923
0.011630675 0.121192396 -0.50245416 0.09572053 -0.62372035 0.12709469 0.062149294 -0.20216885
-0.03742882 -0.0143573955 0.14729694 0.05666657 0.27731097 0.013016086 0.13669091 0.20082852
-0.94958067 0.035013605 -0.6828625 -0.39659846 -0.09912434 -0.03700928 -0.20110664 0.07009927
0.08546794 -0.15605216 -0.13153504 0.14830129 -0.012303417 0.05001799 0.019486127 -0.5552299
-0.058220882 -0.00023795562 -0.13109273 -0.81036264 0.07883608 -0.5303067 -0.03721864 -0.07447587
0.04618087 0.07041249 -0.13384032 -0.07257595 -0.11226822 0.0064824354 0.0421552 -0.08477619
0.0325107 0.08515398 0.13451141 0.21042524 -0.07206822 -0.12036848 0.009951444 -0.080903955
-0.0038792265 0.15409192 0.028878389 0.13833664 0.0014370693 0.16942272 -0.077719666 0.15796418
0.08206336 0.24783686 0.18607353 -0.57786244 0.10232085 0.18189815 -0.12973692 -0.0024818284
-0.0051945793 0.1514507 0.060349926 -0.18927614 -0.059137095 0.01575727 0.105170846 0.035470743
-0.086809516 -0.2523862 -0.09079439 0.09807358 0.12469447 0.17342214 0.122826286 -0.042012688
0.20062785 -0.02405593 0.028174337 -0.0036252018 0.026878327 0.022074502 0.01684796 0.041009568
0.015488711 -0.028784277 0.14642015 0.17193644 0.03420698 -0.08305144 0.024233257 -0.28333703
-0.1044056 0.1866264 0.0077859736 -0.2072037 -0.4337864 0.07410942 -0.32972923 -0.003418047
0.050053287 -0.6799901 0.04995416 0.009916848 -0.0034712513 0.01399573 0.0022627537 0.14051093
-0.0953763 -0.059212275 0.20004347 -0.2616823 -0.0017242695 0.11305207 0.07248005 0.03631171
0.12487841 0.01919792 -0.3045654 -0.12549488 -0.6041249 0.101182595 -0.017664416 -0.007909236
-0.11176496 0.030945085 0.1572202 -0.1392613 -0.019381953 0.12488693 -0.12498152 0.049596287
-0.5976388 0.10155902 -0.68218225 -0.58822936 0.24123016 0.17090876 -0.18260685 -0.19487093
0.09702735 0.120057434 -0.13821404 0.15700917 -0.24073268 0.14717767 0.21353726 -0.5436721
0.0144498935 -0.18641178 -0.0016570201 -0.5725044 0.0068286206 -0.38214937 -0.053482566 -0.12182864
0.21722433 0.0898971 -0.1579252 -0.09031156 -0.07314387 -0.080573976 0.14319952 -0.03566183
-0.01924165 -0.09393176 0.11797473 0.099329524 0.09087561 -0.012740808 0.13299827 -0.011359155
0.15745898 0.18756506 -0.062434547 0.18469258 -0.10190773 0.011210021 -0.030953348 -0.061094306
-0.095870644 0.021955973 0.09817144 -0.5501098 0.056982342 0.14476593 -0.116742216 -0.1264961
0.07441333 -0.036630396 0.021897282 -0.14316683 -0.085814 0.12362899 0.09188388 0.15360585
-0.331412 -0.32824293 -0.4241788 -0.025677044 0.02284919 -0.14296827 0.03177584 0.052850105
0.19244 0.14241873 0.1790119 0.08630875 0.20852649 -0.17918225 0.105379425 0.053029962

network.3.bias f4 [128]
00000000: ede1 d73f 8125 c23f 19b7 c93f cf09 d23f
00000010: 88a7 2d3e 39e4 963f bbbf aebb 3689 133e
00000020: 31b9 c93f aaa0 473f 29a2 bd3f 0f8b c13f
00000030: 3a03 cb3f 1dd4 c73f d8f2 c63f 9014 b43d
00000040: d594 d53f 1844 bf3d 614c 603d de4f e13f
00000050: 8f89 cd3e ce43 cd3f 2631 d73f c992 ad3f
00000060: 3b83 5d3e bcc7 1ebd 9261 ce3f 83c5 ca3f
00000070: 72cd 1e3d b800 ca3f 4d33 d33f caa5 5c3d
00000080: b84f 113b 4f37 bf3f 8d82 c33f 7de4 993d
00000090: 34ff 9e3c 1ab1 c83f 7c1e 9e3f a82d c13f
000000a0: 4884 313e c44f 843e cf3d b73f acfb 933d
000000b0: 1700 af3b a5b1 f13a a472 983d c338 9f3f
000000c0: 9e79 c73f c29a b33f 025b ce3f bc4e 9a3d
000000d0: c089 d23d d9b6 983f 287f ce3f 42ba c73f
000000e0: 5f46 243e d75f 493d a2d0 df3f 9f71 ce3f
000000f0: 5ee8 423e 6687 c53f fb88 c73f a8a8 bd3f
00000100: 8c94 9ebc b515 9e3f 3e7d c33f d90c 633e
00000110: 3b15 c43f bf4e a93f 3804 c73f 1b17 ce3f
00000120: 8993 683d 6c14 c63f 3737 c83f 409b dabc
00000130: a148 d93f a83f c73f e527 ca3f aca9 a33d
00000140: 799a a73f 5386 ca3f a0fd 1b3c d831 7a3d
00000150: 51d2 2b3e 0cf2 ad3f ebce 773e 762f cf3f
00000160: 25f8 923e e142 c83f 0416 d33f 225e c13f
00000170: 9eb9 f93e 3ec6 c73f 9cb1 873f c155 d4be
00000180: 4958 923e aa7f be3f b752 b43e 3710 d5bd
00000190: 4fe9 e03d 3f22 74bd 5129 c23f 7403 c83f
000001a0: 5770 c93f 5d8e d33f f5ec 8d3d e614 cc3f
000001b0: ea99 be3f 1132 bc3f 54c6 c33f 0e60 833e
000001c0: 90f7 cf3f 44e9 7f3d e011 d03f 93d2 cb3f
000001d0: b964 cc3d c261 b03f 17bf f33d eab2 c33f
000001e0: 1a35 9f3e 2224 503e c72a ca3f 6d64 b73e
000001f0: a6f9 d33f 5b0f 833e f179 c33f a061 3c3e
1.6865822 1.5167695 1.5759002 1.6409243 0.1695844 1.1788398 -0.0053329146 0.1440781
1.5759641 0.7797953 1.4815112 1.5120562 1.586036 1.5611607 1.554286 0.087929845
1.6686045 0.0933916 0.05476034 1.7602499 0.4014401 1.6036317 1.6811874 1.356042
0.21632092 -0.0387647 1.6123526 1.5841526 0.038770147 1.5781469 1.6500031 0.053869046
0.002217276 1.4938754 1.5274216 0.07514284 0.0194088 1.5679047 1.2353053 1.5092058
0.17335618 0.25842106 1.4315737 0.07225737 0.005340587 0.0018439783 0.07443741 1.2439197
1.558399 1.4031603 1.6121523 0.07534549 0.1028018 1.1930801 1.6132555 1.5603716
0.1604247 0.049163666 1.7485545 1.6128424 0.19033954 1.5431945 1.5588678 1.4817095
-0.019357942 1.2350374 1.5272596 0.2217287 1.5318979 1.3227156 1.5548162 1.6100801
0.056781325 1.5474982 1.564185 -0.026685357 1.697529 1.5566301 1.5793425 0.07991347
1.3094016 1.5822242 0.009520918 0.06108269 0.16779448 1.3589492 0.24200027 1.6186359
0.28704944 1.564541 1.6491094 1.5106852 0.48774427 1.5607374 1.0601077 -0.41471675
0.2858298 1.488271 0.35219356 -0.10403483 0.10982 -0.059602972 1.5168859 1.5626054
1.5737408 1.6527821 0.069299616 1.5943878 1.4890721 1.4702779 1.52949 0.2565922
1.6247425 0.06247832 1.6255455 1.5923637 0.09980149 1.3779833 0.11901682 1.5288975
0.310952 0.20326284 1.5794305 0.35818806 1.6560562 0.25597653 1.5271589 0.18396616

network.6.weight f4 [5, 128]
00000000: 508f c83e beae ac3e 119e d73e 0c1d bf3e
00000010: 15f3 c33e b97e 9a3e 2965 bdbd 7213 4cbe
00000020: 8897 c53e 26c0 a23e 4a6e b03e 4060 a53e
00000030: 18eb 9b3e 504d ef3e 3ab6 c83e 4647 1ebf
00000040: 78eb d23e 71a8 963e 2f17 44bf f4f8 033f
00000050: f1cd 843e 10e0 b63e f95a ca3e a298 cf3e
00000060: d2ba 60bf 2c08 c23d d46f c83e 0e05 b13e
00000070: 0604 363e ff4d de3e 5247 043f 57ae 0cbf
00000080: a06a 07bf 5d3a b53e 97bb d83e 606f 2dbf
00000090: 355c 993e b747 e03e 2bcf 9f3e 1e26 e73e
000000a0: e237 203e 2433 c2be 01d6 a63e 2398 18be
000000b0: 3e93 963e e761 1bbf 12bc bb3e 1394 833e
000000c0: f312 b43e 6ac9 a83e a603 c03e ab81 0bbf
000000d0: b651 22bf 9b55 973e 0b94 b23e 9935 a43e
000000e0: cbd1 9cbe a1d7 42bf f2cf b43e a088 e23e
000000f0: a340 31be a9eb bb3e 55a0 dc3e aff7 b03e
00000100: 1add 9bbe 2cae ce3e 1631 033f e744 58bd
00000110: bf90 9e3e 9689 a03e 7399 d73e f27a d23e
00000120: eb3b 95be c4fa b23e 3c04 ba3e ac0a 15bf
00000130: 0f99 c53e 14d3 893e f928 f33e c2fe 8bbe
00000140: 1606 813e 8d3a 043f 9c4a da3e efd1 22bf
00000150: a0db a03d ef74 853e 79e3 00bf cc0e f03e
00000160: dd92 10bf 2786 c73e 46d5 c73e f2b2 ac3e
00000170: 00d9 143e 106a cd3e 7cb5 2f3e 2d3a 5dbe
00000180: a319 63bf 4eff e13e 5a4a 5fbf 415e 0a3e
00000190: 6a82 1cbf 0a3d ff3c be5e a23e b2b4 ce3e
000001a0: 6c96 a93e 154a fb3e 4250 cbbe 7573 ed3e
000001b0: d500 9a3e f6d9 933e 9853 c33e 0545 dcbe
000001c0: 623c ef3e fda4 613e 55a8 023f 3167 cc3e
000001d0: f089 17bf c660 863e 0270 e23e 7201 a53e
000001e0: 6d53 b5be f118 0cbf 7590 e73e 8e2f a63e
000001f0: decc db3e 7cfc 40bf c7dd 033f 7490 ca3e
00000200: db4e c13e 610d c33e a364 f43e 5b1b bd3e
00000210: 6ada 27bf 2f82 853e e480 ccbe 00e3 d4be
00000220: 1ee3 bb3e 9807 a43e bae6 a43e d0e9 8f3e
00000230: 5af2 9a3e 701d f13e 0be6 bc3e ed77 0dbf
00000240: 89b3 be3e 38a8 033f 68dc 52be e957 313f
00000250: 3558 a23e 55b2 c13e ac1d bd3e 11dd e63e
00000260: fcd9 673e 5f27 133e 9618 b93e e867 d43e
00000270: 7da4 11bf 7192 cd3e 90e6 e73e 6dc6 cbbe
00000280: e1bf 06bf 8d19 bd3e 81c7 d13e f6f5 a8be
00000290: 8a08 16bf 2b53 fa3e 658d 9d3e 8db3 f53e
000002a0: 6252 5a3e 548b 3f3d 49c7 a63e 87b9 f4be
000002b0: 3a1d 15bf c79e cabe 25ab 32bf 38f7 a13e
000002c0: a4f2 003f 2692 ad3e 47b4 ca3e 39ed b9be
000002d0: 1c18 38bf 0d65 943e 2474 ac3e 2abc a93e
000002e0: f73d dfbe f5cf a4be ae1d ce3e 389e ff3e
000002f0: e0df e1bd a43b b63e 6d5d e83e fd17 f53e
00000300: d989 a6be 5bce b43e 9e3c 203f af96 d0be
00000310: 48b9 993e 72d5 b93e a16c e73e 0c5b ec3e
00000320: 37c6 cebe a20a a93e f6b8 db3e 0864 8bbe
00000330: 9a86 a23e 3fad b13e fcb2 e93e 07bf 0fbf
00000340: 1510 993e cb3b 013f 06be 3ebf 40ad 0cbf
00000350: 14c1 6d3e 7de2 ba3e fa70 f93e 9cfd 123f
00000360: 1c58 bc3e ab56 0e3f fe1f eb3e 2679 b43e
00000370: c501 a13e b0fd f13e 6400 ab3e 86b2 debe
00000380: c292 943e dbfb dc3e 8488 cf3d 2ee0 23be
00000390: 9eaf bfbe 3430 beba 83fc b63e f876 e63e
000003a0: 4426 b63e 194d f63e ccea 05bf e456 d03e
000003b0: f41e 973e b2f7 963e 85cc bf3e a8b7 d1be
000003c0: d37d eb3e 0dc5 03bf 0c7d 073f 4d11 e43e
000003d0: 81d1 1cbf 9cb1 9c3e d2bf 8ebe 4640 9d3e
000003e0: 76ba c03e 3c3c c83d b8cc f33e c167 823e
000003f0: 934c 043f 8b12 703e fe16 c63e 4f1f b4be
0.3917184 0.33727068 0.42112783 0.37326849 0.38271394 0.30174807 -0.092478104 -0.19929293
0.38592172 0.31787223 0.34459144 0.32299995 0.304528 0.46738672 0.39201528 -0.61827505
0.41195273 0.29425386 -0.76597875 0.5155175 0.2593837 0.3571782 0.39522532 0.40546137
-0.87785065 0.09474215 0.39147818 0.3457417 0.17774972 0.4341888 0.51671326 -0.5495352
-0.5289707 0.3539609 0.4233062 -0.6774807 0.2995316 0.43804714 0.31212744 0.4514627
0.15646318 -0.37929642 0.32585147 -0.14901786 0.29409212 -0.6069626 0.36666924 0.2569891
0.35170707 0.32966167 0.37502784 -0.5449473 -0.6340593 0.295575 0.34878573 0.32072142
-0.3062881 -0.76110274 0.353149 0.44244862 -0.17309813 0.36703232 0.43091074 0.34563968
-0.30442125 0.40367258 0.51246774 -0.052800085 0.30969808 0.3135497 0.4210926 0.41109425
-0.29147276 0.34956944 0.36331356 -0.5821941 0.38593337 0.26918852 0.47492197 -0.27342802
0.25199956 0.5165184 0.42635047 -0.63601583 0.0785439 0.26065776 -0.50347096 0.4688629
-0.56474096 0.38969538 0.39029902 0.33730274 0.14535904 0.40119982 0.17159075 -0.21604224
-0.88710994 0.44140095 -0.87222826 0.13512518 -0.61136496 0.031157035 0.31712908 0.40372235
0.33122575 0.49079958 -0.3970967 0.4637715 0.3007876 0.28877228 0.38149714 -0.43021408
0.46725756 0.22035594 0.51038104 0.3992248 -0.5919485 0.26245707 0.4422608 0.32227665
-0.3541521 -0.5472556 0.452274 0.32458156 0.4292974 -0.7538526 0.5151028 0.39563334
0.37755474 0.38096145 0.4773303 0.36934933 -0.6556765 0.26075885 -0.39942086 -0.41579437
0.36696714 0.32037044 0.3220728 0.28108072 0.30263025 0.47092772 0.3689426 -0.5526112
0.3724635 0.51428556 -0.20591891 0.69274765 0.31707922 0.3783137 0.369367 0.45090535
0.22641748 0.14370488 0.3615157 0.41485524 -0.56891614 0.40150788 0.45293093 -0.39799824
-0.52636534 0.36933556 0.40972522 -0.33000153 -0.5860678 0.48891577 0.30771938 0.4798855
0.21320489 0.046763733 0.32573918 -0.47797796 -0.5824772 -0.39574262 -0.69792396 0.31633925
0.5037024 0.33900565 0.39590666 -0.363138 -0.7191179 0.28983346 0.33682358 0.3315137
-0.43601963 -0.3218991 0.4025702 0.499254 -0.11029029 0.35592377 0.45383778 0.47869864
-0.32527044 0.35313687 0.62592494 -0.40739962 0.3002417 0.36295658 0.45200065 0.46163213
-0.403856 0.33015925 0.42914551 -0.27224755 0.31743318 0.3470249 0.45644367 -0.5615086
0.29895082 0.5048186 -0.745087 -0.5495186 0.23218185 0.36500922 0.48719007 0.5741823
0.36785972 0.55600995 0.45922846 0.3524868 0.31446663 0.4726386 0.33398736 -0.43495578
0.29018217 0.431609 0.1013346 -0.16003487 -0.37438673 -0.0014510215 0.35739526 0.4501264
0.3557607 0.48105696 -0.52311397 0.40691292 0.29515803 0.29485852 0.37460724 -0.4096043
0.45994434 -0.5147255 0.5292518 0.4454445 -0.6125718 0.30604255 -0.27880722 0.307131
0.37642258 0.09777114 0.47617126 0.25469783 0.51679343 0.23444574 0.38689417 -0.35180137

network.6.bias f4 [5]
00000000: 27f1 b33f 842d 1240 1ef0 be3f 83ac 0a40
00000010: b40d 513f
1.4057969 2.284028 1.4917028 2.1667793 0.81661534
