教学演示项目/项目1_强化学习智能体训练/results/results/model_episode_1000.pth (torch, 631509 bytes, 24 tensors)

network.0.weight f4 [128, 16]
000000 f1 75 ab 3d f8 0a f2 3c 51 2e a7 bd d5 43 24 3e
       0.08372105 0.029546246 -0.08163131 0.16041501
000010 4b b8 64 be 2e ec 67 be 25 4a 6e 3e 68 ae 53 3d
       -0.22335927 -0.22648689 0.23270471 0.05168
000020 ba ce b9 3e 4a fe 3d 3d ff 60 c3 3c d1 0b 9a bd
       0.36290532 0.046385087 0.023849962 -0.07521785
000030 e4 ba e5 bd c8 dc c3 3d 20 0c f9 ba 83 32 c5 bd
       -0.11217287 0.09563595 -0.0019000806 -0.09628775
000040 68 31 75 3e 1e 5e 09 3e dd ed 25 be 38 f5 dd 3d
       0.23944628 0.13414809 -0.16204019 0.108377874
000050 40 51 5d be 89 89 98 3e b0 4e 50 bd d4 52 0b 3e
       -0.21613026 0.2979243 -0.050856292 0.13605815
000060 7b f5 36 3f 47 52 1d bd a4 15 d6 bd 77 99 1b be
       0.71468323 -0.038408544 -0.10453346 -0.15195261
000070 32 3a 45 3d 44 2b 0f bd ea b9 02 be c6 91 dd bd
       0.048151202 -0.03495337 -0.12766233 -0.1081882
000080 ed e8 ad 3d e7 9d 9d 3e 79 e2 b3 bc cb b8 44 3e
       0.08491693 0.30784532 -0.021958577 0.19211118
000090 ff 3e a0 be 1b f0 9b 3e 52 12 9e ba ea 7a f6 bd
       -0.31298062 0.30456623 -0.0012059903 -0.12035163
0000a0 93 fb 84 bd fb 34 92 bd b0 fe df 3d f9 19 32 be
       -0.064932965 -0.071390115 0.1093725 -0.1739272
0000b0 0d f5 06 3e ac 70 12 3e 47 e5 96 bd e8 10 01 3c
       0.13179417 0.14300793 -0.0736795 0.007877566
0000c0 54 4f 9c be 5d 04 22 be 61 e8 88 3b 09 e1 ab bd
       -0.30529273 -0.15821977 0.0041780923 -0.083925314
0000d0 9a 0f 06 be 3d 74 18 3d a1 c0 5e be 11 69 b4 bd
       -0.13091889 0.03722023 -0.2175317 -0.08809102
0000e0 2d cc 3e 3e 56 1e 69 3d 8c 5d b8 bd 81 69 1e be
       0.18632574 0.056913696 -0.09002218 -0.15469934
0000f0 f5 a8 ec 3e 7e 54 b7 bc ba ad c5 bd ab b8 ce 3b
       0.46222654 -0.022379156 -0.09652276 0.006308635
000100 21 0d 28 3e f5 f7 30 be 04 ae 23 3e 69 4b 09 3e
       0.16411258 -0.17282088 0.1598435 0.13407673
000110 ad 4f c0 be 4e 23 12 3e 95 19 97 3c 15 08 28 bd
       -0.37560788 0.1427128 0.018444816 -0.041023333
000120 e8 ac b1 be 6b 92 fc 3d 98 ce e8 3b ad fe 2c 3d
       -0.3470223 0.123326145 0.007104706 0.042235065
000130 a8 24 d1 3e e3 d5 a6 bd 0b 2e 9e be 59 a9 c0 3e
       0.4084828 -0.081462644 -0.30894503 0.37629202
000140 fc 87 15 3e f9 af ca 3d f2 4e fc 3d 92 3a e5 3c
       0.14602655 0.09896845 0.12319745 0.02798203
000150 80 e7 3c 3e 38 70 f5 3e 6d 17 67 bd 58 34 4a bd
       0.18447685 0.4793718 -0.056418825 -0.049366325
000160 5c a0 47 3e ab 2c 38 be dc 6a 95 3e 71 e4 4a 3e
       0.19494766 -0.1798579 0.2918309 0.19813706
000170 80 4b 51 3e d1 bf 31 3e c9 2e 05 be e4 89 99 bd
       0.20438957 0.17358328 -0.13006128 -0.07497004
000180 81 18 44 3e 08 b5 12 3e 4b 20 6b 3d bb 35 d9 bd
       0.19149972 0.1432687 0.057403844 -0.106059514
000190 80 28 12 3d da 98 d0 3e 3f fe 4d 3e 74 6b 01 3e
       0.035683155 0.40741616 0.20116518 0.12638646
0001a0 43 5c c3 bd 5f 73 57 3e 69 72 4e be 4a 54 15 be
       -0.09539082 0.21040104 -0.20160832 -0.14582935
0001b0 77 b6 d3 3e a2 55 db bd b7 12 e8 3d 28 fb 89 3e
       0.41350147 -0.107096925 0.113316946 0.2694943
0001c0 31 e5 2a bf 62 02 d9 be 93 cc 15 be 88 8b 8e be
       -0.6675597 -0.4238463 -0.1462882 -0.2784083
0001d0 e7 22 e0 3c 49 63 d1 be e9 52 ac be c8 29 0f 3d
       0.027360393 -0.4089606 -0.33657005 0.034951955
0001e0 85 c2 5c be 59 d6 85 bd 9b 79 3f be 9c 4f 84 3d
       -0.21558578 -0.06535024 -0.18698733 0.06460497
0001f0 6a 7e 96 be 0e e0 35 be 36 e3 d5 be c5 5d 77 3d
       -0.2939332 -0.17761251 -0.4177491 0.06039216
000200 26 54 81 bd b7 9c 23 3d 1d bb 62 bc 32 c0 16 be
       -0.06314878 0.039944377 -0.013838557 -0.14721754
000210 c1 99 4c be f3 68 17 be 24 fc 64 3d 58 37 45 3d
       -0.19980527 -0.14786129 0.055904523 0.048148483
000220 bb ab 43 3e a0 c9 61 3e e8 82 1b be 93 74 af 3d
       0.19108479 0.2204957 -0.15186656 0.08567157
000230 a9 3c 1c 3e 42 92 6f bd f0 8f 26 bf 29 c7 01 be
       0.15257515 -0.05848909 -0.6506338 -0.1267363
000240 5d 5b 39 3d bd dd 35 bd c4 dd 4e 3e e7 22 bd 3d
       0.045253146 -0.04440092 0.20201784 0.09235173
000250 e3 bb 7c 3d 85 4b 04 3e bf b2 96 bc 1f d2 b0 3d
       0.06170262 0.12919433 -0.01839578 0.086338274
000260 86 39 05 3d 93 06 0d be 16 b0 59 3e 51 b4 35 3e
       0.03252556 -0.13772039 0.21258578 0.17744567
000270 3e e5 33 3d cb b4 40 3c 74 5b 43 bd 4a d8 a2 3d
       0.043919794 0.011761854 -0.04769464 0.0795141
000280 b4 a0 9f 3e 1d d3 89 3e 09 34 59 3d 23 d3 30 bd
       0.31177294 0.2691888 0.05302814 -0.043170106
000290 3f ae 92 be 00 4f c5 3e 91 45 ba 3c 13 38 e5 bd
       -0.28648564 0.38536835 0.02273825 -0.11192336
0002a0 f5 a0 e7 3d 9b 28 7f bd e9 16 34 3b 84 a3 2d 3e
       0.11309997 -0.062294584 0.0027479476 0.16956908
0002b0 b8 83 30 3e 43 f3 9c 3d 4e 39 47 bd e2 38 f2 3d
       0.17237747 0.07663586 -0.048638634 0.11827256
0002c0 59 46 12 3e 92 fb 52 3e 57 01 96 3c 99 e6 97 bd
       0.14284648 0.20603779 0.018311186 -0.0741703
0002d0 be a5 5e be 8f ae a0 bd 85 64 83 3e 53 5d 70 bd
       -0.21742913 -0.078457944 0.25662628 -0.05868275
0002e0 0f 4f aa 3e b3 8c 0f bd 82 76 23 be 6a bc 19 3e
       0.33263442 -0.03504629 -0.15963176 0.1501328
0002f0 3f b4 c4 3d 76 81 87 3d 57 1a 42 3d 5f aa 63 3d
       0.09604692 0.066164896 0.0473884 0.0555824
000300 be 1c 44 bf 13 12 aa be b6 96 3c be a6 b7 44 be
       -0.7660636 -0.33216915 -0.18416867 -0.19210681
000310 75 1d 86 3e 00 a0 87 bc 89 59 b2 be cd d8 ea bc
       0.2619435 -0.016555786 -0.34833935 -0.028667832
000320 93 26 0c be ef 4f 39 3b d2 89 4f bd cc 81 00 bd
       -0.1368659 0.0028276404 -0.050668545 -0.031373784
000330 90 bb dd be df 10 23 bd 7c 8d 84 be bf b8 72 be
       -0.4330716 -0.03981101 -0.25889194 -0.23703288
000340 8b 65 9e 3e 0e 7a ca 3d a1 28 ee 3c b7 a4 6b 3e
       0.30936846 0.09886561 0.029072108 0.23012052
000350 a8 e3 8e be 5b 20 3d be 1d a9 da 3c 3e 57 c9 bd
       -0.27908063 -0.18469374 0.026691968 -0.09831093
000360 8d 3d b8 3c 0e e3 3f bd 5e 99 03 3e 6b 1b 31 3d
       0.022490287 -0.046847396 0.12851474 0.04323904
000370 72 70 73 3d 08 38 af 3d 7e c5 ae 3e 3f 24 96 3c
       0.059433408 0.08555609 0.3413505 0.01832783
000380 e4 ab 49 bf 72 12 b0 be 8b 23 94 be ef ee 4a be
       -0.7877791 -0.34389073 -0.28933367 -0.19817708
000390 eb bc 34 3e 7f f8 bc bd 40 e8 39 be e3 bc 35 3d
       0.17650191 -0.09227084 -0.18155003 0.04436959
0003a0 76 fc f7 bd 8d 5f 70 bd be c9 c3 bd 59 c3 0f 3e
       -0.121087 -0.058684874 -0.09559964 0.14039363
0003b0 b2 4b 8a be b8 62 14 be b3 f2 66 be d9 47 35 3e
       -0.27010876 -0.14490783 -0.2255352 0.17703189
0003c0 dc 2d 86 3d ae 6b 39 be d2 38 81 bc 19 d8 98 3c
       0.06551716 -0.18107483 -0.015774164 0.01865773
0003d0 a0 dd af bd 43 9a 1d be 87 d9 06 be 1c 08 c1 3d
       -0.085871935 -0.15390877 -0.13168918 0.09425375
0003e0 32 0b 90 bd 7b 66 97 bc c7 77 7d 3d b1 fb 09 3e
       -0.07033385 -0.018481484 0.061881807 0.13474919
0003f0 7b f0 d7 3d 95 28 bb 3d 64 4e 3d 3e 48 a8 19 3d
       0.10543915 0.091386 0.18486935 0.037514

network.0.bias f4 [128]
000000 13 e5 22 3d 30 79 d5 3c a4 05 87 3d 53 d9 28 be
       0.039769243 0.026058763 0.06592873 -0.16489153
000010 7b f5 82 bc 96 8b 10 3e 98 26 95 3d 78 ac 72 be
       -0.015986195 0.14115748 0.07282752 -0.23698604
000020 54 01 1a bd c9 96 0b 3e a8 09 8d 3d 08 3e 99 3d
       -0.037598923 0.13631739 0.068866074 0.07482535
000030 74 fe 2f be 2b bc 2c 3d 12 fc 4b be 00 00 00 00
       -0.1718691 0.04217164 -0.19920376 0.0
000040 a8 b0 49 bb eb 09 31 be 5b 80 fd bc c1 3a 89 3d
       -0.0030775461 -0.1728894 -0.030944994 0.067006595
000050 22 d1 eb 3d 91 c0 9c 3c a4 4a 45 3d 21 d7 d5 3d
       0.11514498 0.019134792 0.048166886 0.10441423
000060 c6 6f af 3d 8e e3 51 3d 20 ee 8a bd 0d 05 26 be
       0.08566241 0.051242404 -0.067837 -0.16212864
000070 55 63 9c 3d 6c 0d 0b 3d 43 f1 95 bc f0 b8 38 be
       0.076361336 0.033948347 -0.01830352 -0.18039298
000080 00 00 00 00 5e cc ba 3d 59 6e 69 be 9b e3 c7 bb
       0.0 0.09121011 -0.22796 -0.0061001307
000090 cf 9b 69 be e3 36 03 3d e4 da 36 3d b5 6b 5e 3d
       -0.22813343 0.032034766 0.044642344 0.054301936
0000a0 3a 27 05 3d c9 f1 82 bd ce 81 e1 bb 00 00 00 00
       0.032508112 -0.06393773 -0.006881929 0.0
0000b0 31 53 d6 3d 52 7a 02 3e 7f 47 a3 3d a0 18 ea bc
       0.10465086 0.12741974 0.07972621 -0.028576195
0000c0 5b 6e 66 be 00 00 00 00 dc e7 68 be 6f 93 3e be
       -0.22503035 0.0 -0.22744697 -0.18610929
0000d0 54 e3 11 3e f3 d6 8f 3d 07 cb de 3d c6 d9 40 be
       0.14246875 0.0702342 0.10878568 -0.18833074
0000e0 86 38 cc 3d 90 8b c6 3c 8c e7 a8 3d 1a 50 98 3d
       0.099717185 0.02423647 0.08247289 0.07437153
0000f0 43 59 e4 bd 11 db 26 bc 0c 0f ba 3c 60 37 56 be
       -0.11149838 -0.010184065 0.022712253 -0.20919561
000100 6b 29 62 3d 86 c1 8e 3c 80 3a 5d 3c c1 7f 7e be
       0.05521528 0.017426264 0.013502717 -0.24853422
000110 d7 46 d9 3d 8e 91 78 be 00 00 00 00 fd 08 e4 3c
       0.10609215 -0.24274275 0.0 0.027836317
000120 a5 30 8c 3d ed 0b 5f bd 8a 44 18 be 0a b4 e2 bd
       0.06845216 -0.054454733 -0.14869896 -0.11069496
000130 b2 e5 47 3d 5c 14 8f 3c 54 dd 2d bd 00 00 00 00
       0.04880304 0.017465763 -0.042447403 0.0
000140 07 0b 89 3d 01 82 31 3e d2 8f b2 bd 39 9d 63 3d
       0.066915564 0.17334749 -0.08718838 0.05556986
000150 91 16 6e 3d c5 57 08 be 4b e7 a7 3d 2e 3f eb bb
       0.05812699 -0.13314731 0.081984125 -0.0071791625
000160 4f ea 83 3d 24 42 11 3d 87 64 aa 3d d6 66 81 3d
       0.06441175 0.035463467 0.08319955 0.063184425
000170 00 00 00 00 07 cc 34 bd d7 98 03 3d 86 bc 3e bd
       0.0 -0.04413989 0.03212818 -0.04656651
000180 4b a0 0c bb 79 a3 be 3d 24 a4 ab 3c 04 39 2f be
       -0.0021457847 0.09308524 0.020952292 -0.17111593
000190 2a fb fa bc 37 a4 17 3e e8 49 8e 3b 97 48 04 bd
       -0.030637342 0.14808737 0.0043423064 -0.03229579
0001a0 83 54 d4 bc 29 6e b0 3c 08 fe 53 3d 94 7e 58 be
       -0.025919205 0.021536903 0.051755935 -0.21142036
0001b0 90 61 b1 3c da 98 0c 3d 58 b4 92 3c 73 72 47 3d
       0.021652967 0.034325458 0.01790826 0.04869313
0001c0 81 98 16 be e2 4b 65 be 00 5a 65 be 4e 46 bb 3d
       -0.14706613 -0.22392228 -0.22397614 0.09144269
0001d0 33 08 a9 bc 0e 7e a1 3d 89 b7 b6 3d 90 d3 f1 3d
       -0.020633793 0.07885371 0.08921725 0.118079305
0001e0 21 24 bf 3d 41 70 5c 3c 4e 7c 4f 3d 62 84 1c 3c
       0.09333063 0.013454498 0.050655656 0.009553047
0001f0 46 d6 b1 3d e7 09 33 be 16 e3 2a be 32 a9 b4 3d
       0.086834475 -0.17484246 -0.16688189 0.08821334

network.3.weight f4 [128, 128]
000000 90 b9 dd 3d fc 1d 20 bd a8 8b f6 3d 16 61 9f 3d
       0.10826409 -0.039091095 0.12038356 0.077821895
000010 5b e6 67 3d 38 52 ad 3d 35 18 fc 3d bb 76 7b be
       0.05661617 0.084629476 0.123093046 -0.24557011
000020 d9 9a 4c bd bd 08 11 3c 33 b4 24 be 94 57 a9 3d
       -0.04995236 0.008852181 -0.16084366 0.08268657
000030 9e 5b 86 be e6 51 60 3d e9 0b 32 be 4b 86 b3 bd
       -0.26241773 0.054765604 -0.17387356 -0.08765849
000040 dc 99 a4 3a ad c0 ca be c6 d4 0d be 64 41 07 3b
       0.0012558061 -0.39600125 -0.13850698 0.002063834
000050 d1 17 74 3d bc 84 3e 3d 52 5a b3 bc 55 68 13 3e
       0.059593026 0.046513304 -0.021893654 0.14395268
000060 48 13 cf 3d 34 57 43 3d 83 78 8b 3c 52 29 05 be
       0.101110995 0.047690585 0.017025238 -0.13004044
000070 d3 10 86 bd f0 8a 26 3e f1 4b a4 bd a2 c5 58 bd
       -0.06546178 0.16263938 -0.08022297 -0.052922852
000080 96 8e 3e 3c 73 74 01 3e 80 d2 d2 be 87 74 be 3d
       0.011630675 0.12642078 -0.41176224 0.092995696
000090 60 58 0e bf 5d b9 1b 3e 37 53 b2 3d 9f e1 40 be
       -0.556036 0.15207429 0.08707278 -0.18836068
0000a0 56 de f0 3b bf 7b a5 bb 02 d5 16 3e 35 1b 68 3d
       0.0073507233 -0.005050152 0.14729694 0.05666657
0000b0 ca e7 86 3e a3 4a 01 3a c3 16 34 3e b1 07 58 3e
       0.26348716 0.0004932081 0.17586808 0.21096684
0000c0 36 e6 67 bf 6d 6a 0f 3d 75 b8 07 bf 0a 1b a4 be
       -0.9058565 0.035013605 -0.53015834 -0.3205188
0000d0 c3 f9 91 bd b0 1e 19 bd 4c c5 38 be 98 2c be 3c
       -0.071277164 -0.03738278 -0.18044013 0.023214623
0000e0 5c 4b 07 3e 80 71 04 be 94 d9 02 be ca 68 36 3e
       0.13212341 -0.12933922 -0.12778312 0.17813411
0000f0 7e 70 6a 3d 77 79 72 3d db 91 a1 bc 4e b1 de be
       0.057236187 0.05919787 -0.01972287 -0.43494648
000100 bb 82 78 bd 6e 86 63 3d b5 09 ac bd ef 6f 42 bf
       -0.06067155 0.055548124 -0.08400289 -0.7595205
000110 f2 1e ec 3d 5f 1c e1 be 93 72 18 bd ea 3f 0e bd
       0.1152934 -0.43966958 -0.03721864 -0.034728922
000120 e6 03 67 3d 6c 34 90 3d d7 2a 90 bd 59 73 a0 bd
       0.056400202 0.07041249 -0.07039421 -0.07834501
000130 98 62 e4 bd 3f ff b0 3b ee aa 2c 3d 24 9f ad bd
       -0.11151618 0.0054015215 0.0421552 -0.08477619
000140 6d 97 7e 3d 8f a2 9c 3d 5c bd 09 3e ae f8 4b 3e
       0.06215613 0.07648193 0.13451141 0.19919083
000150 a4 56 72 bd fd 6f 6f bd 08 bb 78 3c f9 b0 a5 bd
       -0.05916466 -0.05845641 0.0151813105 -0.080903955
000160 bc 5c 94 ba e8 2a 24 3e 7d 77 0f 3d 5a 63 17 3e
       -0.0011319141 0.16031992 0.035026062 0.14783993
000170 0b 5c bc 3a e5 9d 48 3e b3 cf d0 bd f0 2e 2a 3e
       0.0014370693 0.19591482 -0.101958655 0.16619468
000180 2e 41 d9 3d 9e a1 87 3e ad 88 4a 3e 6b cf 02 bf
       0.10608135 0.26490492 0.197787 -0.51097745
000190 67 00 1b 3e cc e1 43 3e 84 6e ed bd 2f 69 53 3d
       0.15136872 0.19129103 -0.11593345 0.051613983
0001a0 8d f6 24 3d 2b 97 3a 3e 8e 63 a1 3d 9a c0 72 be
       0.04027419 0.18221729 0.07880317 -0.23706284
0001b0 63 de 97 bd ac 30 66 3c 43 00 f7 3d 49 f9 35 3d
       -0.07415464 0.01404969 0.12060597 0.04442719
0001c0 0e 3e ee bd ba 28 85 be 91 2d 11 bd de 9a af 3d
       -0.1163293 -0.26007634 -0.035443846 0.085744604
0001d0 d0 5f ff 3d d2 ac 50 3e 40 6e 22 3e 60 dd 46 bd
       0.12469447 0.20378426 0.1586237 -0.048550963
0001e0 d8 5a 57 3e d2 f8 1d 3c e8 96 2e 3d af 59 f8 bc
       0.21030748 0.009641843 0.042624384 -0.030316202
0001f0 8a 02 fb 3c 01 d9 f6 3d bc 04 8a 3c dd 9b 1a 3d
       0.03064086 0.12053109 0.01684796 0.0377463
000200 81 a8 50 3c 75 a5 97 3b 0b 9c 14 3e 1b 10 30 3e
       0.012735487 0.0046278783 0.1451265 0.17193644
000210 cd 8e e7 3d d5 99 9a bd 73 a4 2d 3d 83 24 3e be
       0.11306534 -0.075488724 0.04239316 -0.18568616
000220 dc ab c0 bd 08 35 44 3e d4 20 18 3d d8 b2 42 be
       -0.094077796 0.19160855 0.037140682 -0.19013536
000230 b8 24 e2 be 46 2a 96 3d d1 c1 83 be 50 01 60 bb
       -0.4416864 0.07332282 -0.25733808 -0.003418047
000240 57 e6 49 3d 30 a7 22 bf bc 9c 4c 3d a6 32 e4 3c
       0.049291935 -0.6353636 0.04995416 0.027856182
000250 a8 40 c4 3b e2 b6 ac 3c 47 5a c8 3c 2c 46 ef 3d
       0.005989153 0.0210833 0.02445711 0.11683306
000260 2b f7 a3 bd cc a4 00 bd b8 e9 22 3e 64 d9 84 be
       -0.08006128 -0.031407163 0.15909469 -0.25947106
000270 14 6e 5c 3c bb 4c 58 3e fc 10 cb 3d 36 dc 0f 3d
       0.013453979 0.2112302 0.09915349 0.03512212
000280 40 c0 ff 3d ad 0a 5c 3d c3 86 7f be 40 80 bc bd
       0.12487841 0.05372112 -0.24953751 -0.09204149
000290 e4 a9 11 bf b7 10 0d 3e 61 4f 28 3c d8 f0 18 3c
       -0.5689986 0.13775907 0.010272832 0.009334765
0002a0 ea fb 45 bd 0c fd b7 3c 55 fe 20 3e 84 9a 0e be
       -0.048335947 0.02245953 0.1572202 -0.1392613
0002b0 52 2c f9 3c 05 43 f1 3d 5b 96 dc bd f0 86 91 3d
       0.030416641 0.11780361 -0.107708655 0.071058154
0002c0 27 8d f8 be 2d fe cf 3d 9f 7f 1c bf 5b 48 1e bf
       -0.4854519 0.10155902 -0.61132234 -0.61829156
0002d0 7f 9e 86 3e 10 ee 73 3e 85 49 2c be 8d 75 85 be
       0.26292798 0.23821282 -0.1682492 -0.26066247
0002e0 d0 70 c9 3d a5 34 0b 3e 31 90 fb bd b1 f9 4e 3e
       0.098359704 0.13594301 -0.12283362 0.20212437
0002f0 e5 09 5f be 7f 96 39 3e 78 e8 70 3e bc 3d ee be
       -0.21781118 0.18123816 0.2352618 -0.46531475
000300 16 52 89 3c 29 8f aa bd 75 b3 21 3c c8 4a 13 bf
       0.016762774 -0.08328087 0.009869446 -0.5753598
000310 f4 ed 77 3c 7b 94 a9 be 89 10 5b bd 27 e3 cb bd
       0.015132416 -0.33121094 -0.053482566 -0.09955435
000320 5a 3c 6c 3e f9 1b b8 3d 6b e7 12 be e1 4f d1 bd
       0.23069897 0.0898971 -0.14346091 -0.10220314
000330 50 65 88 bd 2d ee 3e bd e5 a2 12 3e 24 12 12 bd
       -0.06659949 -0.04661386 0.14319952 -0.03566183
000340 68 2e cc 3c 35 16 b7 bd bc 9c f1 3d 6a 58 d4 3d
       0.024924472 -0.089397825 0.11797473 0.10368426
000350 b0 d9 f4 3d 12 f4 f5 3c 62 ab 0e 3e c0 1b 3a bc
       0.11955583 0.030023608 0.13932565 -0.011359155
000360 8f bf 35 3e f4 1d 39 3e 56 7a 87 bd c9 ee 3d 3e
       0.17748855 0.18077832 -0.066151306 0.1854812
000370 00 b5 d0 bd 1f 46 eb 3c f4 04 09 bc 72 4b 3e bd
       -0.10190773 0.02871996 -0.008362997 -0.04645867
000380 b7 9f a7 bd ec 42 6e 3d c9 36 a7 3d c7 7d 08 bf
       -0.0818476 0.05816929 0.08164746 -0.5331692
000390 30 19 37 3e cf cc 21 3e ad fd 0c be 7f d7 d5 bd
       0.17880702 0.15800785 -0.13768645 -0.10441493
0003a0 a0 8f 93 3d 82 04 da bc ea 9e c8 3c a2 4a 4b be
       0.07205129 -0.026613478 0.024489839 -0.19852689
0003b0 19 01 8b bd a1 7b 02 3e 98 eb e6 3d 72 f0 2c 3e
       -0.06787319 0.12742473 0.11275405 0.16888598
0003c0 29 85 c7 be 79 87 c0 be 00 ca e2 be 2b fe 65 39
       -0.3896878 -0.37603357 -0.4429474 0.00021933827
0003d0 39 2e bb 3c fc 01 e5 bd 70 2a 6e 3d 71 bc 8d 3d
       0.02284919 -0.11182019 0.05814594 0.06920708
0003e0 98 fb 3f 3e 25 52 1b 3e f4 0c 72 3e cb 48 a6 3d
       0.18748319 0.15168054 0.23637754 0.08119353
0003f0 3f 47 52 3e db 7e 9b bd 2b d1 d7 3d 07 23 c4 3d
       0.2053499 -0.07592555 0.105379425 0.095769934

network.3.bias f4 [128]
000000 ef 1d c5 3f 51 8f af 3f d4 21 b3 3f 3d f3 bc 3f
       1.539976 1.3715612 1.3994699 1.476173
000010 9a 45 0c 3e 71 82 7c 3f 97 92 5b bd 06 22 be bb
       0.13698426 0.9863654 -0.053606596 -0.0058023958
000020 7f 6b b2 3f a0 69 1c 3f 9a 9d a8 3f bb f8 ac 3f
       1.3939055 0.6109867 1.3173096 1.3513407
000030 52 fd b3 3f 7f eb b4 3f b6 fc b0 3f 39 bc 39 bd
       1.4061682 1.4134368 1.3827121 -0.04534552
000040 29 d1 c1 3f 6a 35 47 3d ea 7b 2f bd 2a 4a d1 3f
       1.5141956 0.048634924 -0.042842783 1.6350758
000050 34 73 86 3e d9 f0 b8 3f ec b5 c5 3f eb 90 9a 3f
       0.26259768 1.4448501 1.5446143 1.2075475
000060 d4 d6 f0 3c bc c7 1e bd 05 34 ba 3f 74 d3 b7 3f
       0.029399313 -0.0387647 1.4547125 1.4361405
000070 4c 9d 6d 3b 6c 9c b4 3f b1 6a c0 3f 4f df 0c bd
       0.0036257086 1.4110236 1.503256 -0.03439265
000080 74 36 be bd 24 00 ab 3f 9c 95 b1 3f c3 fb 65 bd
       -0.0928773 1.3359418 1.3873782 -0.0561483
000090 8e f6 a8 bc ab d4 b3 3f 3f da 86 3f 7e fc ad 3f
       -0.020625379 1.4049276 1.0535353 1.359268
0000a0 20 70 2c 3e 45 8e 36 3e b2 73 a4 3f 0a a2 3b bd
       0.16839647 0.17827709 1.2847807 -0.04580883
0000b0 51 3d 81 bc 0b 34 9a bd fa 8e 62 bb 6b 38 8b 3f
       -0.015776308 -0.07529458 -0.0034570084 1.0876592
0000c0 46 79 b1 3f 63 68 9b 3f 8e 5a b9 3f bf 1f 36 bd
       1.3865135 1.2141231 1.448076 -0.04446387
0000d0 09 06 81 3b b3 7c 80 3f 8e 61 bd 3f e7 09 b5 3f
       0.003937487 1.0038055 1.4795396 1.4143647
0000e0 6a c6 bf 3c 95 45 aa bd 76 7c cb 3f 61 5d bc 3f
       0.02341004 -0.08314053 1.5897357 1.4715997
0000f0 70 61 5e 3d 47 14 b3 3f bd 04 b0 3f 53 92 a7 3f
       0.054292142 1.3990563 1.3751446 1.309153
000100 7f 14 fa bd ae 38 87 3f bd 9d af 3f 30 5e fa 3d
       -0.122109406 1.0564172 1.3720013 0.12224996
000110 07 81 af 3f d2 4e 92 3f 69 44 b4 3f 49 93 bb 3f
       1.3711251 1.1430304 1.4083377 1.4654323
000120 06 b0 f2 bb 78 a5 b0 3f 2a ea b2 3f 88 0f ec bd
       -0.0074062375 1.3800497 1.3977711 -0.115264
000130 81 53 c7 3f 69 f4 af 3f f6 a4 b5 3f fd 2a 52 bd
       1.5572358 1.3746463 1.4190967 -0.051310528
000140 48 4b 91 3f 6a 1c b9 3f d6 a0 4a bb cf 64 45 bd
       1.1351099 1.4461796 -0.003091862 -0.04819184
000150 7b 35 37 bd 58 be 97 3f 61 21 98 3d 67 5b ba 3f
       -0.044728737 1.1854963 0.074282415 1.4559144
000160 06 c8 2d 3e be e5 b4 3f 9d 91 bf 3f 1b 9d ab 3f
       0.16970834 1.4132612 1.4966313 1.340732
000170 6f 12 bd 3e 6f 5f b3 3f 73 ad 5c 3f 7b 96 aa be
       0.36928126 1.4013499 0.8620216 -0.33317932
000180 38 5a f9 3d 2c 1d a8 3f b0 63 1c 3e 07 33 aa bd
       0.12175411 1.3133903 0.15272403 -0.08310514
000190 6f a1 0e bd cb c0 4c bd a7 40 ae 3f db dc b0 3f
       -0.034821924 -0.04998855 1.361348 1.38174
0001a0 1e 7c b5 3f 7e 10 c0 3f 34 02 90 bd 5c 62 b7 3f
       1.4178503 1.5005033 -0.0703167 1.4326892
0001b0 aa c7 a6 3f 79 4b a4 3f 23 fc ad 3f 99 6a d4 3d
       1.3029683 1.2835532 1.3592571 0.103718944
0001c0 ee bc bc 3f 14 d0 32 3d bc 26 bb 3f f3 49 b8 3f
       1.4745157 0.04365547 1.4621196 1.4397568
0001d0 45 e3 30 bd 28 5e 9a 3f a1 86 95 3d 3d 48 ac 3f
       -0.04318549 1.2059984 0.07301069 1.3459545
0001e0 2e e7 85 3e cd 69 74 3d d4 c7 b4 3f d8 d1 6a 3e
       0.2615294 0.059671212 1.4123483 0.22931612
0001f0 e7 70 c1 3f fa 7f 01 3d 64 13 af 3f 2c 09 c6 3d
       1.511258 0.03161619 1.3677793 0.09669718

network.6.weight f4 [5, 128]
000000 82 ff c2 3e 6e 8b 92 3e 3a 64 cd 3e 02 78 9a 3e
       0.38085562 0.28622 0.4011553 0.30169684
000010 92 ea ba 3e 2a 83 80 3e cb 7b c0 bd f3 e3 50 be
       0.36507088 0.2510007 -0.09398612 -0.20399456
000020 af b9 a9 3e 5c 1c a7 3e 92 59 9f 3e 53 8f 95 3e
       0.33149478 0.32638824 0.31123024 0.2921091
000030 ee fc 8c 3e e0 5f e4 3e 05 b0 b3 3e 63 35 15 bf
       0.2753672 0.44604397 0.3509523 -0.58284587
000040 64 96 b0 3e 79 83 8a 3e 8c 9c 0a bf 3b 7a e2 3e
       0.3448974 0.2705343 -0.5414512 0.4423388
000050 af 4f 6d 3e 93 05 a5 3e 6e 5a c9 3e 6c 14 c7 3e
       0.23174928 0.32230815 0.39326805 0.38882768
000060 dd 41 51 bf 2c 08 c2 3d f9 63 b2 3e 32 f2 9e 3e
       -0.81741124 0.09474215 0.34841898 0.31044155
000070 28 39 1f 3e 9c 0b cc 3e 33 f9 f8 3e f5 62 0c bf
       0.15549147 0.39852607 0.48627624 -0.54838496
000080 c3 3d 01 bf 70 fc a3 3e 2f 89 d0 3e 8d cd 1e bf
       -0.50484866 0.32028532 0.40729663 -0.62032396
000090 31 3d 80 3e fc 30 d8 3e 6c 94 85 3e 88 6b e5 3e
       0.25046685 0.42224872 0.260898 0.44808602
0000a0 a6 a7 50 3e 7a f3 c1 be b8 81 9b 3e cf 2e 17 be
       0.20376453 -0.3788107 0.30372405 -0.1476395
0000b0 4b 77 80 3e c6 33 0a bf a8 6c 7a 3e 9f 39 81 3e
       0.25091013 -0.5398525 0.24455512 0.25239274
0000c0 bd 6a b0 3e 7e 66 a1 3e 27 60 bd 3e 75 ee e1 be
       0.34456435 0.31523508 0.3698742 -0.4412724
0000d0 c3 0f 16 bf b9 d9 9d 3e d6 71 aa 3e ee 26 96 3e
       -0.586178 0.30830172 0.33289975 0.29326576
0000e0 89 20 89 be 6b fd 3b bf ee 43 a3 3e 51 be d1 3e
       -0.26782635 -0.7343356 0.31887764 0.40965512
0000f0 b3 d0 0c be 1e 55 b0 3e 5c 7b ca 3e a8 6d a5 3e
       -0.13751487 0.3443994 0.3954724 0.32310224
000100 0d d1 81 be a1 f4 c1 3e 28 53 f0 3e 9e 78 8f bd
       -0.25354806 0.3788195 0.46938443 -0.07005428
000110 4e 2a 86 3e ca 8a 8f 3e e6 02 c1 3e da 6c c8 3e
       0.2620415 0.28035575 0.37697524 0.39145547
000120 bf 34 88 be fd 50 9b 3e 11 d4 af 3e 25 82 06 bf
       -0.26602742 0.30335227 0.3434148 -0.52542335
000130 e4 e9 ae 3e de 65 82 3e 85 56 da 3e a4 58 66 be
       0.3416282 0.25468343 0.42644134 -0.22494751
000140 ba ad 88 3e c5 d9 ee 3e bf f7 e4 3e 68 d7 17 bf
       0.26695043 0.4665052 0.44720265 -0.5931306
000150 1d cf a5 3d 41 0a 88 3e f0 47 e8 be 93 88 d7 3e
       0.08096144 0.26570323 -0.45367384 0.42096385
000160 01 13 f4 be 92 36 b1 3e a1 54 b8 3e f9 95 a0 3e
       -0.4767075 0.34611946 0.36002067 0.3136442
000170 2a 6d b2 bc 0e eb c2 3e 68 cc e4 3d 46 14 5e be
       -0.02178057 0.38069957 0.111718 -0.21687421
000180 e7 ac 42 bf 61 f0 dd 3e f1 35 3e bf 41 5e 0a 3e
       -0.7604508 0.43347457 -0.7430106 0.13512518
000190 1a 64 05 bf 0a 3d ff 3c c3 bd 9c 3e 50 7f b6 3e
       -0.5210587 0.031157035 0.30613527 0.35644007
0001a0 a5 21 a0 3e 61 9c ee 3e 96 86 a2 be 2d 2e d7 3e
       0.3127567 0.46603683 -0.31743306 0.42027417
0001b0 58 93 7d 3e 7d 94 74 3e 67 20 b9 3e 97 6b b2 be
       0.24763238 0.23884769 0.36157534 -0.3484771
0001c0 a9 f3 ef 3e 36 c8 19 3e ee d3 ee 3e d0 43 c4 3e
       0.46865585 0.1501778 0.46646065 0.38332987
0001d0 a1 84 0d bf 58 16 78 3e f6 59 da 3e ad 65 88 3e
       -0.552805 0.24227273 0.4264676 0.26640072
0001e0 a2 22 9d be 1a e6 05 bf 9f 2a de 3e 2e c9 7a 3e
       -0.30690485 -0.5230423 0.43391892 0.24490806
0001f0 00 41 c4 3e 45 7f 1a bf 9a cd f4 3e ba 75 b6 3e
       0.3833084 -0.6035045 0.47813112 0.35636693
000200 da 49 ab 3e 6e 68 b6 3e 8c ee d3 3e f4 90 a6 3e
       0.33454782 0.3562655 0.41392934 0.32532465
000210 4a 63 1c bf 6d fb 68 3e 35 af e6 be 7d dd c4 be
       -0.61089003 0.22752161 -0.45055547 -0.38450232
000220 e4 61 ac 3e 1e e8 98 3e 76 a5 94 3e e7 79 91 3e
       0.33668435 0.2986459 0.29032487 0.28413317
000230 a1 78 91 3e f5 a4 dd 3e 66 06 b5 3e 18 c8 04 bf
       0.28412345 0.43289915 0.35356444 -0.5186782
000240 7c 59 b5 3e e6 1e eb 3e 9d cb 83 be 66 50 2d 3f
       0.35419834 0.4592201 -0.25741282 0.67700803
000250 b5 c3 8a 3e 12 3a b4 3e d8 45 ac 3e 5d e4 ce 3e
       0.27102438 0.35200554 0.33647037 0.40408602
000260 2f 77 36 3e 5f 27 13 3e 6f 59 aa 3e 2a 16 ca 3e
       0.17818902 0.14370488 0.33271357 0.39470035
000270 ac b9 07 bf 8b 2a b5 3e f1 a4 d4 3e 0a ca cb be
       -0.5301769 0.3538402 0.4153209 -0.3980258
000280 29 88 fc be 93 a0 b3 3e 98 bd c4 3e d8 96 88 be
       -0.49322632 0.35083446 0.384259 -0.26677585
000290 23 19 00 bf cb 6a d3 3e 96 1e 75 3e 32 f0 e5 3e
       -0.50038356 0.41292414 0.23937449 0.44909817
0002a0 27 b2 2c 3e a6 ab ce bd 34 8c 9d 3e 81 f3 dd be
       0.16864835 -0.10091333 0.3077103 -0.4334984
0002b0 57 b0 0a bf 16 ad cd be c7 88 21 bf 35 54 82 3e
       -0.54175323 -0.40171117 -0.6309933 0.2545487
0002c0 3f 28 f1 3e e1 4b 98 3e 98 f9 ae 3e 3d 0e da be
       0.47101018 0.2974539 0.341748 -0.42588988
0002d0 96 2e 33 bf 77 0a 7f 3e 78 01 9c 3e 24 54 a4 3e
       -0.6999296 0.24906336 0.3046987 0.32095444
0002e0 7e 86 da be 72 0e 94 be 7c b6 b3 3e 63 d7 e6 3e
       -0.42680734 -0.2891727 0.35100162 0.45086202
0002f0 9d e5 d3 bc 2c f6 a6 3e fd dd d3 3e d2 71 e2 3e
       -0.025866324 0.3260969 0.413803 0.44227463
000300 79 3f ab be fc 91 9f 3e c3 93 16 3f a7 cc aa be
       -0.33446863 0.31166065 0.58819216 -0.33359262
000310 f4 9b 93 3e b3 b5 a9 3e e9 bc cc 3e 85 92 d8 3e
       0.2882992 0.33146438 0.39987877 0.42299286
000320 07 48 8a be 0c 28 9a 3e a3 be c2 3e be 7f 94 be
       -0.27008078 0.30108678 0.3803607 -0.2900371
000330 27 b9 94 3e b0 cf 94 3e a0 ee de 3e d0 b5 05 bf
       0.2904751 0.29064703 0.4354143 -0.5223055
000340 dc 39 8a 3e 7c b1 f5 3e b2 84 2e bf c1 9e f5 be
       0.26997268 0.47986972 -0.68171227 -0.47972682
000350 b3 8d 05 3e e5 1c b7 3e e4 7b cc 3e 8a 19 08 3f
       0.13042335 0.35764232 0.3993827 0.5316397
000360 00 04 c1 3e 85 0d 02 3f 06 86 d5 3e 22 62 ab 3e
       0.37698364 0.5080188 0.41703814 0.33473307
000370 9e e6 38 3e 87 23 cf 3e 6c 30 a6 3e 93 21 b9 be
       0.18056723 0.40456793 0.32458818 -0.36158428
000380 f8 6f 0d 3e 6a c2 be 3e 60 30 8f 3d 2e e0 23 be
       0.13812244 0.372577 0.06991649 -0.16003487
000390 91 45 b9 be 4f 46 27 bc c4 53 ab 3e 6f aa ce 3e
       -0.36185887 -0.010209634 0.33462346 0.40364406
0003a0 fd 25 a8 3e 70 cf d4 3e f8 cd 0c bf ac 50 bb 3e
       0.32841483 0.41564512 -0.55001783 0.36584985
0003b0 63 84 86 3e 5b c3 8c 3e e4 73 aa 3e 99 99 a9 be
       0.26272878 0.27492794 0.33291543 -0.33124998
0003c0 7f e0 cd 3e 8d 37 02 bf 79 0d f6 3e bf c2 d1 3e
       0.4021034 -0.50866014 0.48057154 0.40968892
0003d0 40 c9 12 bf c6 24 99 3e 82 d7 82 be 82 76 88 3e
       -0.57338333 0.29910868 -0.25555044 0.26652914
0003e0 9b 66 da 3e 22 69 59 3d 29 e9 d1 3e 8a b4 08 3e
       0.42656407 0.053078778 0.409982 0.1335012
0003f0 91 7e ef 3e 3a 4d 94 3d f7 5d b3 3e db 1e 9f be
       0.4677625 0.07241292 0.35032627 -0.31078228

network.6.bias f4 [5]
000000 fc e2 97 3f 60 1c f8 3f 8b 79 a2 3f f0 7c e8 3f
       1.1866145 1.9383659 1.2693342 1.8163128
000010 06 76 69 3f
       0.91195714

network.0.weight f4 [128, 16]
000000 0f c6 9e 3d d2 df b8 3c 76 e8 b1 bd c7 e6 1e 3e
       0.077526204 0.022567663 -0.086869165 0.15517722
000010 5a d4 66 be 33 6e 67 be da af 68 3e 66 8f 5b 3d
       -0.22541943 -0.22600631 0.22723332 0.053603552
000020 3b d4 b9 3e 38 3b 6a 3d 7c e5 0d 3d d1 0b 9a bd
       0.36294731 0.05718538 0.03464268 -0.07521785
000030 1e 6b d5 bd 45 ab ce 3d eb c0 8b 3a 97 05 be bd
       -0.104208216 0.10091261 0.0010662352 -0.0927841
000040 90 54 72 3e ec c8 04 3e 0b 8f 2a be d9 b2 d4 3d
       0.2366507 0.1296727 -0.16656129 0.10385675
000050 34 28 62 be 40 0e 99 3e 58 49 64 bd de 59 12 3e
       -0.22085649 0.29893684 -0.05573401 0.14292094
000060 bb f5 36 3f 71 aa 09 bd b7 03 bd bd 77 99 1b be
       0.71468705 -0.03360981 -0.09229224 -0.15195261
000070 fe 46 72 3d 13 c9 08 bd 29 aa 06 be 8d 76 df bd
       0.059149735 -0.033394884 -0.13150848 -0.10911284
000080 88 03 a2 3d 3a cc 9a 3e a9 b1 cc bc e5 9e 41 3e
       0.0791083 0.30233938 -0.024987059 0.1890827
000090 18 5f 9f be 5e 43 9b 3e 59 15 8b bb 8f f6 f3 bd
       -0.31127238 0.30324835 -0.004244488 -0.11912262
0000a0 51 e4 8d bd 7c a0 94 bd 0e 84 e8 3d f9 19 32 be
       -0.069283135 -0.072571725 0.113533124 -0.1739272
0000b0 f7 9b 0b 3e 73 71 13 3e e0 fa 91 bd a5 58 cd 3b
       0.13633715 0.14398746 -0.07127929 0.006266671
0000c0 54 4f 9c be 5d 04 22 be 61 e8 88 3b 09 e1 ab bd
       -0.30529273 -0.15821977 0.0041780923 -0.083925314
0000d0 9a 0f 06 be 3d 74 18 3d a1 c0 5e be 11 69 b4 bd
       -0.13091889 0.03722023 -0.2175317 -0.08809102
0000e0 2d cc 3e 3e 56 1e 69 3d 8c 5d b8 bd 81 69 1e be
       0.18632574 0.056913696 -0.09002218 -0.15469934
0000f0 f5 a8 ec 3e 7e 54 b7 bc ba ad c5 bd ab b8 ce 3b
       0.46222654 -0.022379156 -0.09652276 0.006308635
000100 92 67 23 3e cb 21 31 be 00 a1 20 3e 65 3e 06 3e
       0.15957478 -0.17298047 0.15686417 0.13109739
000110 26 5d c1 be bb 30 0a 3e e4 0e 82 3c b6 ca 10 bd
       -0.3776638 0.13495152 0.015876241 -0.03534957
000120 d5 94 b5 be 62 44 f9 3d a3 9f ed 3b ad fe 2c 3d
       -0.35465112 0.12171246 0.007251696 0.042235065
000130 91 7e d4 3e 2f aa a1 bd db 26 9b be 1c 26 bd 3e
       0.41502813 -0.07893788 -0.30303082 0.36943138
000140 a5 2b 11 3e 14 5b c7 3d 2a 28 f7 3d 7a 9f d0 3c
       0.14176805 0.09734169 0.120682076 0.02546667
000150 60 d8 3b 3e 1e 5f f3 3e 34 d7 70 bd a5 52 43 bd
       0.1834426 0.47533506 -0.058798984 -0.047686238
000160 e1 89 43 3e a7 24 37 be d7 41 96 3e 71 e4 4a 3e
       0.19095565 -0.17885076 0.29347107 0.19813706
000170 55 29 52 3e 80 ed 31 3e 71 66 02 be 5a 01 9e bd
       0.2052358 0.17375755 -0.12734391 -0.077151015
000180 1c 3c 3f 3e d5 8b 12 3e 3d 13 5c 3d 45 bc e0 bd
       0.18675274 0.14311154 0.053729285 -0.109734096
000190 40 a7 03 3d 31 c9 cb 3e 03 d0 4a 3e 4f ea 06 3e
       0.032141924 0.39801934 0.19805913 0.13175319
0001a0 07 38 bf bd a1 94 58 3e 60 4a 4d be 4a 54 15 be
       -0.09336858 0.21150447 -0.20047903 -0.14582935
0001b0 52 2c d4 3e 28 6f d1 bd cf d6 fc 3d 1c 8a 8a 3e
       0.41440064 -0.102262795 0.12345659 0.27058494
0001c0 a5 fe 2a bf ba ba d6 be 1c 2a 08 be 50 ba 87 be
       -0.66794807 -0.41939336 -0.13297313 -0.26509333
0001d0 0f 52 27 3d 08 d3 ca be 83 7e a5 be c2 22 b1 3c
       0.04084974 -0.3961413 -0.32323083 0.02162302
0001e0 e4 97 6c be 17 0a a1 bd b2 14 4b be 9c 4f 84 3d
       -0.23104817 -0.078632526 -0.19832113 0.06460497
0001f0 6d 14 98 be 5f ba 41 be 45 78 da be 38 f5 36 3d
       -0.29703084 -0.18918751 -0.42669883 0.044667453
000200 0c a7 70 bd 6c db 2a 3d b4 27 14 bc fb d6 11 be
       -0.05875306 0.041713163 -0.009042669 -0.14242165
000210 ee 66 47 be 9b 3c 0e be 24 a3 77 3d fb 50 4e 3d
       -0.19472858 -0.13890307 0.060458317 0.050370198
000220 79 9d 41 3e 46 78 62 3e f8 8d 15 be 93 74 af 3d
       0.18907727 0.22116193 -0.14604938 0.08567157
000230 3a 79 20 3e 39 03 7e bd ba c3 27 bf 85 4c 06 be
       0.15671244 -0.062014792 -0.6553303 -0.13115127
000240 51 a2 46 3d 6b 0a 2a bd 0a 54 53 3e 6d 0f c6 3d
       0.04849464 -0.04151384 0.20637527 0.09670911
000250 24 02 88 3d c1 7a 0a 3e 9e 71 68 bc dc 3b b5 3d
       0.06641033 0.1352339 -0.014187245 0.08849308
000260 04 fe d7 3c 9b b6 0e be 40 e8 5a 3e 51 b4 35 3e
       0.026366241 -0.13936846 0.21377659 0.17744567
000270 32 53 32 3d f7 3f ed 3b c2 94 4d bd fb 68 95 3d
       0.043536372 0.007240291 -0.050190695 0.07295414
000280 90 44 9f 3e 22 f5 89 3e e9 23 52 3d 42 e3 37 bd
       0.31106997 0.26944834 0.051303778 -0.044894464
000290 dc 27 94 be d3 5b c4 3e a7 b6 ac 3c 55 83 d9 bd
       -0.2893666 0.38351306 0.02108319 -0.10620753
0002a0 32 24 e4 3d 28 38 7d bd 39 6a 00 3c 84 a3 2d 3e
       0.11139716 -0.061821133 0.007837825 0.16956908
0002b0 87 68 37 3e 84 ba a1 3d d0 fc 3e bd f3 25 f3 3d
       0.17910968 0.07896903 -0.04662782 0.118724726
0002c0 ca 9a 12 3e 2b 10 54 3e f8 69 a8 3c 70 4c 93 bd
       0.1431686 0.20709293 0.020558342 -0.07192314
0002d0 e5 4f 5a be c0 a6 96 bd ab 74 84 3e 57 ac 66 bd
       -0.2131954 -0.07356024 0.2587026 -0.0563167
0002e0 36 25 a6 3e 41 a1 06 bd b1 91 18 be 6a bc 19 3e
       0.32450265 -0.032868627 -0.14899327 0.1501328
0002f0 a9 ff d0 3d 0a 1c 8b 3d 5c 8e 30 3d c9 b1 55 3d
       0.10205013 0.067924574 0.043104514 0.052171502
000300 90 12 44 bf 84 57 a6 be 56 db 45 be 46 fc 4d be
       -0.76590824 -0.32488644 -0.19321951 -0.20115766
000310 19 fa 80 3e 0e 17 db bc 91 f4 b6 be 02 d4 92 bc
       0.2519081 -0.026744392 -0.35733464 -0.017923359
000320 a2 2e 03 be f2 79 57 3c 33 81 20 bd cc 81 00 bd
       -0.12810758 0.013151633 -0.039185714 -0.031373784
000330 2b 0a d8 be 2e 47 cc bc 42 9b 83 be 10 ee 66 be
       -0.42195258 -0.024936285 -0.2570439 -0.22551751
000340 2f d9 9d 3e 28 a3 c8 3d 9f 29 f4 3c d8 64 6c 3e
       0.3082976 0.097967446 0.029805003 0.23085344
000350 b4 61 8d be 49 bf 38 be 38 af df 3c e9 e6 ca bd
       -0.27613604 -0.1804172 0.02730523 -0.09907324
000360 6c e0 a6 3c 78 c0 33 bd ad e4 0c 3e 6b 1b 31 3d
       0.020370685 -0.043884724 0.13759108 0.04323904
000370 f1 2e 79 3d 65 ba b2 3d c7 6f ae 3e 04 f1 93 3c
       0.060835782 0.08726958 0.34069654 0.018059261
000380 85 85 48 bf 72 12 b0 be d1 ef 90 be 7a 87 44 be
       -0.78328735 -0.34389073 -0.28307965 -0.19192305
000390 92 42 3b 3e 0c a3 af bd 8a 85 33 be 2a c1 1b 3d
       0.18287113 -0.085760206 -0.1753141 0.038026012
0003a0 88 75 00 be 0f 17 85 bd 9a 5c d2 bd 59 c3 0f 3e
       -0.12544835 -0.06498539 -0.102715686 0.14039363
0003b0 88 15 8d be 3e 62 1b be 2a 71 6a be d9 47 35 3e
       -0.2755549 -0.15174195 -0.22894731 0.17703189
0003c0 dc 2d 86 3d ae 6b 39 be d2 38 81 bc 19 d8 98 3c
       0.06551716 -0.18107483 -0.015774164 0.01865773
0003d0 a0 dd af bd 43 9a 1d be 87 d9 06 be 1c 08 c1 3d
       -0.085871935 -0.15390877 -0.13168918 0.09425375
0003e0 32 0b 90 bd 7b 66 97 bc c7 77 7d 3d b1 fb 09 3e
       -0.07033385 -0.018481484 0.061881807 0.13474919
0003f0 7b f0 d7 3d 95 28 bb 3d 64 4e 3d 3e 48 a8 19 3d
       0.10543915 0.091386 0.18486935 0.037514

network.0.bias f4 [128]
000000 cc 70 0d 3d b4 6f b0 3c da d1 80 3d 53 d9 28 be
       0.0345314 0.02153764 0.06290026 -0.16489153
000010 9c 5d 9b bc 33 f8 0d 3e 0e a0 8d 3d 01 0a 65 be
       -0.018965535 0.13864212 0.06915294 -0.22367097
000020 7a 5c 06 bd 0f 0d 10 3e 9a 81 89 3d 31 d8 9d 3d
       -0.032803036 0.14067481 0.06714173 0.07707251
000030 14 43 39 be a9 bc 2f 3d 9d 94 45 be 00 00 00 00
       -0.18091995 0.04290453 -0.19294973 0.0
000040 6f 63 8f ba b0 3e 33 be 5b 80 fd bc 85 77 8f 3d
       -0.0010939668 -0.17504382 -0.030944994 0.070052184
000050 4f 88 ea 3d cf 79 b3 3c 38 e0 55 3d f7 00 c9 3d
       0.1145178 0.021908669 0.052215785 0.09814637
000060 4c e0 b9 3d 38 dc 4a 3d c4 7f 9a bd 48 1c 23 be
       0.09075984 0.049526423 -0.075439006 -0.15928757
000070 30 b9 a3 3d 69 fa de 3c 51 0c 7d bc b9 98 42 be
       0.07994306 0.027219014 -0.015444831 -0.19003572
000080 00 00 00 00 1b 74 b7 3d 0c f9 62 be 18 7f a8 bb
       0.0 0.08957692 -0.22165316 -0.005142104
000090 5e 19 63 be 85 c5 12 3d 3d f2 24 3d b2 f4 5c 3d
       -0.22177646 0.0358329 0.04027008 0.053944297
0000a0 bd 2d 0f 3d 6f fa 7f bd ce 81 e1 bb 00 00 00 00
       0.03495573 -0.06249469 -0.006881929 0.0
0000b0 2d 3a de 3d e8 ec 01 3e de a8 a8 3d b1 79 c9 bc
       0.1085094 0.12688029 0.08235334 -0.02459416
0000c0 4f 28 64 be 00 00 00 00 00 bf 6c be 8b bd 38 be
       -0.22281002 0.0 -0.23119736 -0.18041055
0000d0 18 88 13 3e 72 92 95 3d 00 6c e0 3d 34 5b 4a be
       0.14407384 0.07303323 0.10958099 -0.19761354
0000e0 e9 fb ce 3d a6 c6 da 3c 53 8e a9 3d 95 d9 98 3d
       0.10106642 0.026706051 0.08279099 0.074633755
0000f0 13 47 e7 bd b2 e2 42 bc 23 e1 f5 3c 04 73 51 be
       -0.11292853 -0.011894869 0.03001458 -0.20454031
000100 54 50 6d 3d 7c e5 66 3c ab d8 4f 3c 44 79 7f be
       0.057937935 0.014092799 0.012685935 -0.24948603
000110 10 82 dc 3d f2 a1 74 be 00 00 00 00 91 20 fb 3c
       0.10766995 -0.23889902 0.0 0.030655177
000120 e5 06 8a 3d ed 0b 5f bd 20 74 19 be 26 6a f3 bd
       0.06739596 -0.054454733 -0.14985704 -0.118854806
000130 1d 17 40 3d 58 b7 7f 3c 54 dd 2d bd 00 00 00 00
       0.046897043 0.015607677 -0.042447403 0.0
000140 a0 9d 8b 3d dd 84 2c 3e d2 8f b2 bd 13 d0 60 3d
       0.06817174 0.16847558 -0.08718838 0.054885935
000150 d2 b1 81 3d 9f d0 02 be 92 a8 a4 3d 2e 3f eb bb
       0.06332745 -0.12774895 0.08039965 -0.0071791625
000160 ef c4 80 3d ff 31 2a 3d a7 d3 b3 3d 34 79 7f 3d
       0.06287562 0.041551586 0.08780604 0.062371448
000170 00 00 00 00 a7 9a 3a bd 9d d6 03 3d 8f 97 3f bd
       0.0 -0.045557644 0.032187093 -0.046775397
000180 71 9a 1f bc fb 47 c4 3d 71 e4 a9 3c 2a 23 2b be
       -0.009741412 0.09584042 0.020738812 -0.16712633
000190 47 ff 05 bd 67 d1 17 3e d1 b1 24 3b fd eb 12 bd
       -0.032714155 0.14825974 0.00251304 -0.035869587
0001a0 09 84 d3 bc 29 f7 d1 3c f5 e7 50 3d 67 98 5d be
       -0.025819795 0.02563055 0.05100246 -0.21640168
0001b0 61 5c c1 3c 42 08 15 3d 81 a1 96 3c 9f f7 50 3d
       0.02360362 0.03638483 0.018387558 0.0510174
0001c0 86 00 1a be d6 c0 63 be 56 7f 68 be ce f4 be 3d
       -0.15039262 -0.2224153 -0.22704825 0.093240365
0001d0 33 08 a9 bc 31 18 a3 3d 1f f8 b8 3d 27 8d ea 3d
       -0.020633793 0.079635985 0.090317 0.11452704
0001e0 e9 e1 bd 3d fd f8 26 3c 16 40 75 3d 0b 84 1a 3c
       0.092716046 0.010191199 0.05987557 0.009430896
0001f0 f7 8b b1 3d 35 76 35 be 16 e3 2a be 73 8c b8 3d
       0.08669274 -0.17720874 -0.16688189 0.090111636

network.3.weight f4 [128, 128]
000000 b8 2b d9 3d a8 35 0d bd 7a e5 f8 3d 16 61 9f 3d
       0.10604042 -0.034475 0.12153144 0.077821895
000010 cd 9c 57 3d a9 2a ad 3d 65 34 fa 3d e7 03 81 be
       0.05263977 0.084554024 0.12217025 -0.2519829
000020 7a c5 29 bd e8 61 7f 3c 8a 50 23 be 6c 22 a9 3d
       -0.041448094 0.0155873075 -0.15948692 0.082585186
000030 1c 4c 82 be 64 44 6c 3d b6 b3 33 be 4b 86 b3 bd
       -0.25448692 0.05768241 -0.17549023 -0.08765849
000040 98 88 71 3b c2 02 cb be c6 d4 0d be 28 15 8a 3b
       0.0036855098 -0.39650542 -0.13850698 0.004213948
000050 21 52 72 3d 64 e3 3e 3d 00 ce a2 bc a9 54 18 3e
       0.059160355 0.046603575 -0.01987362 0.14876045
000060 6d e8 dc 3d 8d 15 3c 3d 5b f9 a2 3c 45 57 0b be
       0.10786519 0.04591899 0.019894293 -0.1360751
000070 e3 23 84 bd 99 e7 21 3e ca 29 99 bd a2 e4 4e bd
       -0.06452157 0.15811004 -0.07478674 -0.05051101
000080 96 8e 3e 3c 83 61 fe 3d a8 ce da be cd 11 c3 3d
       0.011630675 0.12420943 -0.4273579 0.095248796
000090 b8 42 0e bf d3 08 23 3e 20 41 b0 3d 47 e5 3e be
       -0.55570555 0.15921335 0.086061716 -0.1864215
0000a0 18 e0 83 3b aa 08 df b9 02 d5 16 3e 35 1b 68 3d
       0.004024517 -0.0004254033 0.14729694 0.05666657
0000b0 3e f3 85 3e 42 76 2e b9 09 36 38 3e f4 eb 59 3e
       0.26162142 -0.00016637988 0.17989363 0.21281415
0000c0 9e fc 67 bf 6d 6a 0f 3d 3e 4d 06 bf 9e 72 a4 be
       -0.9061984 0.035013605 -0.5246161 -0.32118696
0000d0 58 1d 8e bd 53 3a 27 bd 34 74 35 be ea 90 b4 3c
       -0.069391906 -0.040827107 -0.17720109 0.022041757
0000e0 cb 16 07 3e 69 59 fb bd 8d f1 01 be 16 fe 36 3e
       0.13192289 -0.12272913 -0.126898 0.17870364
0000f0 09 df 62 3d 91 7b 5d 3d d6 57 ee bc 33 e1 dd be
       0.055388484 0.05407292 -0.029094618 -0.43335876
000100 da d2 72 bd c1 94 5e 3d cc 5d a5 bd 42 0d 42 bf
       -0.059283115 0.05434108 -0.08074531 -0.7580148
000110 51 ba ec 3d 06 64 e4 be 93 72 18 bd f8 27 f8 bc
       0.115589745 -0.44607562 -0.03721864 -0.030292496
000120 d5 c0 68 3d 6c 34 90 3d 09 16 94 bd e9 2c ad bd
       0.056824524 0.07041249 -0.07230765 -0.084558316
000130 f3 17 e7 bd 94 e0 1f 3c ee aa 2c 3d 24 9f ad bd
       -0.11283865 0.009758133 0.0421552 -0.08477619
000140 7b ac 85 3d a0 c9 9a 3d 5c bd 09 3e 6a 4f 4b 3e
       0.06527039 0.07557988 0.13451141 0.19854513
000150 ca 62 78 bd 4a 81 98 bd f1 cc 7d 3c f9 b0 a5 bd
       -0.060641088 -0.07446535 0.015490756 -0.080903955
000160 a8 cd 90 39 4e 67 2f 3e 7b c5 30 3d a1 73 1c 3e
       0.00027619046 0.17129251 0.043157082 0.15278484
000170 0b 5c bc 3a 10 be 4f 3e d2 66 d5 bd e1 d3 24 3e
       0.0014370693 0.20287347 -0.10420002 0.1609645
000180 dc 10 d5 3d 37 bb 89 3e a3 c1 4a 3e aa 17 04 bf
       0.10403606 0.26900646 0.19800429 -0.5159861
000190 5a bc 15 3e 41 51 44 3e 5c 26 e9 bd cf e5 44 3d
       0.14622632 0.19171621 -0.113842696 0.048070725
0001a0 67 66 2b 3d 9d 9f 40 3e 55 0d a1 3d 71 0a 74 be
       0.041845705 0.18810888 0.07863871 -0.23832108
0001b0 51 2d 8d bd 17 39 80 3c 01 70 fd 3d 23 65 38 3d
       -0.06893409 0.015652223 0.12374879 0.045018326
0001c0 d5 f0 fa bd 62 06 87 be a1 8d 0f bd 3d d8 ab 3d
       -0.12252966 -0.26372057 -0.035047177 0.083908536
0001d0 d0 5f ff 3d f5 cb 53 3e ff 92 2b 3e 57 51 44 bd
       0.12469447 0.20683272 0.16755293 -0.047929134
0001e0 9a 4d 5c 3e 0c 32 46 3c 39 77 39 3d 66 d0 01 bd
       0.21513978 0.012096893 0.045279715 -0.031692885
0001f0 34 f8 e0 3c 59 47 e1 3d bc 04 8a 3c 5d 97 27 3d
       0.027462102 0.109999366 0.01684796 0.040915836
000200 3d da 10 3c c0 e5 11 3c 47 d2 13 3e 1b 10 30 3e
       0.008841095 0.008904874 0.14435683 0.17193644
000210 c7 f3 e0 3d 3c 45 a1 bd 68 53 25 3d 73 9e 43 be
       0.10983997 -0.078745335 0.040362746 -0.19103412
000220 8b f1 ad bd 88 b6 48 3e 1a 8e 0f 3d d5 51 45 be
       -0.08493336 0.1960088 0.035047628 -0.19269498
000230 ff 4b dc be dd e5 92 3d 78 3f 84 be 50 01 60 bb
       -0.4302673 0.07172749 -0.25829673 -0.003418047
000240 04 fc 3b 3d 42 28 22 bf bc 9c 4c 3d 8d b0 ee 3c
       0.045894638 -0.6334268 0.04995416 0.02913692
000250 32 6a b3 3b 34 a3 a8 3c ef 11 d9 3c 60 95 f2 3d
       0.005475306 0.020585634 0.02649781 0.11844897
000260 db af 9d bd bb b2 12 bd 6b a7 26 3e ac 8e 86 be
       -0.076995574 -0.035814982 0.16274802 -0.26280725
000270 83 cd 8a 3c 05 11 56 3e a1 95 dc 3d 48 56 1c 3d
       0.016943699 0.2090493 0.10770727 0.03816822
000280 40 c0 ff 3d 62 5d 58 3d 50 d8 85 be ed e7 bb bd
       0.12487841 0.05282343 -0.26141596 -0.09175096
000290 a7 e1 11 bf 10 e2 10 3e 8a 2f 14 3c 68 fb 2a 3c
       -0.56984943 0.14148736 0.009044537 0.0104359165
0002a0 3e b9 3c bd 3f 57 f5 3c 55 fe 20 3e 84 9a 0e be
       -0.0460751 0.029948829 0.1572202 -0.1392613
0002b0 e9 e5 e7 3c a7 91 ee 3d 2b a3 d8 bd a0 57 95 3d
       0.028307872 0.11648875 -0.10577997 0.07292104
0002c0 34 96 f8 be 2d fe cf 3d da a7 1b bf f3 4d 1e bf
       -0.48552096 0.10155902 -0.60802996 -0.6183769
0002d0 c8 a3 88 3e 79 aa 74 3e 66 f2 2c be 6c b9 83 be
       0.26687455 0.23893155 -0.16889343 -0.25727403
0002e0 0d 09 c1 3d 7b 6a 11 3e 3d 57 fe bd 7c 88 4f 3e
       0.094255544 0.14200775 -0.12418983 0.20266908
0002f0 fe 0f 5a be e2 8a 2f 3e 97 19 6d 3e e4 44 ee be
       -0.21295163 0.17142823 0.23154293 -0.46536934
000300 b7 66 8b 3c 4e cb af bd f4 fc 4e 3c f5 23 13 bf
       0.017016752 -0.08583699 0.012633551 -0.5747674
000310 80 68 70 3c 44 1d ac be 89 10 5b bd 3c a8 ce bd
       0.014673352 -0.33616078 -0.053482566 -0.10090682
000320 fe be 6b 3e f9 1b b8 3d 61 e6 0f be 13 2b db bd
       0.23022076 0.0898971 -0.14052726 -0.10701575
000330 bb 79 8a bd ba d7 39 bd e5 a2 12 3e 24 12 12 bd
       -0.067614995 -0.04537175 0.14319952 -0.03566183
000340 a4 a9 d6 3c 2c ab c0 bd bc 9c f1 3d ba 1d cf 3d
       0.026203938 -0.094076484 0.11797473 0.10113092
000350 4e f7 ed 3d 78 fb a8 3c be ba 0d 3e c0 1b 3a bc
       0.11619435 0.020627722 0.13840768 -0.011359155
000360 23 df 36 3e b4 b3 42 3e 53 ff 80 bd 1b ff 3e 3e
       0.17858557 0.19013864 -0.06298699 0.18652003
000370 00 b5 d0 bd 0e f1 03 3d b2 fe 1d bc bc 90 57 bd
       -0.10190773 0.03221231 -0.009643244 -0.052628264
000380 c0 29 b1 bd 84 10 76 3d 93 be a2 3d 27 87 09 bf
       -0.08650541 0.060074344 0.079465054 -0.5372185
000390 66 a4 37 3e 46 6a 21 3e f6 a5 0e be 4f 70 d0 bd
       0.17933807 0.15763196 -0.13930497 -0.10177671
0003a0 19 c0 96 3d b5 2a c2 bc 04 8f bb 3c 5e 20 4a be
       0.073608585 -0.023702005 0.022895344 -0.1973891
0003b0 32 63 83 bd 51 c6 02 3e 39 14 e9 3d 14 2d 2d 3e
       -0.064154044 0.12770964 0.1138081 0.16911727
0003c0 6a 02 c9 be 56 0e c0 be 17 48 e3 be d3 41 47 39
       -0.39259654 -0.37510937 -0.44390938 0.0001900264
0003d0 39 2e bb 3c f7 a4 e4 bd 56 c0 79 3d 50 91 8a 3d
       0.02284919 -0.11164277 0.06097444 0.067659974
0003e0 67 ef 42 3e 23 3d 1b 3e 5f 8b 72 3e ed e0 9f 3d
       0.19036637 0.1516004 0.23685978 0.07806573
0003f0 20 d5 50 3e b0 81 9e bd 2b d1 d7 3d df 81 c9 3d
       0.203938 -0.0773958 0.105379425 0.09839224

network.3.bias f4 [128]
000000 0b 1a c5 3f 92 4e af 3f 33 bc b2 3f c3 50 bc 3f
       1.5398573 1.3695853 1.3963684 1.4712147
000010 40 ba 0b 3e 66 de 7b 3f af 0e 64 bd da 75 b5 bb
       0.13645267 0.9838623 -0.055678066 -0.0055377306
000020 3a 0b b2 3f 25 7a 1c 3f 23 15 a8 3f d3 b1 ac 3f
       1.3909676 0.6112388 1.313145 1.3491768
000030 e9 5b b3 3f 07 29 b4 3f d8 ea b0 3f a6 e7 62 bd
       1.4012424 1.407502 1.3821669 -0.0553967
000040 43 93 c1 3f d3 28 5c 3d ab 88 4e bd 97 05 d1 3f
       1.5123066 0.05374987 -0.050423305 1.6329831
000050 5d 33 88 3e 92 5e b8 3f 38 a2 c4 3f d7 1a 9a 3f
       0.26601687 1.440386 1.5362005 1.2039441
000060 70 88 1e 3d bc c7 1e bd 9e 78 ba 3f 5e 7c b7 3f
       0.038704336 -0.0387647 1.456806 1.4334829
000070 38 c5 a2 b9 54 c9 b4 3f 97 f5 bf 3f 37 3b 41 bd
       -0.00031045987 1.412394 1.4996823 -0.047175612
000080 a8 8e bf bd df c3 aa 3f 0e 52 b1 3f 0b d7 6a bd
       -0.093533814 1.3341025 1.3853166 -0.057333987
000090 83 50 c6 bc 92 74 b4 3f 81 f9 86 3f 57 19 ae 3f
       -0.024208313 1.4098074 1.0544893 1.3601483
0000a0 4e cb 26 3e 1e 8d 34 3e ed 6c a4 3f a4 4a 43 bd
       0.16288492 0.17631957 1.2845742 -0.047678605
0000b0 4b 6a 8f bc 30 66 ac bd f5 a1 b5 bb e9 01 8b 3f
       -0.01750674 -0.08417928 -0.0055429884 1.0859958
0000c0 75 60 b1 3f a0 a2 9a 3f 73 85 b8 3f 2f 13 55 bd
       1.3857561 1.2080879 1.4415725 -0.052020248
0000d0 9d 79 ab bb a6 21 80 3f 81 dd bc 3f 2e d1 b4 3f
       -0.0052330033 1.0010269 1.4755098 1.4126337
0000e0 66 42 af 3c c7 80 bc bd 01 78 cb 3f 8a ba bb 3f
       0.021393966 -0.0920425 1.5895997 1.4666302
0000f0 3e 6f 61 3d 40 38 b2 3f b2 3c b0 3f 13 48 a7 3f
       0.05503773 1.3923416 1.3768523 1.306887
000100 8b 9d 06 be ae 66 86 3f d6 e0 af 3f d6 fd fe 3d
       -0.13146035 1.0500085 1.374049 0.12450759
000110 09 da af 3f ce dc 91 3f ea fa b3 3f 19 77 bb 3f
       1.3738414 1.1395509 1.4060948 1.4645721
000120 58 c3 e1 bb f2 c5 af 3f 2c 1b b3 3f 53 2e f0 bd
       -0.006889742 1.3732283 1.3992667 -0.11727586
000130 c0 34 c7 3f 07 e0 af 3f 1c ce b5 3f 10 a6 70 bd
       1.5562973 1.3740243 1.4203525 -0.05875212
000140 4f 76 90 3f 8d 78 b8 3f 88 af 1b bc 7d 08 55 bd
       1.1286105 1.4411789 -0.009502299 -0.05201005
000150 7b 35 37 bd cd 57 97 3f 8a 31 9d 3d bb 28 ba 3f
       -0.044728737 1.182367 0.076754645 1.454368
000160 4e ee 28 3e c8 29 b4 3f 59 c7 bf 3f d5 64 ab 3f
       0.16497156 1.4075251 1.4982711 1.3390146
000170 01 3f bf 3e ce e4 b2 3f 78 a2 5b 3f 03 40 ac be
       0.37352756 1.3976076 0.8579478 -0.33642587
000180 b3 37 f4 3d ac da a7 3f fb 28 1b 3e 07 33 aa bd
       0.11924686 1.3113608 0.15152352 -0.08310514
000190 02 4a 0a bd cb c0 4c bd 32 c2 ad 3f 2c 5d b0 3f
       -0.033761986 -0.04998855 1.3574889 1.3778434
0001a0 7e c2 b4 3f 02 d7 bf 3f 7a e2 b3 bd d0 c5 b6 3f
       1.4121854 1.498749 -0.08783431 1.4279118
0001b0 07 ab a6 3f 84 26 a4 3f 4c 7e ad 3f ba 90 ca 3d
       1.3020943 1.2824254 1.3554168 0.09890886
0001c0 8e 8c bc 3f b1 65 11 3d 69 16 bb 3f d1 c1 b7 3f
       1.4730394 0.03549737 1.4616214 1.4356023
0001d0 d2 ae 56 bd 1f 1b 9a 3f fc 86 8b 3d ca 64 ab 3f
       -0.052412815 1.2039527 0.068128556 1.3390133
0001e0 fe 8b 86 3e ad 84 5c 3d 97 80 b4 3f 12 32 6b 3e
       0.2627868 0.053837467 1.4101743 0.22968319
0001f0 3b 13 c1 3f 22 c9 db 3c 71 9f ae 3f 5e d3 ac 3d
       1.5083994 0.026829306 1.3642408 0.084387526
