教学演示项目/项目1_强化学习智能体训练/results/results/model_episode_800.pth (torch, 576433 bytes, 24 tensors)

network.0.weight f4 [128, 16]
0.058295254 0.033026643 -0.05136417 0.1906822 -0.11920451 -0.21656379 0.2631136 0.08934848
0.36755756 0.07691614 0.08415277 -0.07521785 -0.10207584 0.14307936 -0.06632419 -0.11450964
0.21722744 0.07034552 -0.15779778 0.112620436 -0.11285371 0.31766877 -0.049446166 0.0907328
0.73197937 -0.014216741 -0.11200116 -0.15195261 0.07092784 -0.07528964 -0.18909143 -0.094480604
0.04067875 0.283825 -0.016890852 0.19717886 -0.22898011 0.2587864 0.006628484 -0.115247615
-0.028486433 -0.050634366 0.14699414 -0.1739272 0.20591772 0.13652004 -0.115547 -0.013548739
-0.30529273 -0.15821977 0.0041780923 -0.083925314 -0.13091889 0.03722023 -0.2175317 -0.08809102
0.18632574 0.056913696 -0.09002218 -0.15469934 0.46222654 -0.022379156 -0.09652276 0.006308635
0.12328378 -0.15753292 0.20230016 0.1765334 -0.24864179 0.047499966 0.07009232 -0.036275685
-0.3918712 0.14569776 0.033259746 0.042235065 0.35454738 -0.09720954 -0.35931844 0.31353965
0.13085411 0.065352954 0.14120091 0.045985594 0.26127616 0.4662126 -0.036598645 -0.01557818
0.2516498 -0.13965447 0.29098243 0.19813706 0.22880498 0.18329701 -0.14473078 -0.11479342
0.18105307 0.1516561 0.07148556 -0.09197775 0.08612137 0.33326256 0.22110464 0.114122964
-0.073811054 0.20670894 -0.22336878 -0.14582935 0.4443182 -0.17840266 0.13575374 0.21419634
-0.6805236 -0.38228065 -0.1388424 -0.27096292 0.032183573 -0.40773723 -0.32877305 0.026554536
-0.23192202 -0.073887736 -0.15134004 0.06460497 -0.20979998 -0.14982843 -0.4115116 0.00480679
-0.10477597 -0.0059075686 0.018632771 -0.11474616 -0.07597192 -0.15529709 0.093185514 -0.08734453
0.16404304 0.2665409 -0.19029993 0.08567157 0.12696747 -0.11336832 -0.6313006 -0.13584176
-0.017093373 -0.10073221 0.22450922 0.11484298 0.19266824 0.12996757 0.005349982 0.038101178
0.013915739 -0.1645763 0.21418138 0.17744567 0.07706367 -0.04770112 -0.08762239 0.08696043
0.31367195 0.29342243 0.095385 -0.0008132847 -0.19493495 0.35848328 0.06838978 -0.086875014
0.15354028 -0.09817236 -0.0037266747 0.16956908 0.17899467 0.053032182 -0.100998856 0.08120549
0.08587884 0.2137273 0.026046151 -0.06643545 -0.13107471 -0.14246128 0.26743647 -0.07578905
0.3054146 -0.081626266 -0.17370461 0.1501328 0.099064305 0.028429082 0.046978667 0.03874821
-0.7008286 -0.2828706 -0.18851554 -0.19645369 0.24973343 -0.020836769 -0.35268775 -0.0029403844
-0.10868971 0.020898355 -0.03549925 -0.031373784 -0.37989992 -0.027334323 -0.33093497 -0.21605977
0.27087066 0.09628935 0.07404281 0.27509093 -0.1426865 -0.17327 0.07332718 -0.14683118
0.015650481 -0.114807956 0.064545654 0.04323904 0.08341942 0.08897083 0.34944254 -0.019640129
-0.7503331 -0.230821 -0.26359823 -0.17244117 0.19457449 -0.074843474 -0.15534323 0.029632943
-0.12462102 -0.0781929 -0.022902567 0.14039363 -0.2991475 -0.09342166 -0.1943878 0.19154158
0.06551716 -0.18107483 -0.015774164 0.01865773 -0.085871935 -0.15390877 -0.13168918 0.09425375
-0.07033385 -0.018481484 0.061881807 0.13474919 0.10543915 0.091386 0.18486935 0.037514
00000000: 01c7 6e3d f246 073d 3c63 52bd 3242 433e
00000010: 7e21 f4bd e6c2 5dbe d3b6 863e 56fc b63d
00000020: 8130 bc3e 3686 9d3d 4a58 ac3d d10b 9abd
00000030: 230d d1bd 6583 123e fad4 87bd 0884 eabd
00000040: df70 5e3e 5011 903d be95 21be 8ba5 e63d
00000050: d91f e7bd 7ba5 a23e 1088 4abd 1ed2 b93d
00000060: 0063 3b3f 55ed 68bc dd60 e5bd 7799 1bbe
00000070: 9e42 913d 7431 9abd 2fa1 41be 0c7f c1bd
00000080: c39e 263d 8351 913e af5e 8abc 41e9 493e
00000090: c379 6abe a77f 843e c133 d93b f106 ecbd
000000a0: 615c e9bc fb65 4fbd a285 163e f919 32be
000000b0: 18dc 523e e9cb 0b3e e8a3 ecbd 88fb 5dbc
000000c0: 544f 9cbe 5d04 22be 61e8 883b 09e1 abbd
000000d0: 9a0f 06be 3d74 183d a1c0 5ebe 1169 b4bd
000000e0: 2dcc 3e3e 561e 693d 8c5d b8bd 8169 1ebe
000000f0: f5a8 ec3e 7e54 b7bc baad c5bd abb8 ce3b
00000100: 357c fc3d 4f50 21be c627 4f3e 2cc5 343e
00000110: f49b 7ebe 538f 423d 908c 8f3d d095 14bd
00000120: 58a3 c8be cb31 153e 5f3b 083d adfe 2c3d
00000130: 3c87 b53e cc15 c7bd 96f8 b7be 4588 a03e
00000140: 9ffe 053e c5d7 853d f996 103e 645b 3c3d
00000150: fdc5 853e 6bb3 ee3e 76e8 15bd 9f3b 7fbc
00000160: 3ed8 803e 9501 0fbe a6fb 943e 71e4 4a3e
00000170: da4b 6a3e 36b2 3b3e 4e34 14be d018 ebbd
00000180: fa65 393e bd4b 1b3e 0567 923d d55e bcbd
00000190: 6760 b03d 64a1 aa3e 4169 623e 4db9 e93d
000001a0: 402a 97bd 82ab 533e c9ba 64be 4a54 15be
000001b0: ad7d e33e 30af 36be 0703 0b3e 4956 5b3e
000001c0: cb36 2ebf 4aba c3be b42c 0ebe a7bb 8abe
000001d0: ecd2 033d efc2 d0be f154 a8be e688 d93c
000001e0: f77c 6dbe 7452 97bd e2f8 1abe 9c4f 843d
000001f0: ced5 56be a06c 19be a6b1 d2be 4782 9d3b
00000200: c994 d6bd 4794 c1bb c1a3 983c 0900 ebbd
00000210: 2a97 9bbd 3306 1fbe 0cd8 be3d b0e1 b2bd
00000220: e6fa 273e 0d78 883e fcdd 42be 9374 af3d
00000230: c303 023e a62d e8bd eb9c 21bf 1a1a 0bbe
00000240: 6707 8cbc b04c cebd bfe5 653e cc32 eb3d
00000250: d34a 453e 3816 053e e74e af3b fb0f 1c3d
00000260: d7fe 633c b186 28be 5d52 5b3e 51b4 353e
00000270: 8fd3 9d3d 4062 43bd 5e73 b3bd 4f18 b23d
00000280: 9c99 a03e 773b 963e 3659 c33d 9d32 55ba
00000290: 079d 47be 1f8b b73e f10f 8c3d 87eb b1bd
000002a0: aa39 1d3e 970e c9bd 3a3b 74bb 84a3 2d3e
000002b0: 614a 373e 4638 593d 7dd8 cebd 104f a63d
000002c0: 3fe1 af3d 54db 5a3e bd5e d53c 4f0f 88bd
000002d0: 7338 06be 5fe1 11be 6fed 883e 4a37 9bbd
000002e0: 4d5f 9c3e ac2b a7bd 9fdf 31be 6abc 193e
000002f0: 3ae2 ca3d 1be4 e83c b46c 403d 71b6 1e3d
00000300: 8169 33bf 6ad4 90be 380a 41be 282b 49be
00000310: 1fba 7f3e dfb1 aabc 7d93 b4be 77b3 40bb
00000320: b698 debd 0733 ab3c a967 11bd cc81 00bd
00000330: 3e82 c2be 3bec dfbc 4f70 a9be c63e 5dbe
00000340: 8faf 8a3e 5a33 c53d c2a3 973d b8d8 8c3e
00000350: 691c 12be b16d 31be 902c 963d ea5a 16be
00000360: 7035 803c 6f20 ebbd 8330 843d 6b1b 313d
00000370: cdd7 aa3d 5736 b63d 22ea b23e 56e4 a0bc
00000380: d415 40bf 575c 6cbe 59f6 86be 6b94 30be
00000390: 893e 473e 8947 99bd 4c12 1fbe c9c0 f23c
000003a0: 4e39 ffbd 9923 a0bd 2a9e bbbc 59c3 0f3e
000003b0: dc29 99be db53 bfbd 980d 47be 7a23 443e
000003c0: dc2d 863d ae6b 39be d238 81bc 19d8 983c
000003d0: a0dd afbd 439a 1dbe 87d9 06be 1c08 c13d
000003e0: 320b 90bd 7b66 97bc c777 7d3d b1fb 093e
000003f0: 7bf0 d73d 9528 bb3d 644e 3d3e 48a8 193d

network.0.bias f4 [128]
0.07003647 0.030301183 0.07099644 -0.16489153 0.026470546 0.15916105 0.08690931 -0.22954026
-0.0051276395 0.15880878 0.11122289 0.0825603 -0.176216 0.08714227 -0.17346783 0.0
0.033897024 -0.16568759 -0.030944994 0.10576268 0.13810575 0.027034134 0.06885626 0.13083088
0.10437726 0.07244977 -0.11575743 -0.13728572 0.09864063 0.06658582 0.010812884 -0.2096712
0.0 0.09576924 -0.2250491 0.008494766 -0.2172557 0.057627898 0.06790238 0.06891075
0.04634804 -0.013622695 -0.006881929 0.0 0.10998968 0.13927802 0.10896846 0.013552345
-0.21752621 0.0 -0.21614939 -0.17311437 0.15379243 0.08509689 0.11089802 -0.20198818
0.13452835 0.04485571 0.103377566 0.08948885 -0.13828003 -0.011250262 0.009920256 -0.19876607
0.07928683 0.06145387 0.028481405 -0.24047416 0.11630271 -0.21712369 0.0 0.051444143
0.07985106 -0.054454733 -0.13704789 -0.09342802 0.08826039 0.030158088 -0.014611061 0.0
0.08661088 0.1910231 -0.0829172 0.09790048 0.095559716 -0.116884425 0.09801708 -0.0071791625
0.10567495 0.07266746 0.10716372 0.0771248 0.0 -0.04217162 0.052286558 -0.030239359
-0.00030317105 0.120487124 0.07052678 -0.1679932 -0.0369841 0.1693512 0.033150036 -0.021921698
-0.008638318 0.064129986 0.055980742 -0.21517491 0.0767257 0.08663604 0.06225478 0.07223728
-0.15124516 -0.22100572 -0.2232976 0.10031811 -0.020633793 0.09372341 0.11560322 0.15931246
0.12785445 0.050195552 0.06619325 0.07785029 0.10260779 -0.20288782 -0.16688189 0.10264666
00000000: 486f 8f3d 303a f83c 9566 913d 53d9 28be
00000010: c2d8 d83c 1dfb 223e 82fd b13d 9a0c 6bbe
00000020: c205 a8bb c59e 223e d4c8 e33d 6015 a93d
00000030: f871 34be a577 b23d 8da1 31be 0000 0000
00000040: 9bd7 0a3d 02aa 29be 5b80 fdbc 1b9a d83d
00000050: 986b 0d3e b076 dd3c 8304 8d3d 88f8 053e
00000060: bfc3 d53d 8c60 943d 3b12 edbd a194 0cbe
00000070: 1904 ca3d 255e 883d 8628 313c 0cb4 56be
00000080: 0000 0000 aa22 c43d 4573 66be a22d 0b3c
00000090: 4778 5ebe 3b0b 6c3d 6710 8b3d 1421 8d3d
000000a0: 71d7 3d3d b931 5fbc ce81 e1bb 0000 0000
000000b0: 4542 e13d e69e 0e3e db2a df3d a80a 5e3c
000000c0: 31bf 5ebe 0000 0000 4456 5dbe e544 31be
000000d0: c37b 1d3e 4747 ae3d 801e e33d fdd5 4ebe
000000e0: cdc1 093e 9fba 373d 9eb7 d33d ee45 b73d
000000f0: 4899 0dbe 0553 38bc 9288 223c 5589 4bbe
00000100: 2261 a23d 0eb7 7b3d d651 e93c dc3e 76be
00000110: 1d30 ee3d ac55 5ebe 0000 0000 18b7 523d
00000120: f488 a33d ed0b 5fbd 4856 0cbe 3157 bfbd
00000130: ddc1 b43d 180e f73c 3b63 6fbc 0000 0000
00000140: 0c61 b13d 8f9b 433e 7ed0 a9bd 0c80 c83d
00000150: d0b4 c33d 1a61 efbd 2ebd c83d 2e3f ebbb
00000160: 1c6c d83d add2 943d a778 db3d 9bf3 9d3d
00000170: 0000 0000 26bc 2cbd 6e2a 563d 88b8 f7bc
00000180: eef2 9eb9 f4c1 f63d 5870 903d 6906 2cbe
00000190: a47c 17bd 676a 2d3e 55c8 073d 2295 b3bc
000001a0: bb87 0dbc 9556 833d 104c 653d d056 5cbe
000001b0: 5d22 9d3d 3c6e b13d defe 7e3d 24f1 933d
000001c0: 03e0 1abe 534f 62be 20a8 64be 9573 cd3d
000001d0: 3308 a9bc 0ff2 bf3d 62c1 ec3d ce22 233e
000001e0: 47ec 023e da99 4d3d 5490 873d f96f 9f3d
000001f0: 0824 d23d d3c1 4fbe 16e3 2abe 6938 d23d

network.3.weight f4 [128, 128]
0.1045979 -0.07709578 0.14337139 0.077821895 0.083081104 0.08744812 0.14511819 -0.17580295
-0.045740083 0.04413042 -0.13680749 0.06884374 -0.24374132 0.052364003 -0.111475356 -0.08765849
-0.025167223 -0.28023854 -0.13850698 0.020921463 0.033326004 0.03906405 -0.02797443 0.12585936
0.10294674 0.06257955 0.060342822 -0.08851852 -0.05772484 0.13203132 -0.07157711 -0.054747783
0.011630675 0.11858885 -0.31412217 0.12003906 -0.4709488 0.14332199 0.06911197 -0.20856324
0.02603353 0.0027768272 0.14729694 0.05666657 0.28354427 -0.0022336773 0.18531972 0.21705166
-0.81978005 0.035013605 -0.3977925 -0.22467081 -0.07174351 -0.019279484 -0.1775779 0.008750479
0.11221396 -0.14690611 -0.12866274 0.18692389 0.014452348 0.036436744 0.06455306 -0.37208962
-0.04791413 0.039297197 -0.082108386 -0.6936627 0.10290471 -0.39467302 -0.03721864 -0.028598646
0.057557613 0.07041249 -0.063731596 -0.09096403 -0.107061796 0.01721219 0.021316793 -0.08477619
0.057794757 0.075113244 0.13388406 0.20725426 -0.05685897 -0.04254142 0.012295028 -0.080903955
0.023024617 0.17323828 0.024656326 0.13677152 0.0014370693 0.22150926 -0.08621144 0.17867179
0.088979356 0.27692735 0.2238765 -0.43079475 0.21642022 0.21061005 -0.15231687 0.036802717
0.041414864 0.17991573 0.07670117 -0.28340685 -0.0662755 -0.02411677 0.11718246 0.04003951
-0.08052664 -0.27851975 -0.035126735 0.13996229 0.12469447 0.20053151 0.15632917 -0.04572583
0.22635685 -0.0051574935 0.017848222 -0.045087542 0.04238393 0.056170408 0.01684796 0.028818315
0.042210776 0.024442304 0.16184188 0.17193644 0.14508913 -0.06920946 0.0597728 -0.1485781
-0.046266425 0.21296392 0.07725842 -0.19295272 -0.44903415 0.06352306 -0.23147467 -0.003418047
0.045684293 -0.5947514 0.04995416 0.049148582 0.033421878 0.023596281 0.06009497 0.15714188
-0.048329223 -0.018393613 0.2266742 -0.23777215 0.05290921 0.20964499 0.106077455 -0.0003074654
0.12487841 0.05584327 -0.18987824 -0.052115813 -0.5250135 0.14249548 0.012089454 0.02274891
-0.03637572 0.049562726 0.1572202 -0.1392613 0.056407716 0.123523846 -0.11602721 0.104260325
-0.42480978 0.10155902 -0.5411373 -0.565301 0.25985706 0.2389873 -0.14004971 -0.23286396
0.0865771 0.1450426 -0.11827945 0.19701113 -0.17600365 0.17819826 0.32548285 -0.4368166
0.029697683 -0.10064924 0.04292081 -0.51951414 0.03445595 -0.32327655 -0.053482566 -0.0853873
0.26464707 0.0898971 -0.12832041 -0.103114255 -0.04665394 -0.0073503526 0.11774529 -0.03566183
0.0390068 -0.08774754 0.11646874 0.1320845 0.13001952 0.0275928 0.15241036 -0.011359155
0.20937742 0.21464196 -0.042708073 0.20174825 -0.10190773 0.057027284 0.04024501 -0.0348346
-0.056380834 0.07731997 0.08246335 -0.46224114 0.23546088 0.1827625 -0.13562067 -0.09355908
0.09122434 -0.020645168 0.026030732 -0.17753424 -0.04560069 0.124337025 0.13751832 0.17026311
-0.35130745 -0.3051024 -0.44873542 0.040067673 0.02284919 -0.09641645 0.07241553 0.08594354
0.23385511 0.16502474 0.22895299 0.10041265 0.23508097 -0.1543354 0.105379425 0.12048534
00000000: 6c37 d63d 64e4 9dbd f3cf 123e 1661 9f3d
00000010: 6d26 aa3d 0018 b33d dd99 143e b005 34be
00000020: f459 3bbd 19c2 343d 4317 0cbe f2fd 8c3d
00000030: 5397 79be a37b 563d 314d e4bd 4b86 b3bd
00000040: 7e2b cebc 6d7b 8fbe c6d4 0dbe 7d63 ab3c
00000050: d980 083d a001 203d a22a e5bc 47e1 003e
00000060: bed5 d23d b529 803d 092a 773d 3349 b5bd
00000070: e270 6cbd 3833 073e 0597 92bd 363f 60bd
00000080: 968e 3e3c b6de f23d 9fd4 a0be 0ad7 f53d
00000090: 3320 f1be 00c3 123e 948a 8d3d 9a91 55be
000000a0: 4544 d53c 6efb 353b 02d5 163e 351b 683d
000000b0: b72c 913e e362 12bb 74c4 3d3e ca42 5e3e
000000c0: 1bdd 51bf 6d6a 0f3d 75ab cbbe 1b10 66be
000000d0: 43ee 92bd 02f0 9dbc fbd6 35be 2b5e 0f3c
000000e0: 6fd0 e53d 8e6e 16be 2ac0 03be fa68 3f3e
000000f0: 8bc9 6c3c b23e 153d 6534 843d 8882 bebe
00000100: 9b41 44bd 19f6 203d 7128 a8bd e193 31bf
00000110: b4bf d23d 9512 cabe 9372 18bd b547 eabc
00000120: 88c1 6b3d 6c34 903d b685 82bd 594b babd
00000130: 3743 dbbd 9400 8d3c 8ea0 ae3c 249f adbd
00000140: 32ba 6c3d f9d4 993d e718 093e 763a 543e
00000150: f4e4 68bd e93f 2ebd 1671 493c f9b0 a5bd
00000160: 1f9e bc3c 6065 313e 10fc c93c d50d 0c3e
00000170: 0b5c bc3a 53d3 623e a08f b0bd bdf5 363e
00000180: cf3a b63d 6cc9 8d3e e23f 653e 2191 dcbe
00000190: 439d 5d3e 29aa 573e f4f8 1bbe 72be 163d
000001a0: a2a2 293d d43b 383e 8115 9d3d b41a 91be
000001b0: 73bb 87bd 8890 c5bc 5cfd ef3d 7800 243d
000001c0: 27eb a4bd 249a 8ebe 0de1 0fbd 4652 0f3e
000001d0: d05f ff3d 2258 4d3e c114 203e 024b 3bbd
000001e0: 17ca 673e 3100 a9bb 6f36 923c b7ad 38bd
000001f0: c69a 2d3d f112 663d bc04 8a3c 6314 ec3c
00000200: 35e5 2c3d 3a3b c83c e1b9 253e 1b10 303e
00000210: 3f92 143e b0bd 8dbd 53d4 743d dc24 18be
00000220: dd81 3dbd 3713 5a3e aa39 9e3d 6695 45be
00000230: cee7 e5be 6118 823d b207 6dbe 5001 60bb
00000240: 741f 3b3d a141 18bf bc9c 4c3d 0650 493d
00000250: 61e5 083d fd4c c13c 2526 763d cde9 203e
00000260: ddf4 45bd 34ae 96bc 481d 683e 8b7a 73be
00000270: 54b7 583d 2dad 563e 233f d93d 4f33 a1b9
00000280: 40c0 ff3d eabb 643d 716f 42be 6477 55bd
00000290: 4967 06bf 56ea 113e d812 463c ec5b ba3c
000002a0: b5fe 14bd 4902 4b3d 55fe 203e 849a 0ebe
000002b0: c70b 673d 12fa fc3d ad9f edbd 7086 d53d
000002c0: ab80 d9be 2dfe cf3d f987 0abf 91b7 10bf
000002d0: fc0b 853e 16b9 743e 3169 0fbe e473 6ebe
000002e0: 564f b13d 0c86 143e 7f3c f2bd 49bd 493e
000002f0: 4d3a 34be 9b79 363e b0a5 a63e 6da6 dfbe
00000300: 8e48 f33c 3021 cebd bbcd 2f3d e1fe 04bf
00000310: af21 0d3d 8184 a5be 8910 5bbd 89df aebd
00000320: d27f 873e f91b b83d 6d66 03be 912d d3bd
00000330: 3418 3fbd 3adb f0bb 7124 f13d 2412 12bd
00000340: 98c5 1f3d fbb4 b3bd 2a87 ee3d 2941 073e
00000350: d623 053e 4c0a e23c 7611 1c3e c01b 3abc
00000360: 0967 563e 1acb 5b3e a9ee 2ebd 1897 4e3e
00000370: 00b5 d0bd 7195 693d f4d7 243d baae 0ebd
00000380: 97ef 66bd ef59 9e3d 8be2 a83d dfaa ecbe
00000390: a81c 713e 1826 3b3e 25e0 0abe e79b bfbd
000003a0: d4d3 ba3d 0e20 a9bc 673e d53c 89cb 35be
000003b0: cac7 3abd 69a4 fe3d 9ad1 0c3e 7459 2e3e
000003c0: 92de b3be 6236 9cbe a6c0 e5be 001e 243d
000003d0: 392e bb3c fd75 c5bd 984e 943d 2b03 b03d
000003e0: b777 6f3e 3ffc 283e a772 6a3e 26a5 cd3d
000003f0: 11b9 703e 190a 1ebe 2bd1 d73d 05c1 f63d

network.3.bias f4 [128]
1.3596599 1.202591 1.2366973 1.3260761 0.14589235 0.81679803 -0.07084455 -0.08987403
1.2339854 0.41766903 1.1387613 1.1765916 1.2406158 1.2250336 1.1910554 -0.09219843
1.3459617 0.0148518905 -0.0986878 1.4982942 0.115318924 1.2848377 1.3796476 1.0231162
-0.023470988 -0.0387647 1.262744 1.2491121 0.004244237 1.2428089 1.3135924 -0.07643867
-0.07489532 1.1535785 1.2145462 -0.10176679 0.018400937 1.2481799 0.8790613 1.1865629
0.11570032 0.09590056 1.1274751 -0.109669365 -0.039638754 -0.08428919 -0.06951623 0.90490085
1.196492 1.0354873 1.2620771 -0.09169735 -0.06848156 0.80579025 1.2919124 1.229937
-0.04565403 -0.09394767 1.4477626 1.2922714 -0.05992103 1.2003756 1.2205952 1.1364142
-0.15764119 0.87945193 1.2123982 -0.043898143 1.195827 0.9464312 1.2365596 1.2528212
0.038823366 1.2391118 1.2159604 -0.113628 1.3791417 1.2058417 1.2615447 -0.082308166
0.9362737 1.2591119 -0.008570469 -0.009700547 -0.02970595 1.0042595 0.026460798 1.2919388
0.10102723 1.2271686 1.3205332 1.1620941 0.28975153 1.2338791 0.670785 -0.3519143
0.037836086 1.1225591 0.13992019 -0.062689245 -0.08033147 -0.04998855 1.1950071 1.2247925
1.205924 1.3351418 -0.1020287 1.2543675 1.1378189 1.1432122 1.178843 -0.020860458
1.291787 -0.011775975 1.3014538 1.2815263 -0.07357824 1.0225581 0.025364893 1.1676852
0.17887062 -0.012298724 1.2424291 0.10718172 1.3545922 -0.015786251 1.1985203 0.032907687
00000000: 5609 ae3f 80ee 993f 194c 9e3f ddbc a93f
00000010: ce64 153e ad19 513f f316 91bd e00f b8bd
00000020: 3cf3 9d3f b7d8 d53e eec2 913f 8e9a 963f
00000030: 80cc 9e3f e7cd 9c3f 8174 983f 88d2 bcbd
00000040: 7948 ac3f 5855 733c d41c cabd 1bc8 bf3f
00000050: 542c ec3d 9075 a43f 4b98 b03f 79f5 823f
00000060: 3b46 c0bc bcc7 1ebd 98a1 a13f e8e2 9f3f
00000070: 3e13 8b3b 5d14 9f3f cc23 a83f e18b 9cbd
00000080: b862 99bd 76a8 933f 4076 9b3f 1b6b d0bd
00000090: 90bd 963c 5cc4 9f3f 290a 613f 4be1 973f
000000a0: 4af4 ec3d 8367 c43d 1b51 903f 559a e0bd
000000b0: 3f5c 22bd d09f acbd 865e 8ebd 95a7 673f
000000c0: a626 993f d98a 843f be8b a13f d2cb bbbd
000000d0: 0f40 8cbd 4548 4e3f 635d a53f 936e 9d3f
000000e0: b8ff 3abd a367 c0bd 4950 b93f 2669 a53f
000000f0: c16f 75bd e8a5 993f 773c 9c3f 0576 913f
00000100: b16c 21be c323 613f dd2f 9b3f 8ace 33bd
00000110: dc10 993f 5149 723f 9647 9e3f 725c a03f
00000120: 4005 1f3d 379b 9e3f 97a4 9b3f ccb5 e8bd
00000130: b787 b03f 0559 9a3f 4c7a a13f 2f91 a8bd
00000140: a2af 6f3f 942a a13f 276b 0cbc 0bef 1ebc
00000150: e459 f3bc 938b 803f 51c4 d83c 405e a53f
00000160: 5de7 ce3d dc13 9d3f 3b07 a93f 80bf 943f
00000170: 505a 943e c0ef 9d3f 91b8 2b3f 1c2e b4be
00000180: 03fa 1a3d 04b0 8f3f 3d47 0f3e 3863 80bd
00000190: d384 a4bd cbc0 4cbd fef5 983f 00c6 9c3f
000001a0: b85b 9a3f ede5 aa3f 6cf4 d0bd 1d8f a03f
000001b0: 0da4 913f c754 923f 54e4 963f 8de3 aabc
000001c0: 4759 a53f 05f0 40bc 0a96 a63f 0e09 a43f
000001d0: 30b0 96bd 2fe3 823f 09ca cf3c b576 953f
000001e0: dc29 373e 9680 49bc eb07 9f3f 1782 db3d
000001f0: 4763 ad3f 2b52 81bc 1d69 993f 36ca 063d

network.6.weight f4 [5, 128]
0.33240846 0.25861603 0.39548904 0.25001177 0.34670752 0.21272263 -0.18805128 -0.17794654
0.30057138 0.38137102 0.2837435 0.26277727 0.2859315 0.4102535 0.30261597 -0.51780707
0.34151697 0.22323377 -0.46358013 0.4022574 0.24946837 0.32191363 0.32512623 0.39661267
-0.734159 0.09474215 0.29953778 0.269761 0.12462335 0.38238057 0.4325947 -0.48105353
-0.4362585 0.22972013 0.40248793 -0.53993857 0.24081506 0.37663165 0.24326883 0.42246085
0.11666668 -0.27901074 0.29825398 -0.19753017 0.21431585 -0.4573087 0.24672106 0.17775978
0.30981368 0.30341128 0.32498983 -0.38626972 -0.5558238 0.2837028 0.29062253 0.25965923
-0.2676832 -0.6867079 0.2924439 0.39657962 -0.14698789 0.32261395 0.35662425 0.28255937
-0.29264677 0.3672447 0.4632541 -0.07510935 0.24007298 0.2487341 0.36345664 0.3297142
-0.24915148 0.29980907 0.33175954 -0.5383514 0.2691046 0.2505061 0.38672295 -0.1834762
0.23154311 0.44033372 0.38058767 -0.5536973 0.08096144 0.2709652 -0.37424365 0.3554251
-0.39599603 0.33078927 0.33457416 0.25120825 -0.109511815 0.34854203 0.008472825 -0.21227762
-0.70183706 0.4363766 -0.6875357 0.13519956 -0.45587578 0.031157035 0.2989758 0.29858425
0.25896698 0.45034647 -0.30032894 0.3474163 0.22260414 0.20531027 0.33210057 -0.29852536
0.4129433 0.14032865 0.41043204 0.36518618 -0.4655155 0.2244739 0.35887474 0.25497246
-0.3576467 -0.46516886 0.40535456 0.20895736 0.3550083 -0.5134231 0.42824742 0.2841197
0.31097475 0.32924125 0.37437034 0.32459357 -0.5974147 0.18015566 -0.44840428 -0.35542274
0.3043951 0.25778803 0.26256448 0.2526065 0.27754182 0.37308538 0.29146215 -0.46173054
0.32390812 0.3517397 -0.2577624 0.6417023 0.15878883 0.31384337 0.3113634 0.35785958
0.16498473 0.14370488 0.31961367 0.35223904 -0.5003759 0.32537103 0.3877296 -0.3719411
-0.46303633 0.35018578 0.3382853 -0.22488683 -0.56781757 0.39623532 0.18891416 0.38930744
0.028904606 -0.10673373 0.28300977 -0.4026093 -0.5058241 -0.35948992 -0.629032 0.24586058
0.43742332 0.2698605 0.31113604 -0.4023841 -0.7041731 0.23803572 0.2713198 0.3167873
-0.40214762 -0.25261316 0.36265552 0.40327564 0.007124341 0.26698104 0.37299812 0.42778623
-0.32125935 0.2784845 0.55797684 -0.3456691 0.27282816 0.32702222 0.3458792 0.36146435
-0.2704935 0.29040864 0.33020642 -0.27191398 0.29700458 0.29190865 0.39126876 -0.5086014
0.2821315 0.4303522 -0.677767 -0.49733233 0.14167297 0.35864112 0.40465248 0.45303237
0.3901575 0.46923307 0.3635411 0.31466693 0.09334744 0.38685068 0.29007417 -0.2616212
0.076895274 0.32247892 0.075911626 -0.15868582 -0.33509094 -0.010209634 0.3126414 0.38902256
0.3101926 0.37782034 -0.50615865 0.3544975 0.23807527 0.27669486 0.30781668 -0.3024409
0.352275 -0.50560015 0.43330583 0.35679242 -0.5489484 0.29217678 -0.3050241 0.26127517
0.34857398 0.053733166 0.36151993 -0.060541745 0.4155567 0.09983447 0.29943454 -0.38318682
00000000: 7131 aa3e 5269 843e 8a7d ca3e 8b01 803e
00000010: a683 b13e f6d3 593e 8490 40be 9e37 36be
00000020: 7ee4 993e 1043 c33e d446 913e be8a 863e
00000030: 9d65 923e bf0c d23e 7bf0 9a3e 018f 04bf
00000040: 50db ae3e 6597 643e 605a edbe aff4 cd3e
00000050: a374 7f3e ddd1 a43e f276 a63e d110 cb3e
00000060: d8f1 3bbf 2c08 c23d 045d 993e 1d1e 8a3e
00000070: 873a ff3d 63c7 c33e 0d7d dd3e a64c f6be
00000080: 465d dfbe c13b 6b3e e612 ce3e 6a39 0abf
00000090: 3998 763e ddd5 c03e 771b 793e ca4c d83e
000000a0: f1ee ee3d 7fda 8ebe bfb4 983e 5945 4abe
000000b0: 9d75 5b3e 5e24 eabe 72a4 7c3e a906 363e
000000c0: e69f 9e3e b958 9b3e 1165 a63e 25c5 c5be
000000d0: 784a 0ebf 7e41 913e 7acc 943e 0ef2 843e
000000e0: c60d 89be 17cc 2fbf 35bb 953e 7c0c cb3e
000000f0: fe83 16be a82d a53e 7497 b63e 9fab 903e
00000100: ccd5 95be 7f07 bc3e a42f ed3e eed2 99bd
00000110: b1d5 753e 27b4 7e3e fd16 ba3e 4dd0 a83e
00000120: 9121 7fbe 9380 993e 63dc a93e 66d1 09bf
00000130: 14c8 893e 5642 803e 8d00 c63e 2fe1 3bbe
00000140: a319 6d3e 6c73 e13e 63dc c23e 1bbf 0dbf
00000150: 1dcf a53d f3bb 8a3e dd9c bfbe 47fa b53e
00000160: febf cabe 365d a93e 4e4d ab3e 5e9e 803e
00000170: bb47 e0bd 1a74 b23e 9bd1 0a3c 4e5f 59be
00000180: 98ab 33bf c16c df3e 5702 30bf c171 0a3e
00000190: 8d68 e9be 0a3d ff3c 5b13 993e 09e0 983e
000001a0: 5297 843e d093 e63e b7c4 99be 8de0 b13e
000001b0: 57f2 633e db3c 523e 1609 aa3e 51d8 98be
000001c0: 4e6d d33e 50b2 0f3e 2624 d23e aff9 ba3e
000001d0: 0c58 eebe 7cdc 653e 6ebe b73e c08b 823e
000001e0: 781d b7be 9d2a eebe a28a cf3e ebf8 553e
000001f0: a6c3 b53e b26f 03bf 3f43 db3e 2378 913e
00000200: 1538 9f3e 4f92 a83e 78ad bf3e 2131 a63e
00000210: 2bf0 18bf ba7a 383e 3f95 e5be f8f9 b5be
00000220: add9 9b3e cbfc 833e da6e 863e a455 813e
00000230: f619 8e3e 0c05 bf3e 873a 953e f267 ecbe
00000240: 49d7 a53e 3a17 b43e 6ff9 83be 9a46 243f
00000250: 8a99 223e 14b0 a03e 066b 9f3e 5f39 b73e
00000260: c2f1 283e 5f27 133e 67a4 a33e ad58 b43e
00000270: a318 00bf 0897 a63e 7e84 c63e 106f bebe
00000280: 1913 edbe 8d4b b33e bb33 ad3e bc48 66be
00000290: 7e5c 11bf 5bdf ca3e b772 413e 4e53 c73e
000002a0: 5ac9 ec3c 3797 dabd a8e6 903e ce22 cebe
000002b0: b07d 01bf 100f b8be 3e08 21bf e0c2 7b3e
000002c0: f3f5 df3e 282b 8a3e 394d 9f3e 4a05 cebe
000002d0: b044 34bf a3bf 733e 6eea 8a3e f231 a23e
000002e0: 4be6 cdbe 8356 81be fcad b93e 257a ce3e
000002f0: 4e73 e93b bdb1 883e 9cf9 be3e cc06 db3e
00000300: 1b7c a4be 8595 8e3e 92d7 0e3f 8afb b0be
00000310: 22b0 8b3e 756f a73e 1417 b13e db11 b93e
00000320: 207e 8abe 71b0 943e d110 a93e 4f38 8bbe
00000330: fc10 983e 0d75 953e 6154 c83e b433 02bf
00000340: 8a73 903e 2057 dc3e 2382 2dbf 58a2 febe
00000350: b812 113e cf9f b73e 9c2e cf3e dcf3 e73e
00000360: b9c2 c73e 513f f03e 0f22 ba3e 061c a13e
00000370: f12c bf3d 4b11 c63e 9a84 943e 37f3 85be
00000380: 457b 9d3d f51b a53e 8e77 9b3d 897e 22be
00000390: 0a91 abbe 4f46 27bc 8912 a03e f72d c73e
000003a0: 91d1 9e3e ab71 c13e 9d93 01bf b280 b53e
000003b0: 01ca 733e f3aa 8d3e 269a 9d3e 89d9 9abe
000003c0: 645d b43e 036f 01bf 43da dd3e 7fad b63e
000003d0: e287 0cbf 3298 953e 1e2c 9cbe dcc5 853e
000003e0: 4a78 b23e 4f17 5c3d 2419 b93e 9ffa 77bd
000003f0: d9c3 d43e 0476 cc3d 7c4f 993e 1031 c4be

network.6.bias f4 [5]
0.93754995 1.5641112 0.99157923 1.4887834 0.81827015
00000000: 4603 703f cc34 c83f 23d8 7d3f 7490 be3f
00000010: 277a 513f

network.0.weight f4 [128, 16]
0.057530247 0.032697026 -0.051190805 0.19085556 -0.11822451 -0.21630593 0.26330948 0.08848915
0.3659241 0.07883001 0.08528608 -0.07521785 -0.10045435 0.14374913 -0.06616696 -0.11489992
0.21623208 0.06920222 -0.15926564 0.11115256 -0.11433942 0.31679943 -0.050959285 0.09099419
0.73194945 -0.0119780945 -0.10924699 -0.15195261 0.07209635 -0.075007945 -0.18766874 -0.0949587
0.040651545 0.2835591 -0.017000116 0.19706959 -0.22900264 0.25915292 0.006493245 -0.11588699
-0.02780368 -0.048613884 0.14979473 -0.1739272 0.20560431 0.1372444 -0.11437753 -0.014217148
-0.30529273 -0.15821977 0.0041780923 -0.083925314 -0.13091889 0.03722023 -0.2175317 -0.08809102
0.18632574 0.056913696 -0.09002218 -0.15469934 0.46222654 -0.022379156 -0.09652276 0.006308635
0.12260491 -0.15808544 0.20227805 0.17651129 -0.24805847 0.046973255 0.07013416 -0.037717573
-0.3915348 0.14806867 0.035092823 0.042235065 0.35382354 -0.09604938 -0.35603425 0.31216553
0.1298965 0.064416416 0.13961355 0.044398256 0.25940531 0.46517894 -0.03819914 -0.014798813
0.252719 -0.13669066 0.29425895 0.19813706 0.23080206 0.18481587 -0.1432012 -0.113558546
0.18172057 0.15168695 0.07086578 -0.09259753 0.08488474 0.3333964 0.22041585 0.114324994
-0.07229656 0.20914343 -0.22035997 -0.14582935 0.44459942 -0.17649448 0.13721547 0.2148884
-0.6805236 -0.38228065 -0.13991515 -0.2720357 0.031070827 -0.40883946 -0.32984394 0.027665325
-0.23080364 -0.07281311 -0.15004142 0.06460497 -0.20835616 -0.14874452 -0.4104133 0.0048059644
-0.10279062 -0.0049927374 0.019637551 -0.113741376 -0.07559111 -0.15390739 0.09411862 -0.088970214
0.16641876 0.2681462 -0.19032346 0.08567157 0.12654357 -0.11520503 -0.6311002 -0.13843282
-0.01736966 -0.10122149 0.22453278 0.11486655 0.19313656 0.1306007 0.00535178 0.036425445
0.012932735 -0.16303472 0.21587093 0.17744567 0.07703842 -0.04654448 -0.087166645 0.08783097
0.31337434 0.29298776 0.09519336 -0.0010049248 -0.19492064 0.3586562 0.06818615 -0.08843073
0.1528799 -0.096589275 -0.0028605757 0.16956908 0.17901076 0.053423338 -0.10093764 0.08149454
0.08559996 0.21315104 0.025236364 -0.06724524 -0.13188103 -0.14255847 0.26656726 -0.07506696
0.3069951 -0.080463834 -0.17056914 0.1501328 0.09962751 0.031113232 0.04882585 0.038755395
-0.70051944 -0.2826996 -0.18697189 -0.19491003 0.2513655 -0.01930827 -0.35114324 -0.0050065448
-0.10893445 0.019001333 -0.038157284 -0.031373784 -0.37846136 -0.029667605 -0.33393398 -0.2178378
0.2712212 0.09723206 0.07458099 0.2756291 -0.14246081 -0.17276947 0.07387834 -0.14734279
0.015947163 -0.11454329 0.067824066 0.04323904 0.08198426 0.08988184 0.35058427 -0.01982909
-0.7503331 -0.23090443 -0.26414815 -0.17299108 0.19399087 -0.075393565 -0.15589312 0.03025008
-0.123918615 -0.07759886 -0.022301855 0.14039363 -0.2985781 -0.09291058 -0.1934716 0.19154158
0.06551716 -0.18107483 -0.015774164 0.01865773 -0.085871935 -0.15390877 -0.13168918 0.09425375
-0.07033385 -0.018481484 0.061881807 0.13474919 0.10543915 0.091386 0.18486935 0.037514
00000000: d6a4 6b3d 51ed 053d 73ad 51bd a46f 433e
00000010: b11f f2bd 4d7f 5dbe 80d0 863e cd39 b53d
00000020: 675a bb3e a171 a13d 78aa ae3d d10b 9abd
00000030: 03bb cdbd f932 133e 8b82 87bd a650 ebbd
00000040: f16b 5d3e e5b9 8d3d 8816 23be f4a3 e33d
00000050: c92a eabd 8933 a23e afba 50bd 295b ba3d
00000060: 0a61 3b3f c53f 44bc e3bc dfbd 7799 1bbe
00000070: 40a7 933d c49d 99bd 3c2c 40be b579 c2bd
00000080: 3c82 263d a92e 913e d443 8bbc 9ccc 493e
00000090: ab7f 6abe b1af 843e 49c5 d43b 2956 edbd
000000a0: 8bc4 e3bc 5a1f 47bd ca63 193e f919 32be
000000b0: f089 523e cc89 0c3e c43e eabd 0aef 68bc
000000c0: 544f 9cbe 5d04 22be 61e8 883b 09e1 abbd
000000d0: 9a0f 06be 3d74 183d a1c0 5ebe 1169 b4bd
000000e0: 2dcc 3e3e 561e 693d 8c5d b8bd 8169 1ebe
000000f0: f5a8 ec3e 7e54 b7bc baad c5bd abb8 ce3b
00000100: 4818 fb3d 26e1 21be fa21 4f3e 60bf 343e
00000110: 0a03 7ebe 0767 403d 80a2 8f3d be7d 1abd
00000120: 4077 c8be 509f 173e 7ebd 0f3d adfe 2c3d
00000130: 5c28 b53e 8ab5 c4bd 1f4a b6be 29d4 9f3e
00000140: 9703 053e c1ec 833d dbf6 0e3e f2da 353d
00000150: c6d0 843e ef2b ee3e b476 1cbd b876 72bc
00000160: 6364 813e a3f8 0bbe 1ca9 963e 71e4 4a3e
00000170: 6057 6c3e 5f40 3d3e 56a3 12be 6291 e8bd
00000180: f514 3a3e d353 1b3e 1422 913d c6a3 bdbd
00000190: 0dd8 ad3d efb2 aa3e b1b4 613e 3923 ea3d
000001a0: 3810 94bd b229 563e 0ba6 61be 4a54 15be
000001b0: 89a2 e33e f8ba 34be 3682 0c3e b40b 5c3e
000001c0: cb36 2ebf 4aba c3be eb45 0fbe 4348 8bbe
000001d0: 3f88 fe3c 6853 d1be 4ee1 a8be 64a2 e23c
000001e0: ca57 6cbe 0a1f 95bd 75a4 19be 9c4f 843d
000001f0: 515b 55be 7c50 18be b121 d2be 5a7b 9d3b
00000200: e383 d2bd 1e9a a3bb eede a03c 3df1 e8bd
00000210: 83cf 9abd e699 1dbe 43c1 c03d 0436 b6bd
00000220: ae69 2a3e 754a 893e 27e4 42be 9374 af3d
00000230: a394 013e 9df0 ebbd c88f 21bf 55c1 0dbe
00000240: d14a 8ebc 364d cfbd eceb 653e 273f eb3d
00000250: 97c5 453e 31bc 053e fc5d af3b d932 153d
00000260: d2e3 533c 93f2 26be 450d 5d3e 51b4 353e
00000270: 52c6 9d3d 6da5 3ebd 6d84 b2bd b9e0 b33d
00000280: 9a72 a03e 7e02 963e bcf4 c23d aeb7 83ba
00000290: 4799 47be c9a1 b73e 2ea5 8b3d 2c1b b5bd
000002a0: 8c8c 1c3e 99d0 c5bd 7f78 3bbb 84a3 2d3e
000002b0: 994e 373e 6ed2 5a3d 65b8 cebd 9ce6 a63d
000002c0: 084f af3d 4444 5a3e 7ebc ce3c dfb7 89bd
000002d0: d20b 07be d9fa 11be 817b 883e b5bc 99bd
000002e0: 762e 9d3e 39ca a4bd ada9 2ebe 6abc 193e
000002f0: 8209 cc3d 2de1 fe3c 9dfd 473d fabd 1e3d
00000300: 3e55 33bf 01be 90be 8f75 3fbe 7f96 47be
00000310: fbb2 803e 612c 9ebc 0cc9 b3be f10d a4bb
00000320: 0619 dfbd afa8 9b3c d04a 1cbd cc81 00bd
00000330: b0c5 c1be 7a09 f3bc 65f9 aabe df10 5fbe
00000340: 81dd 8a3e 9a21 c73d ebbd 983d 421f 8d3e
00000350: 3fe1 11be 7bea 30be 874d 973d 07e1 16be
00000360: a0a3 823c ac95 eabd 58e7 8a3d 6b1b 313d
00000370: 5de7 a73d f813 b83d c87f b33e 9e70 a2bc
00000380: d415 40bf 3672 6cbe 6d3e 87be 9324 31be
00000390: 8ba5 463e f167 9abd 72a2 1fbe 04cf f73c
000003a0: 0bc9 fdbd 27ec 9ebd 61b2 b6bc 59c3 0f3e
000003b0: 3bdf 98be e747 bebd 6b1d 46be 7a23 443e
000003c0: dc2d 863d ae6b 39be d238 81bc 19d8 983c
000003d0: a0dd afbd 439a 1dbe 87d9 06be 1c08 c13d
000003e0: 320b 90bd 7b66 97bc c777 7d3d b1fb 093e
000003f0: 7bf0 d73d 9528 bb3d 644e 3d3e 48a8 193d

network.0.bias f4 [128]
0.070209816 0.028833307 0.07088717 -0.16489153 0.02644842 0.15757369 0.08628953 -0.23061301
-0.004122858 0.15883234 0.11103125 0.08175051 -0.17467235 0.087680444 -0.17401774 0.0
0.034126826 -0.1635306 -0.030944994 0.105808266 0.13700968 0.027393319 0.06801384 0.13024227
0.10671495 0.07427794 -0.11577031 -0.13531794 0.099899255 0.06618421 0.012841001 -0.20662847
0.0 0.09493418 -0.22350277 0.009200556 -0.21679203 0.05746524 0.069153644 0.06841835
0.04799174 -0.012919873 -0.006881929 0.0 0.11093133 0.1409469 0.10960139 0.012432964
-0.2176891 0.0 -0.21502386 -0.16987415 0.15472081 0.08378938 0.11102849 -0.20127577
0.13762492 0.04612648 0.10415771 0.09259451 -0.13875103 -0.013387299 0.010500332 -0.1999596
0.080194704 0.06290763 0.029221592 -0.24287266 0.1153082 -0.21728168 0.0 0.05071714
0.07945131 -0.054454733 -0.13556954 -0.09232963 0.08767229 0.02919805 -0.014611061 0.0
0.08623693 0.19325867 -0.08288983 0.09782773 0.09669858 -0.11694521 0.1001194 -0.0071791625
0.10590899 0.073505685 0.10774152 0.07683496 0.0 -0.04146475 0.052059077 -0.027915273
-0.00012943687 0.1191832 0.07192265 -0.1648605 -0.0371583 0.17025048 0.03216228 -0.020471308
-0.008110715 0.062920265 0.057060294 -0.21463446 0.07750104 0.08614025 0.061298482 0.07196596
-0.15150246 -0.22130285 -0.22235559 0.102444924 -0.020633793 0.096488714 0.1183058 0.15937391
0.12760362 0.05075186 0.067504264 0.07957867 0.10430388 -0.2011319 -0.16688189 0.10429978
00000000: 2aca 8f3d d433 ec3c 4b2d 913d 53d9 28be
00000010: 5baa d83c ff5a 213e 91b8 b03d d125 6cbe
00000020: 0a19 87bb f2a4 223e 5a64 e33d d06c a73d
00000030: 4fdd 32be ce91 b33d b531 32be 0000 0000
00000040: 92c8 0b3d 9174 27be 5b80 fdbc 01b2 d83d
00000050: 444c 0c3e f467 e03c d74a 8b3d 3b5e 053e
00000060: 5e8d da3d 081f 983d fc18 edbd c990 0abe
00000070: fb97 cc3d 968b 873d 1063 523c 6a96 53be
00000080: 0000 0000 da6c c23d e9dd 64be eebd 163c
00000090: bbfe 5dbe ac60 6b3d 6da0 8d3d eb1e 8c3d
000000a0: fd92 443d e0ad 53bc ce81 e1bb 0000 0000
000000b0: f72f e33d 6254 103e b276 e03d a1b3 4b3c
000000c0: e4e9 5ebe 0000 0000 372f 5cbe 7df3 2dbe
000000d0: 226f 1e3e c499 ab3d e862 e33d 3c1b 4ebe
000000e0: 8ced 0c3e 1fef 3c3d a350 d53d 31a2 bd3d
000000f0: c014 0ebe 6756 5bbc 9609 2c3c 36c2 4cbe
00000100: 1f3d a43d b7d5 803d 1f62 ef3c 9cb3 78be
00000110: b526 ec3d 177f 5ebe 0000 0000 c7bc 4f3d
00000120: 5eb7 a23d ed0b 5fbd bed2 0abe 5117 bdbd
00000130: 888d b33d c030 ef3c 3b63 6fbc 0000 0000
00000140: fd9c b03d 9ae5 453e 25c2 a9bd e859 c83d
00000150: e809 c63d f880 efbd 660b cd3d 2e3f ebbb
00000160: d0e6 d83d 268a 963d 96a7 dc3d a65b 9d3d
00000170: 0000 0000 f1d6 29bd e63b 553d 92ae e4bc
00000180: 72b9 07b9 5216 f43d 2f4c 933d 31d1 28be
00000190: 4d33 18bd 2456 2e3e 98bc 033d 72b3 a7bc
000001a0: cee2 04bc 57dc 803d 0eb8 693d 23c9 5bbe
000001b0: deb8 9e3d 4d6a b03d 1e14 7b3d e462 933d
000001c0: 7623 1bbe 379d 62be 2fb1 63be a5ce d13d
000001d0: 3308 a9bc e09b c53d 504a f23d ea32 233e
000001e0: 86aa 023e 2fe1 4f3d ad3f 8a3d 24fa a23d
000001f0: 469d d53d 85f5 4dbe 16e3 2abe 209b d53d

network.3.weight f4 [128, 128]
0.10380382 -0.077686355 0.14344768 0.077821895 0.08177129 0.085924804 0.14529644 -0.1753341
-0.045656227 0.043319054 -0.13714767 0.06766572 -0.24362852 0.05382192 -0.11072883 -0.08765849
-0.026460819 -0.2807791 -0.13850698 0.02193984 0.032755587 0.038766496 -0.028585209 0.12667002
0.10299158 0.06265155 0.060097527 -0.08910682 -0.05802303 0.13077387 -0.071020044 -0.055057105
0.011630675 0.1174273 -0.31370592 0.11977026 -0.47098774 0.14295503 0.06971661 -0.21045822
0.025311586 0.0030345218 0.14729694 0.05666657 0.2836175 -0.0014474055 0.18572196 0.21664773
-0.81971705 0.035013605 -0.39915222 -0.22487395 -0.071843386 -0.019736072 -0.1775054 0.007303011
0.11462216 -0.14607942 -0.12833743 0.18854755 0.012627683 0.034842096 0.062025663 -0.37144002
-0.048646487 0.038623765 -0.08106037 -0.69181556 0.10144704 -0.39343825 -0.03721864 -0.030416135
0.05699285 0.07041249 -0.06407601 -0.09100352 -0.10990978 0.015889354 0.021316793 -0.08477619
0.05675233 0.07575014 0.13390699 0.20656325 -0.0567609 -0.044669047 0.014054716 -0.080903955
0.02252871 0.17350888 0.023948196 0.13520132 0.0014370693 0.22106333 -0.08722065 0.18030491
0.08776987 0.27617934 0.22463529 -0.43065348 0.21725066 0.21100122 -0.15278466 0.037092853
0.041121133 0.17833143 0.077765405 -0.2833249 -0.06590852 -0.024959236 0.11665008 0.038900483
-0.07951457 -0.28000712 -0.03520651 0.14265789 0.12469447 0.2012246 0.15872586 -0.04634156
0.22603768 -0.0032629317 0.01868161 -0.046105135 0.04260576 0.055211976 0.01684796 0.029276058
0.040950775 0.02341824 0.16078927 0.17193644 0.14400882 -0.0705306 0.059471823 -0.14799424
-0.04510258 0.21226326 0.075978 -0.19564082 -0.44818628 0.062976666 -0.23127127 -0.003418047
0.043649822 -0.5937843 0.04995416 0.049317848 0.03129027 0.02137409 0.058330487 0.15679564
-0.048215516 -0.018601822 0.22539552 -0.2376188 0.052656047 0.20832764 0.106756344 -0.0004967787
0.12487841 0.054908607 -0.18949762 -0.051760316 -0.5243543 0.14199656 0.012096166 0.020806432
-0.03792207 0.04929967 0.1572202 -0.1392613 0.056156114 0.12288488 -0.11627518 0.10180584
-0.42440793 0.10155902 -0.5401108 -0.5648492 0.2595298 0.23814929 -0.14148939 -0.2343358
0.08760428 0.14543378 -0.118008725 0.19678697 -0.17746833 0.17557457 0.32368627 -0.43579566
0.027958238 -0.103262976 0.043296967 -0.51772577 0.033142958 -0.32333794 -0.053482566 -0.086619526
0.2642021 0.0898971 -0.12876952 -0.102039866 -0.049835503 -0.007806093 0.11774529 -0.03566183
0.03761758 -0.08826353 0.116536416 0.131343 0.12938131 0.025390321 0.1523659 -0.011359155
0.20778352 0.21474367 -0.04304854 0.20022392 -0.10190773 0.056581374 0.039331008 -0.034004603
-0.058773626 0.07550122 0.08133315 -0.4619839 0.23436917 0.18189034 -0.13654223 -0.09310817
0.090461776 -0.022675987 0.026123015 -0.1779531 -0.046854198 0.12162536 0.1359618 0.16894507
-0.35057548 -0.30570891 -0.4480329 0.040454768 0.02284919 -0.096413635 0.074847944 0.084887184
0.23278014 0.16619344 0.22849773 0.09820629 0.23435348 -0.15530437 0.105379425 0.12000545
00000000: 1997 d43d 061a 9fbd f3e3 123e 1661 9f3d
00000010: b577 a73d 58f9 af3d 97c8 143e c88a 33be
00000020: 0602 3bbd 526f 313d 7070 0cbe 5394 8a3d
00000030: c179 79be 6074 5c3d ccc5 e2bd 4b86 b3bd
00000040: 5cc4 d8bc 47c2 8fbe c6d4 0dbe 2ebb b33c
00000050: b92a 063d 9ec9 1e3d 872b eabc c9b5 013e
00000060: 40ed d23d 754f 803d d328 763d a37d b6bd
00000070: 8fa9 6dbd 96e9 053e f572 91bd 8f83 61bd
00000080: 968e 3e3c b97d f03d 109e a0be 1c4a f53d
00000090: 4e25 f1be ce62 123e 95c7 8e3d 5c82 57be
000000a0: 3e5a cf3c d4de 463b 02d5 163e 351b 683d
000000b0: 5036 913e dfb6 bdba e62d 3e3e e7d8 5d3e
000000c0: fad8 51bf 6d6a 0f3d ae5d ccbe 5b45 66be
000000d0: a022 93bd 8bad a1bc fac3 35be 194e ef3b
000000e0: 06bf ea3d d895 15be e36a 03be 9c12 413e
000000f0: 57e4 4e3c 96b6 0e3d 9f0e 7e3d 632d bebe
00000100: 8a41 47bd f433 1e3d fb02 a6bd d31a 31bf
00000110: 77c3 cf3d bd70 c9be 9372 18bd 422b f9bc
00000120: 5671 693d 6c34 903d 483a 83bd 0e60 babd
00000130: 6118 e1bd 642a 823c 8ea0 ae3c 249f adbd
00000140: 2275 683d e422 9b3d ea1e 093e 5185 533e
00000150: 1e7e 68bd e4f6 36bd c045 663c f9b0 a5bd
00000160: 218e b83c 50ac 313e 022f c43c 3772 0a3e
00000170: 0b5c bc3a 6d5e 623e bda0 b2bd daa1 383e
00000180: b1c0 b33d 6167 8d3e cb06 663e 9d7e dcbe
00000190: f576 5e3e b410 583e 9573 1cbe adee 173d
000001a0: a26e 283d 849c 363e 7843 9f3d f60f 91be
000001b0: 0cfb 86bd 5077 ccbc 3de6 ee3d 1d56 1f3d
000001c0: 89d8 a2bd 185d 8fbe b434 10bd e914 123e
000001d0: d05f ff3d d20d 4e3e 0889 223e a6d0 3dbd
000001e0: 6c76 673e e9d6 55bb 2d0a 993c bdd8 3cbd
000001f0: 6183 2e3d f425 623d bc04 8a3c 58d4 ef3c
00000200: 00bc 273d 9cd7 bf3c f1a5 243e 1b10 303e
00000210: 0c77 133e 5972 90bd ba98 733d cd8b 17be
00000220: 7cbd 38bd 8a5b 593e 5b9a 9b3d 1156 48be
00000230: ac78 e5be e9f9 803d 60d2 6cbe 5001 60bb
00000240: 28ca 323d 3f02 18bf bc9c 4c3d 8301 4a3d
00000250: 3a2a 003d b718 af3c f3eb 6e3d 098f 203e
00000260: a27d 45bd d962 98bc 15ce 663e 5852 73be
00000270: dead 573d d753 553e 12a3 da3d 413a 02ba
00000280: 40c0 ff3d d9e7 603d aa0b 42be a002 54bd
00000290: 153c 06bf 8c67 113e ff2e 463c 4072 aa3c
000002a0: 2c54 1bbd 73ee 493d 55fe 203e 849a 0ebe
000002b0: f403 663d 11ab fb3d ae21 eebd 957f d03d
000002c0: ff4b d9be 2dfe cf3d b444 0abf f599 10bf
000002d0: 17e1 843e 68dd 733e 98e2 10be b9f5 6fbe
000002e0: df69 b33d 98ec 143e 8fae f1bd 8682 493e
000002f0: 42ba 35be d2c9 333e 35ba a53e 9c20 dfbe
00000300: ad08 e53c 8a7b d3bd 2958 313d ad89 04bf
00000310: e9c0 073d 8d8c a5be 8910 5bbd 9465 b1bd
00000320: 7f45 873e f91b b83d 28dc 03be 47fa d0bd
00000330: 5020 4cbd 41ca ffbb 7124 f13d 2412 12bd
00000340: e414 1a3d 82c3 b4bd a5aa ee3d c87e 063e
00000350: 897c 043e 5dff cf3c ce05 1c3e c01b 3abc
00000360: 34c5 543e c4e5 5b3e aa53 30bd 8007 4d3e
00000370: 00b5 d0bd dfc1 673d 8d19 213d 6948 0bbd
00000380: 9dbc 70bd 62a0 9a3d ff91 a63d 2789 ecbe
00000390: 79fe 6f3e 7641 3a3e bad1 0bbe 7faf bebd
000003a0: 0644 b93d fec2 b9bc efff d53c 5639 36be
000003b0: 30ea 3fbd b716 f93d 9239 0b3e f0ff 2c3e
000003c0: a17e b3be e185 9cbe 9164 e5be e6b3 253d
000003d0: 392e bb3c 8374 c5bd e149 993d 55d9 ad3d
000003e0: eb5d 6e3e 9d2e 2a3e 4ffb 693e 6120 c93d
000003f0: 5cfa 6f3e 1c08 1fbe 2bd1 d73d 6bc5 f53d

network.3.bias f4 [128]
1.3585539 1.2009009 1.2358208 1.3260833 0.143491 0.81461155 -0.06725836 -0.087997556
1.2330694 0.41501176 1.1378504 1.1756265 1.2401744 1.2239422 1.1892555 -0.09108006
1.3441937 0.018295767 -0.099630676 1.4989711 0.11553655 1.2838266 1.3790432 1.0226563
-0.02084334 -0.0387647 1.2621231 1.2486315 0.0026511643 1.2404528 1.3125694 -0.075023696
-0.0740139 1.1544997 1.212994 -0.1007862 0.018947205 1.246766 0.87862736 1.1873305
0.1149985 0.0937559 1.1277839 -0.10779844 -0.03951178 -0.08403598 -0.070598066 0.90500844
1.197126 1.0347494 1.2626547 -0.09069039 -0.0669635 0.8054401 1.2903432 1.2290027
-0.046948027 -0.09171352 1.4471788 1.2914833 -0.058112904 1.1980902 1.2176999 1.1361928
-0.15363924 0.87851924 1.2124733 -0.04413787 1.1958563 0.94818217 1.236059 1.2523433
0.038102753 1.2392567 1.2154033 -0.1101004 1.3788526 1.2057021 1.2625136 -0.08035655
0.9352653 1.2581239 -0.011413132 -0.011850173 -0.02970595 1.0053877 0.02662069 1.2925061
0.10061749 1.2268323 1.3191819 1.162304 0.29176345 1.234484 0.6706029 -0.35269997
0.03600769 1.1227002 0.13806875 -0.062689245 -0.07932156 -0.04998855 1.1941423 1.2248685
1.2044361 1.3328109 -0.10002215 1.2534369 1.137659 1.14197 1.1788645 -0.02013803
1.2901545 -0.0096965805 1.3019316 1.279191 -0.072551176 1.0233306 0.023807736 1.1683692
0.18058223 -0.01226686 1.2419683 0.10647601 1.3548872 -0.015697736 1.1964675 0.031633653
00000000: 18e5 ad3f 1fb7 993f 602f 9e3f 19bd a93f
00000010: 4eef 123e 628a 503f c0be 89bd 1038 b4bd
00000020: 38d5 9d3f 6c7c d43e 15a5 913f ee7a 963f
00000030: 09be 9e3f 23aa 9c3f 8639 983f 2f88 babd
00000040: 8a0e ac3f 01e1 953c 2b0b ccbd 49de bf3f
00000050: 6d9e ec3d 6e54 a43f 7d84 b03f 67e6 823f
00000060: a7bf aabc bcc7 1ebd 408d a13f 28d3 9f3f
00000070: 28bf 2d3b 28c7 9e3f 4602 a83f 06a6 99bd
00000080: 9994 97bd a5c6 933f 6343 9b3f ff68 cebd
00000090: 2b37 9b3c 0796 9f3f b9ed 603f 72fa 973f
000000a0: 5584 eb3d 1803 c03d 395b 903f 6ec5 dcbd
000000b0: 1bd7 21bd 0e1b acbd b895 90bd a2ae 673f
000000c0: 6d3b 993f ab72 843f ab9e a13f e2bb b9bd
000000d0: 2924 89bd 5331 4e3f f729 a53f f64f 9d3f
000000e0: 934c 40bd 4cd4 bbbd 283d b93f 534f a53f
000000f0: cc07 6ebd 055b 993f 97dd 9b3f c46e 913f
00000100: 9b53 1dbe a3e6 603f 5332 9b3f e9c9 34bd
00000110: d211 993f 11bc 723f 2e37 9e3f c94c a03f
00000120: a211 1c3d f79f 9e3f 5692 9b3f 527c e1bd
00000130: 3e7e b03f 7254 9a3f 0c9a a13f fa91 a4bd
00000140: 8c6d 6f3f 340a a13f 25fe 3abc 3a27 42bc
00000150: e459 f3bc 8bb0 803f a213 da3c d770 a53f
00000160: 8b10 ce3d d708 9d3f f4da a83f 61c6 943f
00000170: 0562 953e 9203 9e3f a2ac 2b3f 1795 b4be
00000180: cd7c 133d a4b4 8f3f e561 0d3e 3863 80bd
00000190: 5873 a2bd cbc0 4cbd a8d9 983f 7ec8 9c3f
000001a0: f62a 9a3f 8c99 aa3f 6ad8 ccbd 9f70 a03f
000001b0: cf9e 913f 132c 923f 08e5 963f 83f8 a4bc
000001c0: c823 a53f 68de 1ebc b2a5 a63f 88bc a33f
000001d0: b695 94bd 7ffc 823f 7108 c33c 1f8d 953f
000001e0: 8cea 383e f1fa 48bc d1f8 9e3f 1810 da3d
000001f0: f26c ad3f 8a98 80bc d925 993f 4a92 013d

network.6.weight f4 [5, 128]
0.3309221 0.2573178 0.3951 0.24869727 0.34602183 0.21101423 -0.18919164 -0.17910129
0.29968998 0.37914333 0.28291917 0.26243696 0.2857014 0.40968347 0.30131698 -0.51707584
0.34012637 0.22272351 -0.46286404 0.40167442 0.25001687 0.3204721 0.3247072 0.39651692
-0.73463154 0.09474215 0.29955187 0.26805934 0.12471297 0.38181537 0.43119556 -0.48053372
-0.43581298 0.22987741 0.40168086 -0.53922975 0.24127693 0.375706 0.24425247 0.42245084
0.116082616 -0.27902597 0.29719862 -0.19825912 0.21312776 -0.45683286 0.24593832 0.17707239
0.3105093 0.3032288 0.32446396 -0.38613325 -0.55527085 0.28338543 0.28929844 0.2576622
-0.2672842 -0.68617016 0.29320717 0.39629665 -0.14771666 0.32176682 0.35549772 0.28194743
-0.2941049 0.3669113 0.4621742 -0.07530618 0.23937224 0.2483292 0.36355817 0.32923478
-0.24884087 0.29872572 0.33110514 -0.5385233 0.2692258 0.25049928 0.38483894 -0.18373074
0.23039621 0.43990716 0.37934342 -0.5540174 0.08096144 0.27116066 -0.37372875 0.35436562
-0.3953644 0.33044848 0.33357242 0.25140432 -0.11076428 0.3488973 0.008436812 -0.21170595
-0.7008692 0.43628225 -0.6873819 0.13519956 -0.45525032 0.031157035 0.29882264 0.29764476
0.25878775 0.4490316 -0.30065644 0.347445 0.22141352 0.20439781 0.3322803 -0.29824784
0.41190964 0.13970372 0.41036156 0.36426416 -0.46497244 0.22592732 0.35815307 0.2561046
-0.35684583 -0.4646061 0.40468 0.20903757 0.35534227 -0.5128471 0.4275561 0.28268385
0.31180924 0.3293767 0.37504825 0.32632503 -0.5969103 0.17988896 -0.4480057 -0.3552855
0.30400696 0.2595085 0.2632543 0.2525792 0.27908292 0.3737663 0.2917827 -0.46127495
0.32469764 0.35177532 -0.25670356 0.6439637 0.16185641 0.31387988 0.31224847 0.35901773
0.1657251 0.14370488 0.32101232 0.3536801 -0.49799088 0.32543802 0.38787648 -0.3712773
-0.46243834 0.3526527 0.33860102 -0.2244138 -0.56955576 0.39626947 0.18919572 0.38965535
0.03303567 -0.10733258 0.28359273 -0.40189233 -0.5044016 -0.3589913 -0.6291385 0.24758407
0.43932295 0.27100083 0.31287247 -0.401555 -0.7037612 0.24103689 0.27149805 0.31722778
-0.40146664 -0.25208145 0.3631267 0.40488735 0.0075082337 0.26691613 0.37213758 0.4292016
-0.32086897 0.2789643 0.5598452 -0.34459016 0.27434814 0.32785589 0.34695965 0.362673
-0.2719641 0.29329595 0.33081183 -0.27082917 0.29892305 0.29294762 0.39317235 -0.508045
0.28405863 0.43125808 -0.6768559 -0.49665523 0.14167297 0.36122897 0.40493417 0.45469105
0.3903067 0.46997136 0.3637977 0.31587014 0.08898485 0.38777053 0.29088092 -0.26096725
0.07724227 0.32313094 0.074865356 -0.15868582 -0.33424398 -0.010209634 0.31416366 0.39119458
0.31054974 0.37602207 -0.5058588 0.3546487 0.23907125 0.27639824 0.3091 -0.30195406
0.35255423 -0.504614 0.4348751 0.35660645 -0.54813874 0.2937444 -0.302636 0.26253676
0.35201547 0.0544566 0.3622951 -0.060760323 0.4161551 0.100570425 0.30094364 -0.38197145
00000000: 9f6e a93e 29bf 833e 8c4a ca3e 7faa 7e3e
00000010: c629 b13e 1d14 583e 74bb 41be 5466 37be
00000020: f770 993e 131f c23e c8da 903e 235e 863e
00000030: 7447 923e 08c2 d13e 3846 9a3e 155f 04bf
00000040: 0b25 ae3e a211 643e 84fc ecbe 45a8 cd3e
00000050: 3602 803e eb14 a43e 0640 a63e 4404 cb3e
00000060: d010 3cbf 2c08 c23d dd5e 993e 133f 893e
00000070: 8369 ff3d 4e7d c33e aac5 dc3e 8408 f6be
00000080: e122 dfbe fc64 6b3e 1da9 cd3e f60a 0abf
00000090: 4d11 773e 895c c03e 521d 7a3e 7a4b d83e
000000a0: b9bc ed3d 7edc 8ebe 6b2a 983e 7004 4bbe
000000b0: 2a3e 5a3e ffe5 e9be 41d7 7b3e 7752 353e
000000c0: 13fb 9e3e ce40 9b3e 2420 a63e 42b3 c5be
000000d0: 3b26 0ebf e517 913e ed1e 943e 4dec 833e
000000e0: 7ad9 88be d9a8 2fbf 401f 963e 65e7 ca3e
000000f0: 0943 17be 9fbe a43e cc03 b63e 6a5b 903e
00000100: eb94 96be ccdb bb3e 19a2 ec3e 203a 9abd
00000110: ff1d 753e 034a 7e3e 4c24 ba3e 7691 a83e
00000120: 24d0 7ebe 94f2 983e 9d86 a93e aadc 09bf
00000130: f7d7 893e 7141 803e 9c09 c53e e923 3cbe
00000140: fcec 6b3e 833b e13e 4d39 c23e 16d4 0dbf
00000150: 1dcf a53d 92d5 8a3e 6059 bfbe 696f b53e
00000160: 346d cabe 8b30 a93e 01ca aa3e 11b8 803e
00000170: 62d8 e2bd aba2 b23e 8e3a 0a3c 72c9 58be
00000180: 2a6c 33bf 6360 df3e 43f8 2fbf c171 0a3e
00000190: 9216 e9be 0a3d ff3c 48ff 983e e564 983e
000001a0: d47f 843e 78e7 e53e a4ef 99be 50e4 b13e
000001b0: 3aba 623e a94d 513e a520 aa3e f1b3 98be
000001c0: d2e5 d23e 7e0e 0f3e e91a d23e d580 ba3e
000001d0: de10 eebe 7e59 673e d75f b73e 2420 833e
000001e0: 7fb4 b6be dae0 edbe 3832 cf3e f20d 563e
000001f0: 6cef b53e f349 03bf a2e8 da3e f0bb 903e
00000200: 76a5 9f3e 10a4 a83e 5306 c03e 1314 a73e
00000210: 1dcf 18bf d034 383e 0161 e5be fbe7 b5be
00000220: cda6 9b3e 4cde 843e 45c9 863e 1052 813e
00000230: f5e3 8e3e 4c5e bf3e 8b64 953e 3b2c ecbe
00000240: c53e a63e e51b b43e a66e 83be ceda 243f
00000250: b0bd 253e ddb4 a03e 08df 9f3e 2cd1 b73e
00000260: d7b3 293e 5f27 133e ba5b a43e 8f15 b53e
00000270: a9f8 febe d09f a63e bf97 c63e 0f18 bebe
00000280: b8c4 ecbe e58e b43e 1d5d ad3e bbcc 65be
00000290: 68ce 11bf d5e3 ca3e 86bc 413e e880 c73e
000002a0: 6950 073d 2fd1 dbbd 1133 913e d5c4 cdbe
000002b0: 7720 01bf b5cd b7be 390f 21bf ae86 7d3e
000002c0: f0ee e03e 9fc0 8a3e d230 a03e 9e98 cdbe
000002d0: b229 34bf 60d2 763e cb01 8b3e ae6b a23e
000002e0: 098d cdbe d210 81be beeb b93e 654d cf3e
000002f0: a107 f63b 3ba9 883e d188 be3e 50c0 db3e
00000300: f048 a4be 69d4 8e3e 0452 0f3f 1f6e b0be
00000310: 5c77 8c3e badc a73e b2a4 b13e 47b0 b93e
00000320: e13e 8bbe e32a 963e 2b60 a93e 1faa 8abe
00000330: 710c 993e 3bfd 953e e34d c93e 3d0f 02bf
00000340: 2270 913e dccd dc3e 6e46 2dbf 9849 febe
00000350: b812 113e 01f3 b83e 8853 cf3e 44cd e83e
00000360: 48d6 c73e 16a0 f03e b143 ba3e bbb9 a13e
00000370: b03d b63d dc89 c63e 58ee 943e 809d 85be
00000380: 3231 9e3d 6b71 a53e 0253 993d 897e 22be
00000390: 0722 abbe 4f46 27bc 0fda a03e a84a c83e
000003a0: 6000 9f3e f785 c03e f67f 01bf 8494 b53e
000003b0: 18cf 743e 1284 8d3e 5b42 9e3e b999 9abe
000003c0: fd81 b43e 622e 01bf f3a7 de3e 1f95 b63e
000003d0: d252 0cbf aa65 963e 1bf3 9abe 386b 863e
000003e0: 5f3b b43e e20d 5f3d be7e b93e d1df 78bd
000003f0: 4812 d53e def7 cd3d 4915 9a3e c391 c3be

network.6.bias f4 [5]
0.9355961 1.5645139 0.9892048 1.488279 0.8160178
00000000: 3a83 6f3f fe41 c83f 873c 7d3f ed7f be3f
00000010: 8be6 503f
