教学演示项目/项目1_强化学习智能体训练/results/results/model_episode_1400.pth (torch, 746325 bytes, 24 tensors)

network.0.weight f4 [128, 16]
0	0x3d895c64	0.06707075
1	0x3cec090e	0.028812911
2	0xbda745b3	-0.08167591
3	0x3e243825	0.16037042
4	0xbe908cc2	-0.2823239
5	0xbe833170	-0.25623655
6	0x3e75faca	0.2402145
7	0xbcebf78d	-0.028804565
8	0x3eb314ed	0.34976903
9	0x3c398447	0.011323041
10	0xbc403250	-0.011730745
11	0xbd9a0bd1	-0.07521785
12	0xbd8e4286	-0.06946282
13	0x3dc6c1ce	0.09704934
14	0xbcd587b2	-0.026065681
15	0xbd875929	-0.06608803
16	0x3e4c21d8	0.19934785
17	0x3e1756b1	0.14779164
18	0xbe392a9c	-0.1808266
19	0x3db77b96	0.08959119
20	0xbe9420e1	-0.28931335
21	0x3e85ae08	0.26109338
22	0xbd82d794	-0.063887745
23	0x3e19a3c5	0.1500388
24	0x3f3d3270	0.73905087
25	0x3c0f9f1d	0.008765963
26	0xbdc7c926	-0.09755163
27	0xbe1b9977	-0.15195261
28	0x3d273ed9	0.04083142
29	0xbd5089dd	-0.050912727
30	0xbe07fb10	-0.13279366
31	0xbded2d2d	-0.11580882
32	0x3db20160	0.086916685
33	0x3e897ed8	0.26854587
34	0xbd7376b2	-0.05943937
35	0x3e1e5752	0.15462998
36	0xbeeac3a0	-0.45852375
37	0x3eaad91e	0.33368772
38	0xbd1e4f99	-0.03865013
39	0xbd3f6834	-0.046730235
40	0x3c117a3a	0.008879239
41	0xbd148c40	-0.036266565
42	0x3dfd0624	0.12354687
43	0xbe3219f9	-0.1739272
44	0x3df8bb9c	0.12145159
45	0x3e09d989	0.1346189
46	0xbd187858	-0.037224144
47	0xbc2700b5	-0.01019304
48	0xbe9c4f54	-0.30529273
49	0xbe22045d	-0.15821977
50	0x3b88e861	0.0041780923
51	0xbdabe109	-0.083925314
52	0xbe060f9a	-0.13091889
53	0x3d18743d	0.03722023
54	0xbe5ec0a1	-0.2175317
55	0xbdb46911	-0.08809102
56	0x3e3ecc2d	0.18632574
57	0x3d691e56	0.056913696
58	0xbdb85d8c	-0.09002218
59	0xbe1e6981	-0.15469934
60	0x3eeca8f5	0.46222654
61	0xbcb7547e	-0.022379156
62	0xbdc5adba	-0.09652276
63	0x3bceb8ab	0.006308635
64	0x3df701b2	0.1206087
65	0xbe90c7c3	-0.28277406
66	0x3e027e69	0.12743534
67	0x3dd037aa	0.10166867
68	0xbed00a1a	-0.40632707
69	0x3e50e5d1	0.20400168
70	0xbc88696a	-0.016651828
71	0xbdeeb031	-0.116546996
72	0xbeb9917a	-0.36243802
73	0x3dcf91fa	0.10135265
74	0xbcbc2b58	-0.022969887
75	0x3d2cfead	0.042235065
76	0x3e9597de	0.29217428
77	0xbc2a14a4	-0.010380898
78	0xbe8735a9	-0.26408127
79	0x3e9bbc28	0.3041699
80	0x3e41c357	0.18922172
81	0x3dc3eb78	0.095663965
82	0x3dc11dc1	0.09429503
83	0xba714f23	-0.00092052127
84	0x3d4ceee5	0.050032515
85	0x3f0a27d2	0.5396701
86	0xbdb38f3d	-0.08767555
87	0x3d089ded	0.033353735
88	0x3e40143c	0.18757719
89	0xbe355d8d	-0.17711468
90	0x3eb668c3	0.35626802
91	0x3e4ae471	0.19813706
92	0x3dfa8c2f	0.12233769
93	0x3e05db58	0.13071954
94	0xbdc2d436	-0.09513132
95	0xbdaad8e8	-0.08342153
96	0x3e6d206f	0.23156904
97	0x3d511234	0.05104275
98	0x3d5aee0a	0.053449668
99	0xbde14ee8	-0.11001378
100	0xbcbaea9c	-0.022816949
101	0x3f163306	0.58671606
102	0x3e414b60	0.1887641
103	0x3db6b5b6	0.08921377
104	0xbd5136db	-0.051077705
105	0x3e6d2343	0.23157983
106	0xbe19384d	-0.14962883
107	0xbe15544a	-0.14582935
108	0x3ea7798e	0.32709926
109	0xbd7cc525	-0.06171145
110	0x3d825fc7	0.06365924
111	0x3e8c2f57	0.27379867
112	0xbf2eb7c0	-0.6824913
113	0xbf151f75	-0.58251125
114	0xbe22b540	-0.15889454
115	0xbe94fff3	-0.29101524
116	0x3cc1c2a5	0.023652384
117	0xbed14254	-0.40870917
118	0xbeb324e5	-0.34989086
119	0x3d30f7bc	0.043205008
120	0xbe586c0c	-0.21134967
121	0xbd8ecd32	-0.06972732
122	0xbe805155	-0.2506205
123	0x3d844f9c	0.06460497
124	0xbebcc1b4	-0.36866534
125	0xbe28eadb	-0.1649584
126	0xbed4c4a6	-0.4155628
127	0x3cd1d55d	0.025614435
128	0xbb6834db	-0.0035431895
129	0x3c08579f	0.008321672
130	0xbc3b0e70	-0.011417016
131	0xbe144574	-0.1447962
132	0xbe699392	-0.228102
133	0xbd92f67d	-0.0717592
134	0x3d53b4af	0.051685985
135	0xbcf6e42e	-0.030138101
136	0x3ec337dd	0.38128558
137	0x3e209566	0.15681991
138	0xbe7686d1	-0.24074866
139	0x3daf7493	0.08567157
140	0x3dac7b8d	0.08422003
141	0x3c5d1821	0.013494522
142	0xbf27002c	-0.6523464
143	0xbe2ffcda	-0.17186299
144	0x3d82990c	0.063768476
145	0xbd383b1b	-0.044978242
146	0x3e3e9c26	0.18614253
147	0x3d9c9f7d	0.076476075
148	0xbd664285	-0.05621578
149	0x3e05ee42	0.1307917
150	0xbceb2ec1	-0.028708817
151	0x3de298cb	0.11064299
152	0xbbfad378	-0.0076546036
153	0xbe19765e	-0.1498656
154	0x3e030abb	0.12797062
155	0x3e35b451	0.17744567
156	0x3d66b0e6	0.056321047
157	0x3c6df77e	0.014524339
158	0x3cf42c75	0.029806355
159	0x3c9dd0e6	0.01926465
160	0x3e974f13	0.29552516
161	0x3e76926f	0.24079297
162	0x3d00375b	0.03130279
163	0xbd84e7de	-0.06489538
164	0xbebfcef4	-0.3746258
165	0x3ed1373d	0.40862456
166	0x3b3e075a	0.002899608
167	0xbd9d471a	-0.07679577
168	0x3e0daad3	0.13834696
169	0xbd01d647	-0.03169849
170	0xbc8bcab9	-0.01706444
171	0x3e2da384	0.16956908
172	0x3e1b6e1f	0.15178727
173	0x3d8ab836	0.06773417
174	0xbd34bcee	-0.04412549
175	0x3da05f2e	0.07830654
176	0x3dcb69b2	0.09932269
177	0x3e460d61	0.19341041
178	0xbc26dd67	-0.010184622
179	0xbdd24289	-0.10266597
180	0xbeae091a	-0.3399132
181	0xbdd94308	-0.10608488
182	0x3e717e80	0.23583412
183	0xbd8bdd2f	-0.06829297
184	0x3eca677e	0.39532083
185	0xbcb5e76c	-0.022205077
186	0xbdca8a45	-0.09889654
187	0x3e19bc6a	0.1501328
188	0x3e2df393	0.16987447
189	0x3de07e44	0.10961583
190	0xbd49a655	-0.049230892
191	0x3d184918	0.037179083
192	0xbf56ad0a	-0.83857787
193	0xbf07eec7	-0.5309872
194	0xbe5bf525	-0.21480234
195	0xbe641615	-0.22274049
196	0x3e794bce	0.24345323
197	0xbd1338fd	-0.03594302
198	0xbec25520	-0.3795557
199	0xbc8f8b71	-0.017522546
200	0xbddbaaeb	-0.107259594
201	0x3d0655d1	0.032796685
202	0xbde3a35f	-0.11115145
203	0xbd0081cc	-0.031373784
204	0xbece4327	-0.40285608
205	0xbd44e91a	-0.048073865
206	0xbea5e1be	-0.3239879
207	0xbe22b55f	-0.158895
208	0x3e9964e8	0.29959798
209	0x3dae5117	0.085115604
210	0x3d1ffef4	0.0390615
211	0x3e75df42	0.24010947
212	0xbeafe2c4	-0.34352696
213	0xbe2c7226	-0.16840419
214	0x3d3311cc	0.043718144
215	0xbc5db5b0	-0.013532087
216	0x3d6b861f	0.057500955
217	0xbcf469ab	-0.029835543
218	0x3e106aad	0.14103194
219	0x3d311b6b	0.04323904
220	0x3d839bb2	0.06426181
221	0x3d71045e	0.058842055
222	0x3e77cf4b	0.2420017
223	0xbb9e9ef5	-0.0048407265
224	0xbf47c46b	-0.78034085
225	0xbf1047dc	-0.5635965
226	0xbe9a7c28	-0.3017285
227	0xbe57a00a	-0.21057144
228	0x3e33e7a1	0.17568828
229	0xbdb03797	-0.08604353
230	0xbe47ab4e	-0.19498941
231	0x3d4cf641	0.050039534
232	0xbde17b54	-0.11009851
233	0xbd35c87b	-0.044380646
234	0xbe340e61	-0.1758361
235	0x3e0fc359	0.14039363
236	0xbe98c8dc	-0.29840744
237	0xbe08c7c7	-0.13357459
238	0xbe914ee5	-0.28380504
239	0x3dc57b27	0.0964263
240	0x3d862ddc	0.06551716
241	0xbe396bae	-0.18107483
242	0xbc8138d2	-0.015774164
243	0x3c98d819	0.01865773
244	0xbdafdda0	-0.085871935
245	0xbe1d9a43	-0.15390877
246	0xbe06d987	-0.13168918
247	0x3dc1081c	0.09425375
248	0xbd900b32	-0.07033385
249	0xbc97667b	-0.018481484
250	0x3d7d77c7	0.061881807
251	0x3e09fbb1	0.13474919
252	0x3dd7f07b	0.10543915
253	0x3dbb2895	0.091386
254	0x3e3d4e64	0.18486935
255	0x3d19a848	0.037514

network.0.bias f4 [128]
0	0x3d22b684	0.03972484
1	0x3bee4b61	0.0072721695
2	0x3ce90bda	0.028448034
3	0xbe28d953	-0.16489153
4	0xbd46397c	-0.048394665
5	0x3de5e5fd	0.112255074
6	0x3d8d0d6e	0.06887327
7	0xbe7f951f	-0.24959229
8	0xbd10160c	-0.035177276
9	0x3df6aa64	0.12044218
10	0x3d4116c0	0.047140837
11	0x3d3dc420	0.046329618
12	0xbe4f5ce5	-0.2025028
13	0x3d55a6bf	0.052160975
14	0xbe58ad2f	-0.21159814
15	0x00000000	0.0
16	0xbccbfa32	-0.024899576
17	0xbe4029a5	-0.18765886
18	0xbcfd805b	-0.030944994
19	0x3d54bcca	0.051937856
20	0x3dbbd62f	0.09171712
21	0xbc523e32	-0.012832211
22	0x3a60036a	0.00085454306
23	0x3da9f361	0.08298374
24	0x3d8d10cf	0.068879716
25	0x3d3676e4	0.044546977
26	0xbdf148ff	-0.11781501
27	0xbe342366	-0.17591628
28	0x3d6a2ab8	0.057169646
29	0x3cf23418	0.029565856
30	0xbc961416	-0.018320125
31	0xbe615dd7	-0.22008453
32	0x00000000	0.0
33	0x3d8d3007	0.06893926
34	0xbe82053d	-0.25394621
35	0xbca3e418	-0.020006225
36	0xbe756d4a	-0.23967472
37	0x3bcd1c3c	0.0062594693
38	0x3bb5733a	0.0055374177
39	0x3cc7b874	0.024379946
40	0x3d55a0cd	0.052155305
41	0xbd20c93e	-0.03925442
42	0xbbe181ce	-0.006881929
43	0x00000000	0.0
44	0x3de23e75	0.11047069
45	0x3e026750	0.12734723
46	0x3d95dccb	0.073175035
47	0xbd4a2798	-0.049354166
48	0xbe6aa22c	-0.22913426
49	0x00000000	0.0
50	0xbe8055a5	-0.25065342
51	0xbe4651f8	-0.19367206
52	0x3e015be4	0.1263271
53	0x3dad5e9d	0.08465312
54	0x3db72bd7	0.08943909
55	0xbe497a26	-0.19675502
56	0x3dc20358	0.09473294
57	0xbb6269bb	-0.0034547884
58	0x3d86ef64	0.06588629
59	0x3da25642	0.079266086
60	0xbdfef181	-0.12448407
61	0x3c708503	0.01468015
62	0xbc0cf9a4	-0.008604441
63	0xbe6939f0	-0.22776008
64	0x3d1c6b2c	0.038188145
65	0x3d336876	0.043800794
66	0x3c484526	0.0122235175
67	0xbe85b167	-0.2611191
68	0x3db9b3ac	0.09067473
69	0xbe84cace	-0.25935978
70	0x00000000	0.0
71	0x3b932998	0.0044910423
72	0x3d88f2ec	0.06686959
73	0xbd5f0bed	-0.054454733
74	0xbe1aa4b6	-0.15101895
75	0xbe079322	-0.1323972
76	0x3d1d4edc	0.038405284
77	0xbb6f3407	-0.0036499517
78	0xbd2ddd54	-0.042447403
79	0x00000000	0.0
80	0x3da7d5ff	0.081951134
81	0x3e172880	0.14761543
82	0xbdb28fd2	-0.08718838
83	0x3d5d6f2c	0.0540611
84	0x3d37cd85	0.044873733
85	0xbe125da0	-0.14293528
86	0x3dbe8cec	0.093042225
87	0xbbeb3f2e	-0.0071791625
88	0x3d431187	0.047624137
89	0xbbe393be	-0.0069451025
90	0x3d92872a	0.07154687
91	0x3d3d065c	0.046148643
92	0x00000000	0.0
93	0xbd71989b	-0.058983427
94	0x3ce24df0	0.027625054
95	0xbd264e70	-0.040602148
96	0xbcc85684	-0.024455316
97	0x3d757c24	0.059932843
98	0x3b1f9e8f	0.0024355983
99	0xbe3e9329	-0.18610825
100	0xbd7248e1	-0.059151534
101	0x3ddf00a3	0.10888793
102	0x3c1af84e	0.0094586145
103	0xbdc663fe	-0.09687041
104	0xbdaf881c	-0.08570883
105	0x3d0cb494	0.0343519
106	0x3d25d348	0.040484697
107	0xbe554f55	-0.20831044
108	0x3ca33b2f	0.019925682
109	0x3cdcb58c	0.026942037
110	0xbb8a3c67	-0.0042186263
111	0x3cdbc175	0.026825646
112	0xbe138811	-0.14407374
113	0xbe74333e	-0.23847672
114	0xbe467f90	-0.19384599
115	0x3db3aa67	0.08772736
116	0xbca90833	-0.020633793
117	0x3d8410b6	0.064485
118	0x3d9315b5	0.07181875
119	0x3dde3bd9	0.10851259
120	0x3da11bae	0.078666076
121	0xbcf1255b	-0.029436758
122	0x3d0c4d1a	0.034253217
123	0x3cb6939d	0.022287184
124	0x3d8cde75	0.06878368
125	0xbe164398	-0.14674222
126	0xbe2ae316	-0.16688189
127	0x3d7cb647	0.06169727

network.3.weight f4 [128, 128]
0	0x3d52a2f2	0.051424928
1	0xbd82e977	-0.06392186
2	0x3de94aa4	0.1139119
3	0x3d9f6116	0.077821895
4	0x3c2eccb9	0.010668927
5	0x3d9fca72	0.07802285
6	0x3e2a413a	0.16626444
7	0xbeeb0220	-0.4590006
8	0xbdbeee87	-0.09322839
9	0xbc1e3afb	-0.009657617
10	0xbe0fcb8a	-0.14042488
11	0x3da2d4e1	0.0795076
12	0xbeac89c7	-0.33698866
13	0x3d6a04d5	0.057133514
14	0xbeaa9355	-0.3331553
15	0xbdb3864b	-0.08765849
16	0x3b842ea5	0.004033881
17	0xbf155ad3	-0.5834171
18	0xbe0dd4c6	-0.13850698
19	0x3c73ccfc	0.014880415
20	0x3dbd710b	0.09250077
21	0x3d8342a8	0.06409198
22	0xbb2ed149	-0.0026675037
23	0x3e26ef39	0.16302194
24	0x3ddbf87b	0.10740753
25	0x3d09f99c	0.03368531
26	0x3dc0bbbf	0.0941081
27	0xbe8bf989	-0.27338818
28	0xbd48115e	-0.048844688
29	0x3dd9690e	0.10615741
30	0xbe268502	-0.16261676
31	0xbe220e0f	-0.15825675
32	0x3c3e8e96	0.011630675
33	0x3ddd27f8	0.10798639
34	0xbf0cc7db	-0.54992455
35	0x3e065d4a	0.13121524
36	0xbf2a897f	-0.6661605
37	0x3e2b2ab2	0.16715506
38	0x3d62fd33	0.05541725
39	0xbe38913f	-0.18024157
40	0xbc9d5630	-0.019206136
41	0xbcd3de95	-0.025862971
42	0x3e16d502	0.14729694
43	0x3d681b35	0.05666657
44	0x3e786c1f	0.24259995
45	0x3c6c2949	0.01441414
46	0x3e0cc4d3	0.13746957
47	0x3e7065cf	0.23476337
48	0xbf798428	-0.9746728
49	0x3d0f6a6d	0.035013605
50	0xbf36a086	-0.7133869
51	0xbed2f35c	-0.41201293
52	0xbda40dc0	-0.08010435
53	0xbbfe01a4	-0.0077516604
54	0xbe1f7892	-0.15573338
55	0x3cdb585a	0.026775528
56	0x3df145ea	0.11780913
57	0xbe1aa0fe	-0.15100476
58	0xbdcff561	-0.10154224
59	0x3e255d23	0.1614881
60	0x3ceb43bf	0.028718827
61	0x3da3a328	0.07990104
62	0xbd2fa3f5	-0.04288097
63	0xbf1f2e1f	-0.6217975
64	0xbd2a1687	-0.04152539
65	0x3d0d08f8	0.03443238
66	0xbe00d7d7	-0.12582336
67	0xbf4c36bc	-0.7977102
68	0x3d766645	0.060156126
69	0xbf007553	-0.5017902
70	0xbd187293	-0.03721864
71	0xbd5639d5	-0.052301247
72	0x3d9ab0ba	0.07553239
73	0x3d90346c	0.07041249
74	0xbdc3f275	-0.095677294
75	0xbdc03851	-0.093857415
76	0xbdc4f3ab	-0.096167885
77	0x3c6fac1c	0.014628436
78	0x3d2caaee	0.0421552
79	0xbdad9f24	-0.08477619
80	0x3d58d147	0.052933957
81	0x3db4c07d	0.08825777
82	0x3e09bd5c	0.13451141
83	0x3e69194a	0.22763553
84	0xbd22e70a	-0.039771117
85	0xbdaa8dbc	-0.08327815
86	0x3baa8120	0.005203381
87	0xbda5b0f9	-0.080903955
88	0xb65eb038	-3.318315e-06
89	0x3e23cedc	0.1599688
90	0x3d180a51	0.037119213
91	0x3e20709a	0.15667954
92	0x3abc5c0b	0.0014370693
93	0x3e3a5605	0.18196876
94	0xbd85b18d	-0.06528006
95	0x3e03b07d	0.12860294
96	0x3dc3ddf1	0.09563816
97	0x3e95bec9	0.2924712
98	0x3e4606c8	0.19338524
99	0xbf1f435a	-0.62212145
100	0x3e282d38	0.164235
101	0x3e1e6c97	0.15471111
102	0xbe1ba52d	-0.15199728
103	0x3c6d1c3f	0.014472066
104	0x3d1a2978	0.037637204
105	0x3e37e837	0.17959677
106	0x3d65be12	0.05608947
107	0xbe2a7789	-0.16647162
108	0xbd05685c	-0.032570228
109	0x3ba159f4	0.0049240533
110	0x3df1ea01	0.11812211
111	0x3d101bf0	0.035182893
112	0xbd698fd1	-0.05702192
113	0xbe6eb27f	-0.23310278
114	0xbd984dd1	-0.07436717
115	0x3e05ebdc	0.13078254
116	0x3dff5fd0	0.12469447
117	0x3e4dbb64	0.20091015
118	0x3e1f54d4	0.15559703
119	0xbc89c928	-0.016819552
120	0x3e7f0d41	0.249074
121	0x3ac43a02	0.0014970901
122	0x3d84f8b6	0.0649275
123	0x3bcc2d12	0.0062309587
124	0xb8b7c02a	-8.761913e-05
125	0x3d0b81f8	0.034059495
126	0x3c8a04bc	0.01684796
127	0x3d9a90f9	0.075471826
128	0x3c52dc46	0.0128699
129	0x3b7307fc	0.0037083616
130	0x3e40d346	0.18830594
131	0x3e30101b	0.17193644
132	0x3d82301b	0.06356832
133	0xbd586cb0	-0.052838027
134	0x3d4a4b45	0.04938819
135	0xbeb9c423	-0.36282453
136	0xbdc0f2fc	-0.094213456
137	0x3e4fdc51	0.20298888
138	0x3d3ccd71	0.04609436
139	0xbe3e101a	-0.1856083
140	0xbed6be77	-0.41942188
141	0x3d8a9c55	0.06768099
142	0xbea24121	-0.31690314
143	0xbb600150	-0.003418047
144	0x3d492d8d	0.049115706
145	0xbf32d5bf	-0.698574
146	0x3d4c9cbc	0.04995416
147	0x3d17c469	0.037052546
148	0x3c9e1f06	0.019301903
149	0x3cf34312	0.029695068
150	0x3d753eb3	0.059874248
151	0x3e3f7612	0.18697384
152	0xbd98a524	-0.07453373
153	0xbd04ce37	-0.032423224
154	0x3e837360	0.25673962
155	0xbe8ec0a5	-0.2788135
156	0x3ce8fd69	0.028441148
157	0x3df38927	0.11891394
158	0x3d385b18	0.04500875
159	0x3d1f7984	0.038934246
160	0x3dffc040	0.12487841
161	0x3d0c736a	0.034289755
162	0xbeb270a7	-0.34851572
163	0xbda35d08	-0.07976729
164	0xbf21935f	-0.63115495
165	0x3e2ab539	0.16670693
166	0x3bd15102	0.0063878307
167	0x3cc18bee	0.023626294
168	0xbe038388	-0.12843144
169	0x3d5d722f	0.054063972
170	0x3e20fe55	0.1572202
171	0xbe0e9a84	-0.1392613
172	0xbd598118	-0.05310163
173	0x3ddfd15e	0.109286055
174	0xbdd4567c	-0.10368058
175	0x3d9b06c5	0.075696506
176	0xbf2a186f	-0.6644353
177	0x3dcffe2d	0.10155902
178	0xbf2ef8ab	-0.6834819
179	0xbf0f2c33	-0.5592682
180	0x3e83504b	0.25647196
181	0x3e3f41b9	0.18677415
182	0xbe12cdc1	-0.14336301
183	0xbe73d56b	-0.23811881
184	0x3dc38252	0.09546341
185	0x3e0d5fb7	0.13806044
186	0xbdf1c662	-0.11805417
187	0x3e0115a9	0.12605919
188	0xbe5288af	-0.20559953
189	0x3e173e02	0.14769748
190	0x3e1c693d	0.1527452
191	0xbf0cbb66	-0.5497345
192	0x3d08c72c	0.03339307
193	0xbe400b6a	-0.18754354
194	0x3ccd4f1b	0.025062134
195	0xbf13c626	-0.57724226
196	0x3cf4315f	0.029808698
197	0xbed15b4c	-0.40889966
198	0xbd5b1089	-0.053482566
199	0xbdd99f59	-0.10626096
200	0x3e638643	0.22219186
201	0x3db81bf9	0.0898971
202	0xbd6eba5c	-0.058283195
203	0xbde3590f	-0.11100971
204	0xbd598804	-0.05310823
205	0xbd4e728a	-0.0504022
206	0x3e12a2e5	0.14319952
207	0xbd121224	-0.03566183
208	0xbbbc3df5	-0.0057446905
209	0xbde625b3	-0.11237659
210	0x3df19cbc	0.11797473
211	0x3de867b6	0.11347906
212	0x3de04621	0.10950876
213	0x3d021176	0.031754933
214	0x3dd6da8c	0.10490903
215	0xbc3a1bc0	-0.011359155
216	0x3e3abf4a	0.18237033
217	0x3e3c9202	0.18415073
218	0xbd73c3f6	-0.059513055
219	0x3e39d431	0.18147351
220	0xbdd0b500	-0.10190773
221	0x3d8750e6	0.06607227
222	0xbd1a1e57	-0.03762659
223	0xbd96450a	-0.07337387
224	0xbd8c70fd	-0.06857488
225	0x3d50ddf8	0.050992936
226	0x3dad6df3	0.08468237
227	0xbf1e4e34	-0.6183808
228	0x3e090341	0.13380148
229	0x3e242d9e	0.16033027
230	0xbde6e6b1	-0.1127447
231	0xbe049d87	-0.12950717
232	0x3deb9c93	0.115044735
233	0x3b0000e8	0.001953179
234	0x3bc90a4c	0.0061352607
235	0xbe0d98e4	-0.13827854
236	0xbd28515e	-0.041093223
237	0x3dc66b9b	0.09688493
238	0x3df63a8c	0.12022886
239	0x3e1293c8	0.14314187
240	0xbe8fb45d	-0.28067294
241	0xbea035f2	-0.31291157
242	0xbebe23e3	-0.37136754
243	0xbd0561eb	-0.032564085
244	0x3cbb2e39	0.02284919
245	0xbdf267a0	-0.11836171
246	0x3dabdf8a	0.08392246
247	0x3d92b46f	0.07163321
248	0x3e7402dd	0.23829217
249	0x3e234aca	0.15946499
250	0x3e3d5bca	0.18492046
251	0x3d8a3afe	0.06749533
252	0x3e34ba27	0.17649136
253	0xbe19c54d	-0.1501667
254	0x3dd7d12b	0.105379425
255	0x3dbc5d30	0.091974616

network.3.bias f4 [128]
0	0x3fe30880	1.7736969
1	0x3fcfa14d	1.62211
2	0x3fcc9609	1.5983287
3	0x3fdace43	1.7094196
4	0x3e4db0f1	0.20087029
5	0x3fa1bacc	1.2635131
6	0x3dbfec8a	0.09371288
7	0x3e74464a	0.23854938
8	0x3fcff490	1.624651
9	0x3f6580f8	0.89649916
10	0x3fc71e21	1.555607
11	0x3fcc0007	1.5937508
12	0x3fd4f456	1.6637065
13	0x3fcd242d	1.6026665
14	0x3fcc54bc	1.5963359
15	0x3e872a8d	0.2639965
16	0x3fde26bf	1.7355574
17	0x3e17dc8a	0.14830223
18	0x3dfd00ff	0.123537056
19	0x3fe364df	1.7765158
20	0x3f00b37f	0.5027389
21	0x3fd48549	1.6603175
22	0x3fe2b47b	1.7711328
23	0x3fb6a505	1.426911
24	0x3e88cd41	0.26719096
25	0xbd8f96d7	-0.07011192
26	0x3fd52fe2	1.6655238
27	0x3fd506fe	1.6642759
28	0x3e149141	0.14508535
29	0x3fd31bd7	1.6492871
30	0x3fdad1b0	1.7095242
31	0x3e72983d	0.23690887
32	0x3e2dd48e	0.16975614
33	0x3fc87b36	1.5662601
34	0x3fcd1283	1.6021274
35	0x3e1d29e9	0.15348019
36	0x3d1dd13b	0.038529616
37	0x3fcfd9c5	1.6238333
38	0x3fa9b0eb	1.3257116
39	0x3fca8810	1.5822773
40	0x3e3ce67c	0.18447298
41	0x3eade063	0.33960256
42	0x3fc32491	1.5245534
43	0x3e8bc9af	0.2730231
44	0x3d3a2294	0.045443133
45	0x3dc18ff5	0.09451286
46	0x3e29df0e	0.16588995
47	0x3fad3ad1	1.3533574
48	0x3fce09bd	1.6096722
49	0x3fbf94a0	1.4967232
50	0x3fd82d5b	1.6888841
51	0x3e30dbfa	0.17271414
52	0x3e62942b	0.22126834
53	0x3fa5996e	1.2937448
54	0x3fd93312	1.696871
55	0x3fd20478	1.6407614
56	0x3e80757c	0.25089633
57	0x3e3d3758	0.18478143
58	0x3fe75e0a	1.8075573
59	0x3fd278af	1.644308
60	0x3e87f9c1	0.26557735
61	0x3fcf067e	1.6173856
62	0x3fd041e8	1.6270113
63	0x3fc4f97c	1.5388637
64	0x3e10d93e	0.14145371
65	0x3fa75ccd	1.3075196
66	0x3fc80274	1.5625749
67	0x3e845f2a	0.25853854
68	0x3fcced65	1.6009947
69	0x3fb38efa	1.4028008
70	0x3fcf4228	1.6192064
71	0x3fd6ae9d	1.6772038
72	0x3d1cf105	0.03831579
73	0x3fd043e9	1.6270725
74	0x3fcfbb0f	1.6228961
75	0x3dcd22d3	0.10016408
76	0x3fe5b1aa	1.7944844
77	0x3fcfd1d2	1.6235907
78	0x3fcf1aa9	1.6180011
79	0x3e5a426e	0.21314403
80	0x3fb3eb26	1.4056137
81	0x3fd06ca6	1.6283157
82	0x3d128930	0.035775363
83	0x3da4a28c	0.08038816
84	0x3ef79d64	0.48362267
85	0x3fb761c3	1.432671
86	0x3e7819ea	0.24228635
87	0x3fd5ae0d	1.6693741
88	0x3ea6df9f	0.32592484
89	0x3fcd93f9	1.6060783
90	0x3fd6ede6	1.6791351
91	0x3fcd9fcb	1.606439
92	0x3f18de84	0.5971453
93	0x3fd007c5	1.6252371
94	0x3f9104fa	1.1329644
95	0xbf0769a2	-0.5289556
96	0x3e86004a	0.26172096
97	0x3fc8febd	1.570274
98	0x3ead7c5b	0.33883938
99	0xbdd51037	-0.10403483
100	0x3e6740fb	0.22583382
101	0xbd74223f	-0.059602972
102	0x3fc9c4ed	1.5763222
103	0x3fcc5e74	1.5966325
104	0x3fd26a17	1.6438626
105	0x3fd7f2e5	1.6871
106	0x3e479062	0.19488671
107	0x3fd48e63	1.6605953
108	0x3fc9884c	1.574472
109	0x3fc7236d	1.5557686
110	0x3fca4c91	1.5804616
111	0x3ea4cd42	0.3218785
112	0x3fd86dfc	1.6908565
113	0x3e0a8e02	0.13530734
114	0x3fd443f4	1.6583238
115	0x3fd36768	1.6515932
116	0x3e7d577c	0.24740404
117	0x3fbe316d	1.4858834
118	0x3e2f980e	0.17147848
119	0x3fcdfd2e	1.6092889
120	0x3ea82a04	0.32844555
121	0x3e72434e	0.23658487
122	0x3fd02b9b	1.6263307
123	0x3ef0c364	0.4702407
124	0x3fd6e796	1.6789424
125	0x3eb52276	0.35377854
126	0x3fccfcd1	1.6014653
127	0x3e76c2d5	0.2409776

network.6.weight f4 [5, 128]
0	0x3edbd7a1	0.4293795
1	0x3eb89663	0.36052236
2	0x3edd4a7f	0.43220899
3	0x3ecfb232	0.4056564
4	0x3ec98302	0.39357764
5	0x3e87240e	0.26394695
6	0x3bfacc3d	0.0076537416
7	0xbe85145b	-0.25992092
8	0x3ec3fd8a	0.38279372
9	0x3eb25b64	0.3483535
10	0x3eb4f87b	0.35345826
11	0x3ea4832d	0.3213133
12	0x3ea865b1	0.32890084
13	0x3ef2b398	0.47402644
14	0x3eda5058	0.42639422
15	0xbf2abea4	-0.66697145
16	0x3eddd683	0.43327722
17	0x3ec75986	0.38935488
18	0xbf5bbf73	-0.85839003
19	0x3f1538c3	0.58289737
20	0x3e9223fb	0.28543076
21	0x3eb79c31	0.35861352
22	0x3ed0c138	0.40772414
23	0x3ecf4830	0.40484762
24	0xbf72bd24	-0.94819856
25	0x3dc2082c	0.09474215
26	0x3ed1ebff	0.41000363
27	0x3ec363c9	0.38162068
28	0x3e50ac35	0.20378192
29	0x3eea9bf7	0.45822117
30	0x3f0d39bf	0.5516624
31	0xbf216c11	-0.6305552
32	0xbf1f2846	-0.6217083
33	0x3ec2d266	0.38051146
34	0x3edcc7ec	0.43121278
35	0xbf367346	-0.71269643
36	0x3ea8ff4e	0.33007282
37	0x3eed5c68	0.46359563
38	0x3ea95243	0.33070573
39	0x3ee5b41f	0.44863984
40	0x3e3c9d04	0.18419272
41	0xbe8aa647	-0.27079985
42	0x3eb7bc69	0.35885933
43	0xbdc8143f	-0.09769487
44	0x3eb78598	0.3584411
45	0xbf26e18b	-0.651879
46	0x3ef3db98	0.47628474
47	0x3e8e0293	0.2773634
48	0x3eb71a20	0.3576212
49	0x3eaeaa12	0.34114128
50	0x3ec769d0	0.38947916
51	0xbf17e2b3	-0.5933029
52	0xbf257cdb	-0.6464364
53	0x3ea618dd	0.32440844
54	0x3ebf3465	0.3734466
55	0x3ea80132	0.32813412
56	0xbea8c7d7	-0.32964966
57	0xbf5155bc	-0.81771445
58	0x3ebb4d87	0.36582586
59	0x3eddbaeb	0.4330667
60	0xbdcf4a5a	-0.10121603
61	0x3ecdcd6d	0.4019579
62	0x3eeb46ef	0.45952556
63	0x3ec1f02d	0.37878552
64	0xbe57a7e0	-0.21060133
65	0x3ed0b1e0	0.40760708
66	0x3f10ecd4	0.5661137
67	0x3da65e0d	0.081234075
68	0x3ea73766	0.32659453
69	0x3ea09f95	0.3137175
70	0x3eee29e3	0.46516332
71	0x3ed73de4	0.42039406
72	0xbe9266b4	-0.2859398
73	0x3ec65f3a	0.38744527
74	0x3eb9b51c	0.36270988
75	0xbf11a6cb	-0.5689513
76	0x3ec5a83a	0.3860491
77	0x3e96195f	0.29316232
78	0x3ef28022	0.47363383
79	0xbea9af6c	-0.3314165
80	0x3e979da2	0.29612452
81	0x3f0d48a0	0.5518894
82	0x3ed72420	0.4201975
83	0xbf28ecc6	-0.6598629
84	0x3e8164c7	0.252722
85	0x3e8eaf90	0.2786832
86	0xbefb4bba	-0.49081212
87	0x3f042d69	0.5163179
88	0xbf263f08	-0.6493993
89	0x3ec8798c	0.39155233
90	0x3ed99ecc	0.42503965
91	0x3eb522b4	0.3537804
92	0x3e7b9a2d	0.24570532
93	0x3ed54e46	0.4166128
94	0x3e5201f6	0.2050856
95	0xbe3d59df	-0.18491314
96	0xbf7f474b	-0.9971816
97	0x3eeb2dac	0.45933282
98	0xbf862808	-1.0480967
99	0x3e0a5e41	0.13512518
100	0xbf31c566	-0.6944183
101	0x3cff3d0a	0.031157035
102	0x3eb3a233	0.35084686
103	0x3ede88bc	0.43463695
104	0x3ea42634	0.32060397
105	0x3efd41ea	0.4946435
106	0xbec4bbb9	-0.3842447
107	0x3ef5be8e	0.47996944
108	0x3eac8561	0.3369551
109	0x3e983587	0.29728338
110	0x3ec9a319	0.39382246
111	0xbee6d32d	-0.4508299
112	0x3efdcaaa	0.49568683
113	0x3e9358bd	0.2877864
114	0x3f074e75	0.5285409
115	0x3ede347f	0.43399426
116	0xbf3196ae	-0.69370544
117	0x3e9d4e2c	0.30723703
118	0x3eec77ce	0.46185154
119	0x3ea6597c	0.32490146
120	0xbe92e6c2	-0.2869168
121	0xbf0f9fef	-0.56103414
122	0x3f030b82	0.51189435
123	0x3eab7109	0.33484676
124	0x3ef6a317	0.48171303
125	0xbf232509	-0.63728386
126	0x3f03bf3c	0.51463675
127	0x3edab0fb	0.4271315
128	0x3ecb3b89	0.3969386
129	0x3ec3afbb	0.3822001
130	0x3ee59cac	0.44846094
131	0x3ebaa370	0.36452818
132	0xbf2268bd	-0.6344107
133	0x3e9861ba	0.2976206
134	0xbe2ef9a2	-0.17087415
135	0xbef74d21	-0.48301032
136	0x3eb9689c	0.36212623
137	0x3eb4e986	0.35334414
138	0x3ea77b01	0.32711032
139	0x3ea2a751	0.31768277
140	0x3e9f68dd	0.31134692
141	0x3ef531b9	0.47889498
142	0x3ebc7f72	0.36815983
143	0xbf25f527	-0.648272
144	0x3ec81f8d	0.3908657
145	0x3f0b4939	0.54408604
146	0xbe450de8	-0.19243586
147	0x3f2c1f45	0.67235214
148	0x3eac56db	0.33660015
149	0x3ecfde2e	0.40599197
150	0x3ed2bcb2	0.41159588
151	0x3ede049c	0.43362892
152	0x3e4013ed	0.18757601
153	0x3dec6efe	0.115446076
154	0x3ec976c0	0.39348412
155	0x3ee0f44c	0.43936384
156	0xbf194ba8	-0.5988107
157	0x3ecc9d24	0.3996364
158	0x3ef4910e	0.47766918
159	0xbee330bf	-0.44373128
160	0xbf1559e5	-0.58340293
161	0x3ebad2bd	0.36488906
162	0x3ed3e411	0.41384938
163	0xbeba6ef6	-0.3641278
164	0xbf20c9e2	-0.6280805
165	0x3ef781bb	0.48341164
166	0x3eae21a5	0.34010044
167	0x3f004b8c	0.50115275
168	0x3e757922	0.2397199
169	0x3dd50252	0.10400833
170	0x3eb3af0e	0.35094494
171	0xbf113d82	-0.5673448
172	0xbf122d59	-0.57100445
173	0xbef40ed0	-0.4766755
174	0xbf3e1d2e	-0.74263275
175	0x3eaf4e53	0.34239444
176	0x3efadd9c	0.489972
177	0x3eb24652	0.34819275
178	0x3eceef7a	0.4041708
179	0xbedc6e0c	-0.4305271
180	0xbf4f81c6	-0.81057394
181	0x3e95a5e1	0.29228118
182	0x3ecbc94d	0.39802018
183	0x3ebec76d	0.37261525
184	0xbefccc5e	-0.4937467
185	0xbec3ab70	-0.38216734
186	0x3ed1a2f5	0.4094464
187	0x3efc1266	0.49232787
188	0xbe2848a8	-0.16433966
189	0x3ec1f22e	0.3788008
190	0x3ee59d07	0.44846365
191	0x3ee823e2	0.45339876
192	0xbed8983a	-0.4230364
193	0x3ebd0934	0.36921084
194	0x3f1b66dc	0.60703826
195	0xbeeafcb8	-0.45895934
196	0x3ea7a211	0.32740834
197	0x3ec0c64f	0.37651297
198	0x3ef67ad5	0.48140588
199	0x3ee7c76d	0.45269337
200	0xbed91c93	-0.42404613
201	0x3ebb1ed8	0.3654697
202	0x3ed8bbc3	0.4233075
203	0xbeb90df6	-0.36143464
204	0x3eb6e1d5	0.3571917
205	0x3eb440dc	0.35205734
206	0x3ee9d9fd	0.45674124
207	0xbf1c1c27	-0.6098046
208	0x3e93947e	0.28824228
209	0x3f033171	0.51247317
210	0xbf4217d2	-0.75817597
211	0xbf1af7e4	-0.605345
212	0x3e8cc8f6	0.2749707
213	0x3ec07362	0.3758803
214	0x3ecc044a	0.39847022
215	0x3f113735	0.56724864
216	0x3eaffc0e	0.3437199
217	0x3f0ed12f	0.5578794
218	0x3ee79b41	0.45235637
219	0x3ebae19a	0.36500245
220	0x3ed59707	0.41716787
221	0x3ef58ae7	0.47957537
222	0x3ea60b06	0.32430285
223	0xbf006386	-0.5015186
224	0x3e3ed693	0.18636541
225	0x3eea91e5	0.45814434
226	0x3deddcdb	0.116143905
227	0xbe23e02e	-0.16003487
228	0xbeed021d	-0.46290675
229	0xbabe3034	-0.0014510215
230	0x3ea49d56	0.32151288
231	0x3ee2d008	0.4429934
232	0x3eb57aaa	0.35445148
233	0x3efdb0b4	0.49548876
234	0xbf1057d5	-0.5638402
235	0x3ec29a3c	0.38008296
236	0x3e9c2f9a	0.30505067
237	0x3e994f6c	0.29943407
238	0x3ec04085	0.37549224
239	0xbf02fb39	-0.51164585
240	0x3ee6878a	0.45025283
241	0xbf0ac0b2	-0.5420028
242	0x3f04e74a	0.5191542
243	0x3edf4a94	0.43611586
244	0xbf2f8f36	-0.685779
245	0x3ea8b70d	0.32952157
246	0xbeb1d21b	-0.3473061
247	0x3e991948	0.299021
248	0x3eb1e5b1	0.34745553
249	0x3d5df839	0.0541918
250	0x3eeb0ce8	0.45908284
251	0x3e9a9407	0.3019106
252	0x3efd911f	0.4952478
253	0x3e82e0ee	0.25562233
254	0x3edbe0b7	0.4294488
255	0xbebdfb49	-0.37105778

network.6.bias f4 [5]
0	0x3fd2a4fa	1.6456597
1	0x402590c6	2.5869613
2	0x3fd9e9d6	1.7024486
3	0x401f26e7	2.4867494
4	0x3f40d855	0.75330096

network.0.weight f4 [128, 16]
0	0x3d86daa3	0.065846704
1	0x3ccbd56d	0.024882043
2	0xbdaa0ded	-0.083034374
3	0x3e22d405	0.15901192
4	0xbe9000af	-0.28125522
5	0xbe8284ba	-0.25491887
6	0x3e74555b	0.23860686
7	0xbcc69cb0	-0.024244636
8	0x3eb40f12	0.35167748
9	0x3c5022d6	0.012703618
10	0xbc2f6cab	-0.010707061
11	0xbd9a0bd1	-0.07521785
12	0xbd899b4f	-0.06719076
13	0x3dcdf0dd	0.10055707
14	0xbcb26507	-0.02177669
15	0xbd8968eb	-0.06709465
16	0x3e436c0c	0.19084185
17	0x3e0f961c	0.14022106
18	0xbe3f091f	-0.18655823
19	0x3dabbe8b	0.083859526
20	0xbe947a60	-0.28999615
21	0x3e82f913	0.25580654
22	0xbd8ea0de	-0.06964277
23	0x3e16d081	0.14727975
24	0x3f3d3270	0.73905087
25	0x3c50d429	0.012745895
26	0xbdd5f853	-0.10447755
27	0xbe1b9977	-0.15195261
28	0x3d29a5de	0.04141795
29	0xbd41bd79	-0.047299836
30	0xbe051238	-0.12995231
31	0xbdeda18b	-0.116030775
32	0x3dab73d7	0.08371704
33	0x3e8c2ae3	0.2737647
34	0xbd708558	-0.058720917
35	0x3e1f13a9	0.15534844
36	0xbee95e7c	-0.45579898
37	0x3ea8d73a	0.32976705
38	0xbd1aa554	-0.037755325
39	0xbd37e639	-0.04489729
40	0xbb5a1263	-0.003327512
41	0xbcf85033	-0.03031168
42	0x3ddc38f5	0.10753051
43	0xbe3219f9	-0.1739272
44	0x3de05294	0.109532505
45	0x3e09f268	0.13471377
46	0xbd284f0f	-0.04109102
47	0xbb81c99e	-0.003960802
48	0xbe9c4f54	-0.30529273
49	0xbe22045d	-0.15821977
50	0x3b88e861	0.0041780923
51	0xbdabe109	-0.083925314
52	0xbe060f9a	-0.13091889
53	0x3d18743d	0.03722023
54	0xbe5ec0a1	-0.2175317
55	0xbdb46911	-0.08809102
56	0x3e3ecc2d	0.18632574
57	0x3d691e56	0.056913696
58	0xbdb85d8c	-0.09002218
59	0xbe1e6981	-0.15469934
60	0x3eeca8f5	0.46222654
61	0xbcb7547e	-0.022379156
62	0xbdc5adba	-0.09652276
63	0x3bceb8ab	0.006308635
64	0x3df87ecd	0.1213356
65	0xbe8ac8b5	-0.27106252
66	0x3e065fa9	0.13122429
67	0x3dd7fa23	0.10545757
68	0xbecf5139	-0.40491655
69	0x3e4d9437	0.2007607
70	0xbc48810c	-0.012237798
71	0xbdec3133	-0.115328215
72	0xbebc6fe8	-0.36804128
73	0x3ddb1900	0.10698128
74	0xbc9c076d	-0.01904651
75	0x3d2cfead	0.042235065
76	0x3e989603	0.2980195
77	0xbc12479f	-0.008928209
78	0xbe86ef6a	-0.26354533
79	0x3ea055df	0.31315514
80	0x3e45aee4	0.19304997
81	0x3dd7da83	0.10539725
82	0x3dc9ff3b	0.098631345
83	0x3b5fdb40	0.0034157783
84	0x3d52e9ac	0.051492378
85	0x3f0a411e	0.5400561
86	0xbdaa54a0	-0.08316922
87	0x3d0d6eea	0.034529604
88	0x3e4599f4	0.1929701
89	0xbe259f60	-0.16174078
90	0x3eae37dd	0.34026995
91	0x3e4ae471	0.19813706
92	0x3dfce8c3	0.12349083
93	0x3e0b5971	0.13608338
94	0xbdd2c6a0	-0.10291791
95	0xbdb244f8	-0.08704561
96	0x3e68e5e3	0.22743945
97	0x3d7e8f39	0.062148307
98	0x3d5ec3ec	0.054386064
99	0xbddf63f8	-0.109077394
100	0xbcbbb234	-0.022912122
101	0x3f13b47d	0.5769728
102	0x3e430b73	0.19047336
103	0x3dc5922f	0.09647023
104	0xbd5c07ce	-0.05371838
105	0x3e7b0b97	0.2451614
106	0xbe16ec22	-0.14738515
107	0xbe15544a	-0.14582935
108	0x3ea5410a	0.32276183
109	0xbd66e934	-0.056374744
110	0x3d83e1ff	0.0643959
111	0x3e926a14	0.28596556
112	0xbf2de590	-0.6792841
113	0xbf1512c7	-0.58231777
114	0xbe2a3551	-0.16621901
115	0xbe98bff9	-0.29833964
116	0x3c82cce8	0.015966848
117	0xbed4f87f	-0.41595837
118	0xbeb6e59d	-0.35722056
119	0x3d4f16ea	0.050558962
120	0xbe4e74aa	-0.20161691
121	0xbd75dbdc	-0.060024127
122	0xbe783bd6	-0.24241576
123	0x3d844f9c	0.06460497
124	0xbeb8614e	-0.36011738
125	0xbe2169cf	-0.15763019
126	0xbed0e603	-0.40800485
127	0x3d8010f6	0.06253235
128	0xbbf795f8	-0.0075557195
129	0x3bef247a	0.0072980495
130	0xbc730b43	-0.014834228
131	0xbe17c548	-0.1482135
132	0xbe6c1811	-0.23056056
133	0xbd9f35ec	-0.07773957
134	0x3d4642c3	0.048403513
135	0xbccfb00f	-0.025352506
136	0x3ebd8c75	0.37021223
137	0x3e1c053e	0.15236375
138	0xbe7c59ba	-0.24643603
139	0x3daf7493	0.08567157
140	0x3db4fe3a	0.08837552
141	0x3c8e0f08	0.017341152
142	0xbf251125	-0.64479285
143	0xbe344dd0	-0.17607808
144	0x3d6de516	0.0580798
145	0xbd45e614	-0.048315123
146	0x3e3f4fbc	0.1868276
147	0x3d9e06a7	0.077161126
148	0xbd4ec53d	-0.05048107
149	0x3e06a6e4	0.13149601
150	0xbce5e035	-0.028061012
151	0x3dd8b01e	0.10580467
152	0xbc68cce7	-0.014209009
153	0xbe1460f4	-0.1449011
154	0x3e02a403	0.12757878
155	0x3e35b451	0.17744567
156	0x3d7a1695	0.061056692
157	0x3c4f2869	0.012643912
158	0x3ca1577f	0.019695042
159	0x3cbbf69e	0.022944745
160	0x3e987197	0.29774162
161	0x3e7e6791	0.24844195
162	0x3d1ecf0a	0.038771667
163	0xbd6b380c	-0.057426497
164	0xbeb9fb5a	-0.3632458
165	0x3ed2dcda	0.4118412
166	0x3c2b1429	0.010441818
167	0xbdb15098	-0.0865795
168	0x3e0988db	0.13431112
169	0xbce84792	-0.02835444
170	0xbcd710cb	-0.026253125
171	0x3e2da384	0.16956908
172	0x3e0fc65c	0.14040512
173	0x3d72178b	0.059104484
174	0xbd55f1e9	-0.052232657
175	0x3d9d8947	0.07692199
176	0x3dc81100	0.097688675
177	0x3e455ff5	0.19274886
178	0xbc52287e	-0.012827037
179	0xbdd7abee	-0.1053084
180	0xbeafc2e5	-0.3432838
181	0xbddd7a2f	-0.1081432
182	0x3e6ea63b	0.233056
183	0xbd8ac234	-0.067753226
184	0x3ec8b20f	0.39198348
185	0xbcd124d3	-0.025530254
186	0xbdd1f705	-0.10252193
187	0x3e19bc6a	0.1501328
188	0x3e24fb2a	0.16111436
189	0x3de4614a	0.11151369
190	0xbd59035d	-0.052981723
191	0x3d32bc9f	0.043636914
192	0xbf55e066	-0.8354553
193	0xbf073b95	-0.5282529
194	0xbe5d4895	-0.21609719
195	0xbe656985	-0.22403534
196	0x3e77b413	0.24189787
197	0xbd186580	-0.037206173
198	0xbec2ff3f	-0.38085362
199	0xbc84e7dc	-0.01622384
200	0xbdd4c0f4	-0.103883654
201	0x3d142c10	0.036174834
202	0xbddd86eb	-0.10816749
203	0xbd0081cc	-0.031373784
204	0xbecd805f	-0.40137002
205	0xbd39822d	-0.04529016
206	0xbea5393c	-0.3227023
207	0xbe20a404	-0.15687567
208	0x3e999c61	0.3000212
209	0x3db624b1	0.08893717
210	0x3d14b0bf	0.03630137
211	0x3e730bb6	0.23734936
212	0xbeb3d98f	-0.35126922
213	0xbe2f182d	-0.17099066
214	0x3d2700b2	0.040772147
215	0xbc9362c7	-0.017991437
216	0x3d84c568	0.06482965
217	0xbca5f520	-0.020258486
218	0x3e0ad1c4	0.13556582
219	0x3d311b6b	0.04323904
220	0x3d64be85	0.055845756
221	0x3d62f3dd	0.055408347
222	0x3e7a0127	0.24414502
223	0xba0bdb70	-0.0005335128
224	0xbf44059c	-0.7657106
225	0xbf0fb664	-0.5613768
226	0xbe9850a3	-0.2974902
227	0xbe534907	-0.20633326
228	0x3e37abc5	0.17936619
229	0xbda62fcc	-0.08114585
230	0xbe43603a	-0.19079676
231	0x3d422e80	0.047407627
232	0xbdd618c9	-0.10453946
233	0xbd1f09e8	-0.038827807
234	0xbe38f2c1	-0.18061353
235	0x3e0fc359	0.14039363
236	0xbe9ad22f	-0.30238482
237	0xbe0d206b	-0.13781898
238	0xbe92ad0e	-0.28647655
239	0x3dff69db	0.12471362
240	0x3d862ddc	0.06551716
241	0xbe396bae	-0.18107483
242	0xbc8138d2	-0.015774164
243	0x3c98d819	0.01865773
244	0xbdafdda0	-0.085871935
245	0xbe1d9a43	-0.15390877
246	0xbe06d987	-0.13168918
247	0x3dc1081c	0.09425375
248	0xbd900b32	-0.07033385
249	0xbc97667b	-0.018481484
250	0x3d7d77c7	0.061881807
251	0x3e09fbb1	0.13474919
252	0x3dd7f07b	0.10543915
253	0x3dbb2895	0.091386
254	0x3e3d4e64	0.18486935
255	0x3d19a848	0.037514

network.0.bias f4 [128]
0	0x3d1d2613	0.03836639
1	0x3ac9eb45	0.0015405199
2	0x3ceeee89	0.029166477
3	0xbe28d953	-0.16489153
4	0xbd36b489	-0.044605765
5	0x3deec778	0.116591394
6	0x3d8ef85d	0.06980965
7	0xbe838a96	-0.2569167
8	0xbd1e1542	-0.03859449
9	0x3df8118d	0.121127225
10	0x3d5fae6d	0.054609705
11	0x3d32f155	0.043687183
12	0xbe50b055	-0.20379765
13	0x3d4a588a	0.049400844
14	0xbe54562c	-0.20735997
15	0x00000000	0.0
16	0xbd042421	-0.032261018
17	0xbe442cbc	-0.1915769
18	0xbcfd805b	-0.030944994
19	0x3d52f28e	0.05150085
20	0x3dbd7435	0.0925068
21	0xbc7726e0	-0.015084952
22	0x3c4715e0	0.0121512115
23	0x3dbe8f7d	0.09304712
24	0x3d8569fa	0.06514354
25	0x3d484114	0.04889019
26	0xbdf0f1fe	-0.11764906
27	0xbe31bf01	-0.17358018
28	0x3d57aa1d	0.052652467
29	0x3cef08c2	0.02917898
30	0xbcb64a43	-0.022252208
31	0xbe68bdc8	-0.22728646
32	0x00000000	0.0
33	0x3d91b018	0.07113665
34	0xbe7f4316	-0.24927935
35	0xbd008866	-0.03138008
36	0xbe753d22	-0.23949102
37	0x3bf033e4	0.0073304046
38	0x3c6a6542	0.014306368
39	0x3cda9012	0.026680026
40	0x3d36b370	0.04460472
41	0xbd2de3b0	-0.042453468
42	0xbbe181ce	-0.006881929
43	0x00000000	0.0
44	0x3de2f6fe	0.11082266
45	0x3e04490d	0.12918492
46	0x3d8bc598	0.068247974
47	0xbd61469b	-0.054998975
48	0xbe689edb	-0.22716849
49	0x00000000	0.0
50	0xbe7d6152	-0.24744156
51	0xbe481882	-0.19540599
52	0x3dfea393	0.12433543
53	0x3dc2509f	0.094880335
54	0x3d9d2078	0.076722085
55	0xbe4ffb17	-0.20310627
56	0x3dc2b7b4	0.09507695
57	0xbb5f3edf	-0.0034064574
58	0x3d914595	0.0709335
59	0x3d8799cc	0.06621131
60	0xbdf72625	-0.12067822
61	0x3b06b5ac	0.0020555062
62	0xbc66d8b2	-0.01408975
63	0xbe61bcc3	-0.22044663
64	0x3d0935b0	0.033498466
65	0x3d2ef9ee	0.04271882
66	0x3c810138	0.015747651
67	0xbe844a5b	-0.2583798
68	0x3dbafed9	0.091306396
69	0xbe80142f	-0.250154
70	0x00000000	0.0
71	0x3c01d49b	0.007924224
72	0x3d8e2b90	0.06941903
73	0xbd5f0bed	-0.054454733
74	0xbe1f5c7d	-0.15562625
75	0xbe0d7634	-0.13814622
76	0x3d14ff01	0.036376003
77	0xbb116e4f	-0.0022190993
78	0xbd2ddd54	-0.042447403
79	0x00000000	0.0
80	0x3d9bcd12	0.076074734
81	0x3e13345c	0.14375442
82	0xbdb28fd2	-0.08718838
83	0x3d2e4a59	0.042551372
84	0x3d2f8b55	0.042857487
85	0xbe15a3fd	-0.14613338
86	0x3dc12551	0.09430946
87	0xbbeb3f2e	-0.0071791625
88	0x3d2a0fb1	0.04151887
89	0xbba2d579	-0.0049692956
90	0x3d87f9ff	0.0663948
91	0x3d31fe1c	0.04345523
92	0x00000000	0.0
93	0xbd4c36f8	-0.04985711
94	0x3d12737e	0.035754673
95	0xbd13f510	-0.03612238
96	0xbd045d3e	-0.032315485
97	0x3d863b9b	0.065543376
98	0x391d7d68	0.00015019404
99	0xbe484894	-0.19558936
100	0xbd4156cd	-0.04720192
101	0x3de632df	0.11240172
102	0x3bc6250f	0.006046898
103	0xbdaf89b9	-0.085711904
104	0xbda66cd5	-0.08126227
105	0x3d012e04	0.031538025
106	0x3cf09a2e	0.029370394
107	0xbe515870	-0.20443892
108	0x3bff4410	0.007790096
109	0x3cbcd50e	0.023050811
110	0x3bc58390	0.0060276464
111	0x3d02f178	0.031968564
112	0xbe1da49a	-0.15394822
113	0xbe751a8f	-0.23935913
114	0xbe4b2ab2	-0.19840506
115	0x3dd5b57d	0.10435007
116	0xbca90833	-0.020633793
117	0x3d7e5668	0.062094122
118	0x3da21b5d	0.079153754
119	0x3dddb8ac	0.10826239
120	0x3d86c146	0.06579833
121	0xbca15427	-0.019693447
122	0x3d20daec	0.03927128
123	0x3ce8b768	0.028407767
124	0x3d7d5812	0.06185157
125	0xbe1e8649	-0.15480913
126	0xbe2ae316	-0.16688189
127	0x3d8aed12	0.06783499

network.3.weight f4 [128, 128]
0	0x3d4d225a	0.05008159
1	0xbd885d30	-0.06658399
2	0x3ddce92a	0.1078666
3	0x3d9f6116	0.077821895
4	0x3cabc442	0.020967606
5	0x3d9fa655	0.07795397
6	0x3e2f6bb5	0.1713093
7	0xbeeb15f8	-0.45915198
8	0xbdc5eeee	-0.09664713
9	0xbc4e1313	-0.01257779
10	0xbe0cd5cb	-0.1375343
11	0x3d9f4a88	0.077778876
12	0xbea9430a	-0.3305896
13	0x3d6d74c2	0.057972677
14	0xbea8011c	-0.32813346
15	0xbdb3864b	-0.08765849
16	0x3c239a16	0.009985467
17	0xbf1075a7	-0.56429523
18	0xbe0dd4c6	-0.13850698
19	0x3c8d3de1	0.01724142
20	0x3db6d2f1	0.08926953
21	0x3d7da0de	0.061920993
22	0xbb1dfa5c	-0.0024105525
23	0x3e26295f	0.1622672
24	0x3dd9400c	0.10607919
25	0x3d065bab	0.032802265
26	0x3dd8d7cb	0.10588034
27	0xbe8a45b1	-0.27006295
28	0xbd4c2786	-0.04984238
29	0x3dd744ec	0.10511193
30	0xbe1d0f2b	-0.15337817
31	0xbe1a6900	-0.15079117
32	0x3c3e8e96	0.011630675
33	0x3de97fcd	0.11401329
34	0xbf0cc7db	-0.54992455
35	0x3e013418	0.12617528
36	0xbf2a8ce6	-0.66621244
37	0x3e286b59	0.164472
38	0x3d70af86	0.058761142
39	0xbe38ed68	-0.18059313
40	0xbc8e2576	-0.017351847
41	0xbd07097e	-0.032968037
42	0x3e16d502	0.14729694
43	0x3d681b35	0.05666657
44	0x3e789082	0.24273875
45	0x3c17a58f	0.009255781
46	0x3e089efb	0.13341896
47	0x3e784a01	0.2424698
48	0xbf798428	-0.9746728
49	0x3d0f6a6d	0.035013605
50	0xbf36b227	-0.7136559
51	0xbecf0b96	-0.40438527
52	0xbda73f50	-0.08166373
53	0xbbee6c81	-0.0072761183
54	0xbe2b23cc	-0.16712874
55	0x3d06d865	0.032921214
56	0x3de9c117	0.11413782
57	0xbe1c26c1	-0.15249158
58	0xbddb45c2	-0.107066646
59	0x3e1f6bab	0.15568416
60	0x3c9e4b3f	0.01932299
61	0x3d9b55fe	0.07584761
62	0xbd168da4	-0.036756173
63	0xbf1ce6f4	-0.61289907
64	0xbd3fd88e	-0.046837382
65	0x3d1b144c	0.037861153
66	0xbe010a82	-0.12601665
67	0xbf4c36bc	-0.7977102
68	0x3d7c5bfe	0.061611168
69	0xbf00ee25	-0.5036338
70	0xbd187293	-0.03721864
71	0xbd51f725	-0.051261086
72	0x3d970cb7	0.07375472
73	0x3d90346c	0.07041249
74	0xbdaa266d	-0.083081104
75	0xbdc55c83	-0.09636786
76	0xbdc97c45	-0.09838156
77	0x3cf109a1	0.029423537
78	0x3d2caaee	0.0421552
79	0xbdad9f24	-0.08477619
80	0x3d464372	0.048404165
81	0x3db4972d	0.08817897
82	0x3e09bd5c	0.13451141
83	0x3e5d39fe	0.21604154
84	0xbd11c0ec	-0.035584375
85	0xbdafeaed	-0.085897304
86	0x3bdf5011	0.0068149646
87	0xbda5b0f9	-0.080903955
88	0x3b20eafc	0.0024554124
89	0x3e207593	0.15669851
90	0x3d084ee4	0.03327836
91	0x3e22dabf	0.15903758
92	0x3abc5c0b	0.0014370693
93	0x3e38f7a3	0.18063216
94	0xbd8a6604	-0.06757739
95	0x3e031e83	0.12804608
96	0x3dc16a36	0.09444086
97	0x3e96130d	0.2931141
98	0x3e41248b	0.18861596
99	0xbf1f3d36	-0.62202775
100	0x3e308237	0.17237173
101	0x3e24c39a	0.16090241
102	0xbe183023	-0.14862113
103	0x3c631508	0.013859995
104	0x3d24be39	0.040220473
105	0x3e31107b	0.17291443
106	0x3d560815	0.0522538
107	0xbe2afc4a	-0.16697803
108	0xbd23235f	-0.039828654
109	0x3ba7ed8a	0.0051247524
110	0x3dfd869c	0.1237919
111	0x3d000da4	0.03126301
112	0xbd8367fe	-0.06416319
113	0xbe6561b3	-0.2240055
114	0xbd835bde	-0.06414007
115	0x3e081fe5	0.13293417
116	0x3dff5fd0	0.12469447
117	0x3e4d7bee	0.20066807
118	0x3e1ff428	0.15620482
119	0xbcf18ca9	-0.029486017
120	0x3e78c2cb	0.24293058
121	0xbaa96a41	-0.0012925343
122	0x3d88fec8	0.06689221
123	0x3c44167f	0.011968254
124	0xba81f7d4	-0.0009915777
125	0x3d139c31	0.036037628
126	0x3c8a04bc	0.01684796
127	0x3d98a261	0.07452846
128	0x3be80950	0.0070811883
129	0x3b499fc8	0.0030765403
130	0x3e3b98c9	0.18320002
131	0x3e30101b	0.17193644
132	0x3d9a74ae	0.07541786
133	0xbd63b8e3	-0.055596244
134	0x3d65d304	0.056109443
135	0xbeb05842	-0.34442335
136	0xbdd11578	-0.10209173
137	0x3e4a8079	0.19775571
138	0x3d3f5f76	0.046721898
139	0xbe3fe9fb	-0.187416
140	0xbecc932a	-0.39956027
141	0x3d89fd56	0.06737773
142	0xbe99e4b4	-0.300573
143	0xbb600150	-0.003418047
144	0x3d6251c5	0.055253763
145	0xbf2d4bde	-0.6769389
146	0x3d4c9cbc	0.04995416
147	0x3d259eda	0.040434696
148	0x3c974248	0.018464223
149	0x3d071bb2	0.032985397
150	0x3d8543ec	0.06507096
151	0x3e443dea	0.19164243
152	0xbd9741ac	-0.07385573
153	0xbce39d54	-0.02778498
154	0x3e8c9cae	0.27463287
155	0xbe8d2467	-0.27566835
156	0x3ce46436	0.027879816
157	0x3df94d47	0.121729426
158	0x3d69b059	0.057052944
159	0x3d4b7d25	0.049679894
160	0x3dffc040	0.12487841
161	0x3d15d9c5	0.036584634
162	0xbeae8b49	-0.3409064
163	0xbdad504a	-0.084625795
164	0xbf1c43bd	-0.6104086
165	0x3e281332	0.16413572
166	0x3c205c46	0.009787625
167	0x3cb701b6	0.022339683
168	0xbdfd3b2c	-0.12364802
169	0x3d4ee408	0.050510436
170	0x3e20fe55	0.1572202
171	0xbe0e9a84	-0.1392613
172	0xbd4ecd16	-0.050488554
173	0x3ddd1fed	0.10797105
174	0xbddf5896	-0.10905568
175	0x3daae283	0.08343985
176	0xbf2a186f	-0.6644353
177	0x3dcffe2d	0.10155902
178	0xbf2f08c9	-0.6837278
179	0xbf08b83b	-0.53406113
180	0x3e83c2ca	0.2573455
181	0x3e442e04	0.19158179
182	0xbe1e02c0	-0.15430737
183	0xbe6f85e9	-0.23390926
184	0x3dcc2645	0.09968237
185	0x3e0d6ac0	0.13810253
186	0xbdf3eca6	-0.119103715
187	0x3dfef691	0.124493726
188	0xbe65b583	-0.22432522
189	0x3e131643	0.14363961
190	0x3e25b63b	0.16182797
191	0xbf08c540	-0.5342598
192	0x3cfef95b	0.031124761
193	0xbe3d29c8	-0.1847297
194	0x3cef304d	0.029197836
195	0xbf13c5aa	-0.57723486
196	0x3ccdf0eb	0.025139293
197	0xbecc8161	-0.39942458
198	0xbd5b1089	-0.053482566
199	0xbddad95d	-0.1068599
200	0x3e674043	0.22583108
201	0x3db81bf9	0.0898971
202	0xbd441e84	-0.047880664
203	0xbde6faaf	-0.11278283
204	0xbd52dbcc	-0.051479146
205	0xbd1be1ae	-0.03805702
206	0x3e12a2e5	0.14319952
207	0xbd121224	-0.03566183
208	0xbba4c9cd	-0.0050289393
209	0xbde29461	-0.11063457
210	0x3df19cbc	0.11797473
211	0x3dd74fc3	0.1051326
212	0x3de962eb	0.1139582
213	0x3cc3423e	0.023835298
214	0x3ddeda0f	0.10881435
215	0xbc3a1bc0	-0.011359155
216	0x3e399ec1	0.18126966
217	0x3e38178f	0.17977737
218	0xbd844ceb	-0.064599834
219	0x3e3dbacb	0.18528287
220	0xbdd0b500	-0.10190773
221	0x3d83079d	0.063979365
222	0xbd0ee12b	-0.034882706
223	0xbd96d1a2	-0.07364203
224	0xbd955a83	-0.07292654
225	0x3d4dc28d	0.050234366
226	0x3da9d258	0.08292073
227	0xbf1a1c8f	-0.60199827
228	0x3e0ef556	0.13960776
229	0x3e289e23	0.16466574
230	0xbdea31f1	-0.11435307
231	0xbe010b16	-0.12601885
232	0x3df3ea85	0.119099654
233	0x3a4646da	0.00075636583
234	0x3bc57570	0.0060259625
235	0xbe0df9ae	-0.13864776
236	0xbd3d6c6e	-0.046245985
237	0x3dcff6a4	0.10154465
238	0x3e03fdbb	0.12889759
239	0x3e1429ed	0.14469118
240	0xbe94963e	-0.29020876
241	0xbe9f3268	-0.31093144
242	0xbeb8efee	-0.36120552
243	0xbce12c40	-0.02748692
244	0x3cbb2e39	0.02284919
245	0xbdf1ed50	-0.11812842
246	0x3db7acb9	0.08968491
247	0x3d7c1eb4	0.06155272
248	0x3e72068d	0.23635311
249	0x3e24d794	0.16097862
250	0x3e4081b1	0.18799473
251	0x3da1a395	0.07892529
252	0x3e3c3abc	0.1838178
253	0xbe141ecc	-0.14464873
254	0x3dd7d12b	0.105379425
255	0x3db93dcc	0.0904499

network.3.bias f4 [128]
0	0x3fe32b14	1.7747521
1	0x3fcf7938	1.6208868
2	0x3fcd60b2	1.6045134
3	0x3fdb30c4	1.7124257
4	0x3e4c70cc	0.19964904
5	0x3fa2435e	1.2676809
6	0x3db8b71c	0.090193
7	0x3e7e43f9	0.24830617
8	0x3fd00137	1.6250371
9	0x3f64397f	0.8915023
10	0x3fc72a24	1.5559735
11	0x3fcb8dac	1.590261
12	0x3fd46fdc	1.6596637
13	0x3fccdaa4	1.6004224
14	0x3fcc9ee0	1.5985985
15	0x3e8a2c9b	0.26987156
16	0x3fde0bdf	1.7347373
17	0x3e155997	0.14584957
18	0x3e0c3d38	0.13695228
19	0x3fe32d13	1.774813
20	0x3f017720	0.50572395
21	0x3fd3d7d1	1.6550237
22	0x3fe24aef	1.7679118
23	0x3fb72e14	1.4310937
24	0x3e8d48b5	0.27594534
25	0xbd8f96d7	-0.07011192
26	0x3fd689a6	1.6760757
27	0x3fd53e7c	1.6659694
28	0x3e023e1c	0.12719005
29	0x3fd221a0	1.6416512
30	0x3fdb1381	1.7115327
31	0x3e67a450	0.22621274
32	0x3e16e226	0.14734706
33	0x3fc82d81	1.5638887
34	0x3fcdbcb1	1.6073209
35	0x3e179f44	0.14806849
36	0x3d1b2043	0.037872564
37	0x3fd0bfc2	1.630852
38	0x3faadf6e	1.3349435
39	0x3fc9f3ee	1.5777566
40	0x3e32a9fb	0.17447655
41	0x3ea9e639	0.33183458
42	0x3fc36278	1.5264425
43	0x3e8ab78a	0.27093154
44	0x3d1b361e	0.037893407
45	0x3dae78a0	0.08519101
46	0x3e195188	0.14972508
47	0x3fad0a85	1.3518835
48	0x3fce9fe5	1.6142546
49	0x3fbf0d32	1.4925902
50	0x3fd8f013	1.6948265
51	0x3e2d0b01	0.16898729
52	0x3e621154	0.22076923
53	0x3fa5a32a	1.2940419
54	0x3fd919f4	1.6961045
55	0x3fd1eec6	1.6400993
56	0x3e82ca67	0.25545046
57	0x3e396b40	0.18107319
58	0x3fe6551e	1.7994726
59	0x3fd33bf8	1.6502676
60	0x3e893057	0.26794693
61	0x3fcf25ec	1.6183448
62	0x3fd02558	1.6261396
63	0x3fc59c07	1.5438241
64	0x3e0eed68	0.13957751
65	0x3fa8ab85	1.3177344
66	0x3fc85d8a	1.5653546
67	0x3e8241f7	0.25440952
68	0x3fccf6e4	1.6012845
69	0x3fb32680	1.3996124
70	0x3fd00b18	1.6253386
71	0x3fd7493e	1.6819227
72	0x3caaae30	0.020835012
73	0x3fd03b3b	1.6268076
74	0x3fd0a82c	1.6301322
75	0x3e0039ea	0.12522092
76	0x3fe5742b	1.7926077
77	0x3fcf2d99	1.618579
78	0x3fd04933	1.6272339
79	0x3e4c8ebd	0.19976325
80	0x3fb34933	1.4006714
81	0x3fced835	1.6159731
82	0x3cb47d6b	0.02203246
83	0x3d933d8a	0.07189472
84	0x3ef348f9	0.4751661
85	0x3fb7b37b	1.4351648
86	0x3e7a7d20	0.24461794
87	0x3fd54bbb	1.6663736
88	0x3ead3174	0.33826792
89	0x3fcdc654	1.607615
90	0x3fd72f37	1.6811284
91	0x3fcd22e8	1.6026278
92	0x3f175ee6	0.5912918
93	0x3fd062c4	1.6280141
94	0x3f9155b1	1.1354276
95	0xbf08ca3e	-0.534336
96	0x3e84143b	0.25796685
97	0x3fc899e4	1.5671964
98	0x3eb3278a	0.34991103
99	0xbdd51037	-0.10403483
100	0x3e63eb67	0.22257768
101	0xbd74223f	-0.059602972
102	0x3fca0e1f	1.578556
103	0x3fccc077	1.5996236
104	0x3fd2289e	1.6418645
105	0x3fd87039	1.6909248
106	0x3e483f04	0.19555289
107	0x3fd4a9af	1.6614283
108	0x3fc8df48	1.569314
109	0x3fc6b431	1.552374
110	0x3fca2933	1.5793823
111	0x3ea444ab	0.3208364
112	0x3fd7d2f8	1.6861258
113	0x3e09d144	0.13458735
114	0x3fd4ed0c	1.6634841
115	0x3fd378de	1.6521261
116	0x3e718fb5	0.23589976
117	0x3fbc9a2f	1.4734553
118	0x3e300b2e	0.17191765
119	0x3fce575d	1.6120411
120	0x3ea88580	0.32914352
121	0x3e79296c	0.24332207
122	0x3fd01460	1.6256218
123	0x3ef042b5	0.46925893
124	0x3fd85bac	1.6902976
125	0x3eb67e64	0.35643303
126	0x3fcc5593	1.5963615
127	0x3e6d8bd0	0.23197865
