教学演示项目/项目1_强化学习智能体训练/results/results/model_episode_400.pth (torch, 431665 bytes, 24 tensors)

network.0.weight f4 [128, 16]
000000 7c 26 9a 3d 7b aa 53 3d 08 68 86 bc f6 0d 67 3e
       0.075268716 0.051676255 -0.016407028 0.2256392
000010 88 a8 62 bc dd 7b 37 be f1 9a 95 3e b5 3b e4 3d
       -0.013834126 -0.17918344 0.29219773 0.11144201
000020 f5 fc eb 3e bc 7b aa 3d 2e 16 ad 3c d1 0b 9a bd
       0.46091428 0.08324382 0.02112874 -0.07521785
000030 6f d2 29 be c5 1f f1 3d 5c e6 f3 bd 01 18 d2 bd
       -0.1658418 0.11773638 -0.11909172 -0.10258485
000040 a4 af 84 3e 1f 8c 8b 3d 67 07 1f be 46 c2 eb 3d
       0.25915253 0.06813835 -0.15530168 0.11511664
000050 d3 27 98 bd a8 a3 c1 3e ee 87 6c bd 9f 64 19 3d
       -0.07429471 0.37820172 -0.05774682 0.037449475
000060 78 ed f7 3e 57 11 1f bd a9 54 28 be 77 99 1b be
       0.48423362 -0.038834896 -0.16438545 -0.15195261
000070 f3 27 5e 3d 97 6e 6a bd 10 1f 8f be e9 2e e3 bd
       0.054237317 -0.057234373 -0.27953386 -0.11092932
000080 50 9b b6 3d 2e a5 b9 3e af bb 97 3c a2 2c 6e 3e
       0.08916342 0.36258835 0.018522112 0.23259214
000090 da 0f 3c be b0 ee 8f 3e 35 1f 19 3d 22 08 aa bd
       -0.18365422 0.28111792 0.037383277 -0.083023325
0000a0 2a c0 31 bb 18 7e 4c bd fd cc 38 3e f9 19 32 be
       -0.0027122595 -0.04992494 0.18046947 -0.1739272
0000b0 6a 00 74 3e 35 bf 26 3e 7a c1 2e be 06 d9 37 bd
       0.23828283 0.16283877 -0.17065993 -0.044884704
0000c0 6a 51 97 be 5b 23 17 be e0 3a 59 3c 28 48 99 bd
       -0.29554302 -0.14759581 0.013258666 -0.07484466
0000d0 54 71 03 be 9e 3d 40 3d f4 a0 55 be d2 03 85 bd
       -0.128362 0.046933763 -0.2086218 -0.06494869
0000e0 2d cc 3e 3e 9e cd 4d 3d 93 c4 ed bd 81 69 1e be
       0.18632574 0.05024492 -0.11609759 -0.15469934
0000f0 e9 fd f2 3e f6 27 02 bd 1f fc d8 bd 74 b3 56 bb
       0.47459343 -0.03177639 -0.10594963 -0.003276077
000100 db b6 04 bd 15 11 83 be 9a 51 07 3e f9 dd d9 3d
       -0.032400947 -0.2559897 0.13214722 0.10638041
000110 ec 05 38 be fb 97 ff bd e2 3e 7b 3b c3 26 69 bd
       -0.17971009 -0.1248016 0.0038337042 -0.05692173
000120 2a 0c c0 be 3c db 4c 3d 7f 6a 00 be ad fe 2c 3d
       -0.3750928 0.050013766 -0.12540625 0.042235065
000130 90 03 c9 3d 2c 59 57 bd e2 36 c3 be 9d d8 a0 3e
       0.098151326 -0.052575275 -0.3812781 0.31415263
000140 df 02 df 3d 12 69 93 3c 3a 7a 0f 3e 87 e8 37 3d
       0.108892195 0.017994437 0.1401147 0.04489949
000150 8d 62 b0 3e fe 00 ff 3e ed 1d 36 bd b0 83 4d bd
       0.34450188 0.49805444 -0.044462133 -0.050174415
000160 18 41 7f 3e 4f 72 1f be f3 46 87 3e 71 e4 4a 3e
       0.24927175 -0.15570949 0.26421317 0.19813706
000170 2a 6e 9f 3e 90 83 81 3e 01 68 4c be 23 ff 5f be
       0.31138736 0.25295687 -0.1996155 -0.2187467
000180 39 cb 6d 3e 09 8a 81 3e b1 0d 9a 3d 29 b8 b4 bd
       0.23222055 0.25300625 0.07522143 -0.08824188
000190 0f 66 68 3d 5c a9 94 3e c8 41 64 3e 75 09 cb 3d
       0.056737956 0.2903546 0.22290719 0.09913913
0001a0 8d a8 1a be 12 dd 6f 3e b7 1e 9b be 4a 54 15 be
       -0.1510336 0.23424175 -0.3029687 -0.14582935
0001b0 d6 17 d6 3e 14 51 89 bd 1a 79 f2 3d b4 05 45 3e
       0.4181506 -0.067049176 0.118395045 0.19240457
0001c0 a1 2f 99 be 5a ad 3a bd 37 f7 0d 3a b2 bc 06 be
       -0.2991915 -0.045575477 0.0005415561 -0.13157919
0001d0 6d 43 9d 3d 9e b3 a2 be 87 92 42 be 37 97 a1 3d
       0.07678876 -0.31777662 -0.19001208 0.0789017
0001e0 3d 4b 42 be a8 ad f1 bd 3c ed 2f be 9c 4f 84 3d
       -0.18974014 -0.118007004 -0.17180341 0.06460497
0001f0 04 96 13 bc 50 4c 11 be 3f c2 dc be 42 41 ef bd
       -0.0090079345 -0.14189267 -0.43116948 -0.11682369
000200 83 c1 f0 bd 30 1e c0 bc b7 77 3c 3c fc 99 f9 bd
       -0.117556594 -0.023451895 0.011503152 -0.12187573
000210 72 45 2e bd b4 ca 5b be ff 5d b2 3d d6 bc d9 bd
       -0.042546697 -0.21464044 0.087093346 -0.10631721
000220 06 56 01 3e 62 24 3c 3e 30 14 9a be 93 74 af 3d
       0.12630472 0.18373254 -0.30093527 0.08567157
000230 6c 7f 11 bd 72 ad 7e bd 75 32 f1 be a9 64 27 be
       -0.03552191 -0.06217713 -0.47108808 -0.16346993
000240 a6 82 84 be 85 3f 8b be 49 33 43 3e eb cd a5 3d
       -0.25880927 -0.271969 0.19062532 0.08095916
000250 bb 3b ed 3e 2f c8 b0 3d 21 a3 03 bd dd b1 8d bd
       0.46334633 0.08631932 -0.032137994 -0.0691869
000260 e1 20 83 bc 12 f9 3b be cc bb db 3d 51 b4 35 3e
       -0.016006889 -0.18356732 0.10729179 0.17744567
000270 b7 13 e2 3d 91 dc ab bd d1 e8 3a be 1e e8 26 3e
       0.110389166 -0.08391679 -0.18252875 0.16299483
000280 46 20 bc 3e f2 80 a0 3e f0 4f 9d 3d a4 ce 9e bc
       0.36743373 0.31348377 0.076812625 -0.019385643
000290 5d 8c 74 be 25 9b b9 3e 43 c3 33 3d 36 5c dd bd
       -0.2388167 0.36251178 0.043887388 -0.108086035
0002a0 f4 80 49 3e 4a f1 ce bd c6 39 37 bd 84 a3 2d 3e
       0.19678098 -0.10104616 -0.04473283 0.16956908
0002b0 0f 3a 33 3e 4f 69 c1 3d 97 7a 41 be 69 87 cd 3d
       0.17502616 0.09443914 -0.1889442 0.10035593
0002c0 4d 68 2a 3d 79 8c 95 3e b5 e3 03 bc 8d e3 cd bd
       0.041603375 0.29208735 -0.008049895 -0.100531675
0002d0 a1 00 38 be a2 c9 81 be 56 a9 6f 3e 4b 0f e2 bd
       -0.1796899 -0.25349146 0.2340444 -0.11038073
0002e0 fb 19 cc 3e 8b 53 d2 bc 3f 4c 31 be 6a bc 19 3e
       0.39863572 -0.025674602 -0.17314242 0.1501328
0002f0 20 e4 fc 3c a7 69 c6 3d 55 48 3a 3e f3 5a 05 3e
       0.030870497 0.0968812 0.18191655 0.13022976
000300 0b 9b ba be c2 39 9a bc 5a 9b ca bd 34 dd da bd
       -0.36446413 -0.01882637 -0.09892912 -0.106867224
000310 7f 8e 83 3e 77 39 13 3d b4 2c 87 be 7b 67 44 3d
       0.25694653 0.035943475 -0.26401293 0.04795025
000320 c9 2a 8b bc 30 cf 9f bb be 2a 41 bd cc 81 00 bd
       -0.016988175 -0.0048769936 -0.047159903 -0.031373784
000330 e9 c0 ab be 48 ef b4 3c 5d e7 cd be cd 5f 80 be
       -0.33545616 0.022086754 -0.4021558 -0.2507309
000340 8c 9a 6c 3e c7 5a 12 3e 94 84 88 3d d7 10 89 3e
       0.2310583 0.14292441 0.06665912 0.2677066
000350 0e be e0 bd 07 bf 84 be 23 e5 87 3d ef 98 38 be
       -0.1097375 -0.25926992 0.06635501 -0.1802709
000360 9a ee 0c 3b 83 0c 10 be a9 c7 98 bc 6b 1b 31 3d
       0.0021504522 -0.14067273 -0.018649893 0.04323904
000370 10 e5 88 3c fd f4 91 3d 62 e1 ef 3e d3 18 03 be
       0.016710788 0.07126806 0.4685164 -0.12802438
000380 e4 cd 01 bf ab 7d 15 be 0a c6 02 be f4 b6 15 bd
       -0.5070479 -0.1459872 -0.12770858 -0.03655143
000390 18 86 a7 3e f8 4a ab 3d 6f 2f ae bc 62 ec da bc
       0.32719493 0.083639085 -0.021262852 -0.026724044
0003a0 67 d7 10 bd 24 2c 45 bd c9 30 56 bd 59 c3 0f 3e
       -0.035361674 -0.0481378 -0.05229262 0.14039363
0003b0 c2 eb 7f be 78 9c 9e ba 39 2e ae bb 96 6a be 3d
       -0.24992278 -0.0012101075 -0.0053155688 0.092976734
0003c0 dc 2d 86 3d ae 6b 39 be d2 38 81 bc 19 d8 98 3c
       0.06551716 -0.18107483 -0.015774164 0.01865773
0003d0 a0 dd af bd 43 9a 1d be 87 d9 06 be 1c 08 c1 3d
       -0.085871935 -0.15390877 -0.13168918 0.09425375
0003e0 32 0b 90 bd 7b 66 97 bc c7 77 7d 3d b1 fb 09 3e
       -0.07033385 -0.018481484 0.061881807 0.13474919
0003f0 7b f0 d7 3d 95 28 bb 3d 64 4e 3d 3e 48 a8 19 3d
       0.10543915 0.091386 0.18486935 0.037514

network.0.bias f4 [128]
000000 e2 06 d7 3d ce 56 06 3d 2a ed d9 3d fd 8c 1f be
       0.1049936 0.032797627 0.106409386 -0.15581127
000010 a3 ec 32 bd 4e de 21 3e 3a a4 b9 3d 05 a4 b8 bd
       -0.043682706 0.15807459 0.09064527 -0.09015659
000020 22 d2 48 bc 83 d8 ff 3d af bf bd 3d 4b 82 46 3d
       -0.012257131 0.12492468 0.09265076 0.0484641
000030 db 6a b1 bd 79 58 a3 3d 78 eb 19 bd 00 00 00 00
       -0.08662959 0.07975859 -0.037578076 0.0
000040 73 cb 13 3d 1d 17 0e bd 5b 80 fd bc d2 9e f3 3d
       0.036082696 -0.03469001 -0.030944994 0.11895527
000050 c6 1e 24 3e 72 b8 44 3d 4f 09 76 3d 50 d6 e7 3d
       0.16027364 0.048027463 0.06006747 0.11320174
000060 ac 06 e4 3d 23 2b c3 3d 0b 18 4b bd 99 1a 11 bd
       0.11134085 0.09529712 -0.049583476 -0.035425756
000070 d4 78 30 3e 80 8f db 3d f9 b1 ad bc 7f 23 a3 bd
       0.17233592 0.1072073 -0.021203028 -0.07965755
000080 00 00 00 00 de f6 06 3e bb 72 b0 bd 6e db 4e bd
       0.0 0.1318011 -0.08615633 -0.050502233
000090 6c 96 ce bd 65 1d 92 3d 53 d2 d4 3d 75 54 b5 3d
       -0.100872844 0.07134513 0.10391679 0.088539995
0000a0 6e c3 06 3d 1b 1a 82 bd ce 81 e1 bb 00 00 00 00
       0.03290122 -0.063526355 -0.006881929 0.0
0000b0 6d 67 0f 3e 26 a2 11 3e e0 9a d8 3d 4c 0c 8c 3c
       0.14004298 0.14222011 0.10576415 0.017095707
0000c0 72 ff 06 be 00 00 00 00 5b fe d2 bd da a6 8a bd
       -0.13183382 0.0 -0.10302421 -0.06770106
0000d0 84 81 a1 3d 07 d7 04 3e fd ea de 3d 81 4f 09 be
       0.07886031 0.12972651 0.10884664 -0.13409235
0000e0 3a 4a 16 3e a7 31 8b 3d 9f d2 10 3e 0c 82 85 3d
       0.14676753 0.0679658 0.14142846 0.06518945
0000f0 99 49 a2 bd 08 41 ee 3c ca 92 e1 bc 91 f8 a6 bd
       -0.07924194 0.029083744 -0.027535815 -0.08152879
000100 e0 87 04 3e 6a ac 1c bd e2 08 94 bc 2c 65 11 be
       0.12942457 -0.038250364 -0.018070642 -0.1419875
000110 ea 27 f3 3d 44 bb ea bd 00 00 00 00 3d 1e 0c 3d
       0.118728474 -0.11461499 0.0 0.034208525
000120 3f 04 d4 3d 67 2c e9 bc 2c 60 7f bd 36 9a 53 bd
       0.103523724 -0.028463555 -0.062347576 -0.05166074
000130 3f 65 92 3d e7 79 8b 3d 3b 63 6f bc 00 00 00 00
       0.071482174 0.068103604 -0.014611061 0.0
000140 6d b0 b4 3d 1c ed 43 3e 1d f1 c8 3c fb 6d db 3d
       0.08822713 0.19133419 0.024529034 0.107143365
000150 6c c8 07 3e b7 fa 98 bc c5 fd ca 3d 2e 3f eb bb
       0.13260049 -0.018674238 0.09911684 -0.0071791625
000160 55 a2 01 bc 8d 29 db 3d 8c e1 ee 3d e8 04 6e 3d
       -0.007912238 0.107012846 0.116641134 0.058110148
000170 00 00 00 00 87 e9 22 bb db 25 f5 3d d6 ca 50 bb
       0.0 -0.0024858431 0.11970111 -0.003185918
000180 0c d4 94 bc 3d 3a 10 3e 12 3d 9e 3d f2 de 5b bd
       -0.018167518 0.14084716 0.07726492 -0.053679414
000190 00 73 2d bd 89 ea 30 3e 51 17 47 3c 10 7f a5 bd
       -0.042346 0.17276968 0.012151555 -0.08080876
0001a0 76 1a c3 3c 3b 0e 86 3d 27 81 a1 3d 2f 3b 1c be
       0.023816328 0.06545683 0.07885962 -0.15256952
0001b0 e5 2e c0 3d 18 36 b0 3d 6b dd 61 3d db 7e a1 3d
       0.093839444 0.086040676 0.0551428 0.07885524
0001c0 74 15 0f bd 59 6e 08 be 9b ea 08 be 87 1b 94 3c
       -0.03493257 -0.13323344 -0.13370745 0.018079532
0001d0 33 08 a9 bc 29 25 ec 3d 52 b1 fd 3d da 10 16 3e
       -0.020633793 0.11530525 0.12387337 0.14654866
0001e0 3d 4e f9 3d 43 14 6e 3d e0 2a b8 3d 76 5c 5f 3d
       0.12173126 0.05812479 0.08992553 0.054531537
0001f0 75 57 17 3e f7 5d ba bd a4 28 97 bd d6 11 e4 3d
       0.14779456 -0.090999536 -0.073807985 0.111362144

network.3.weight f4 [128, 128]
000000 45 22 5c 3e ea 40 86 bc f6 2d 89 3e 0b a0 a4 3d
       0.21497448 -0.016388375 0.26792878 0.08038338
000010 b9 5b 0a 3d e5 87 14 3e 17 4e 6a 3e 41 f5 06 3d
       0.03377888 0.14504965 0.22881351 0.032948736
000020 55 37 1a bd c1 62 76 3d f0 99 4f bc 76 90 04 3e
       -0.037650425 0.060152773 -0.012670979 0.12945732
000030 f7 6d 5c be 2c 14 18 3e eb c2 38 3d 4b 86 b3 bd
       -0.21526323 0.14851445 0.045107763 -0.08765849
000040 8a 0f ab 3d 25 0f 30 bd c6 d4 0d be b8 a7 ee 3d
       0.08352573 -0.042983193 -0.13850698 0.116530836
000050 6d 55 30 3e 46 9a 2c 3e 5d ed c1 3d 93 cb 64 3e
       0.17220087 0.16855726 0.094691016 0.22343282
000060 6d 33 35 3e da 6c 13 3e 66 e3 f6 3d 24 0e 06 3d
       0.17695399 0.14396992 0.120550916 0.03272833
000070 60 c9 b8 3c d4 3f 6e 3e 60 33 70 be 68 eb c8 bc
       0.02255696 0.23266536 -0.23457098 -0.024526313
000080 96 8e 3e 3c 09 47 38 3e 05 fa a1 bd 2a b8 ce 3d
       0.011630675 0.17995848 -0.079090156 0.1009372
000090 96 f3 a9 be 04 0d 63 3e c5 01 27 3e 45 07 92 bd
       -0.33193654 0.22172934 0.16309269 -0.07130293
0000a0 a6 9c 2e bd 60 fb 16 3d 02 d5 16 3e 35 1b 68 3d
       -0.04262986 0.036860824 0.14729694 0.05666657
0000b0 9c 3e c7 3e 89 f1 05 3e 91 20 7f 3e 05 ef ba 3e
       0.38914955 0.1308042 0.24914767 0.36510482
0000c0 63 c1 e3 be 6d 6a 0f 3d 6a 84 3d be 47 b9 b4 bd
       -0.4448348 0.035013605 -0.18507543 -0.08824401
0000d0 22 1b 28 bd 45 e3 5f 3d 22 b9 72 bc 4b 6e 45 ba
       -0.0410415 0.0546601 -0.014814647 -0.00075313885
0000e0 a9 78 77 3e 77 f1 b7 bd 83 f8 d8 bd 13 8c 74 3e
       0.24167122 -0.08981603 -0.10594275 0.23881559
0000f0 67 7e f3 bd ea 25 c9 3d 4a e1 1a bd e8 55 03 be
       -0.11889344 0.09821685 -0.03781251 -0.1282574
000100 e0 db f5 3a 01 9b c7 3c 76 c4 02 bd c3 c3 96 be
       0.0018757544 0.024365904 -0.03192564 -0.2944623
000110 06 63 33 3e 33 17 80 be 93 72 18 bd e6 13 4e 3d
       0.17518243 -0.250177 -0.03721864 0.050311945
000120 97 fe 3b 3e d0 94 1f 3d 2e 05 c5 bd a4 c0 c8 bd
       0.18358837 0.038960278 -0.096201286 -0.09802368
000130 cb aa 07 bc 12 2d c0 3d 8e a0 ae 3c 24 9f ad bd
       -0.008280466 0.093835965 0.021316793 -0.08477619
000140 b1 ef 2e 3e 40 33 3d 3e 99 50 b9 3d 91 18 92 3e
       0.17083623 0.18476582 0.09048576 0.28534368
000150 96 d6 89 3c 1f 46 25 bd b1 7f 1f 3e f9 b0 a5 bd
       0.016825955 -0.040350076 0.15576054 -0.080903955
000160 7e 11 94 3c f9 54 81 3e e3 d1 06 3e 76 d2 77 3e
       0.018074747 0.25260141 0.13166003 0.24201378
000170 0b 5c bc 3a 5c 00 0a 3e 56 5e 12 3d 60 32 56 3e
       0.0014370693 0.134767 0.035734497 0.20917654
000180 d2 76 5f 3e 31 c8 c5 3e 99 fe 9b 3e d2 99 39 be
       0.2182267 0.38629296 0.3046768 -0.18125084
000190 4e 78 38 3e 33 66 9a 3e 59 3c d7 bc 3a 65 80 b7
       0.18014643 0.30156097 -0.026273893 -1.5305926e-05
0001a0 01 57 45 3e ce 61 92 3e 83 f4 3d 3e b6 73 1e be
       0.1927147 0.28590244 0.18550305 -0.15473828
0001b0 2c 00 2f 3d 2b d7 64 3d 43 2b 68 3e ca 8c 19 3e
       0.042724773 0.055869263 0.22672753 0.14995113
0001c0 01 59 0e 3e ed 7c 4b be a1 8d 02 be 9a 9b 2d 3e
       0.1390114 -0.19871874 -0.1274934 0.16953889
0001d0 d0 5f ff 3d 74 a7 9c 3e eb 01 9a 3e 21 8e 26 3d
       0.12469447 0.30596507 0.30079588 0.04066289
0001e0 42 8f a1 3e 52 44 b5 3d db fe ad 3d f0 4b cc 3d
       0.3155461 0.08850922 0.084958754 0.099754214
0001f0 08 4b c4 3d 36 ad 45 bd 9d 07 07 3d f0 57 25 3e
       0.095846236 -0.04826089 0.032966245 0.16146827
000200 6b 4b 2a 3d 36 d5 8a bc 57 08 5a 3e ad bb 31 3e
       0.04157583 -0.01694737 0.21292244 0.17356749
000210 5f 0b f4 3d a0 88 e8 3c d0 e5 38 3e 33 92 72 3d
       0.11916231 0.02838546 0.18056417 0.059221458
000220 30 cf 62 bd 0d 67 9d 3e 4e 5d ac 3d 17 17 63 be
       -0.05537337 0.30742684 0.08416234 -0.22176777
000230 39 78 4f be f9 5a 29 3d 5f 5c 0f 3b 50 01 60 bb
       -0.20260705 0.041346524 0.0021875126 -0.003418047
000240 d7 e1 12 3d e2 cd 7f be bc 9c 4c 3d f2 8f de 3d
       0.03585991 -0.24980882 0.04995416 0.10867299
000250 8e 47 f4 3d aa f7 8b 3c 70 51 88 3c 9a 87 05 3e
       0.119277105 0.017085869 0.016640395 0.13040009
000260 2b d1 1e bd 8d 14 ec 3c 42 cf 86 3e 7b 95 1d bc
       -0.038773697 0.028818393 0.2633 -0.009618158
000270 4d d5 12 3e e2 fa 89 3e a7 82 92 3d bf 0a 07 3e
       0.1433918 0.2694922 0.07153826 0.13187693
000280 40 c0 ff 3d cb 60 fa 3d ad c2 a2 3d f9 1f ad bc
       0.12487841 0.12225493 0.07947288 -0.02113341
000290 62 9f 46 be 38 85 62 3e 6c f0 08 3d 13 f2 65 3d
       -0.19396737 0.22121131 0.03343241 0.056139063
0002a0 eb 9d 13 be d2 ba 05 bd 55 fe 20 3e 84 9a 0e be
       -0.1441571 -0.03264887 0.1572202 -0.1392613
0002b0 db 45 30 3e 7e d8 30 3e cb ad 2e be fa 69 2f 3d
       0.17214148 0.17270085 -0.17058484 0.042825677
0002c0 72 16 03 be 2d fe cf 3d 0c e6 48 be 8e 6a 8b be
       -0.12801531 0.10155902 -0.19619006 -0.27229732
0002d0 ce 06 9a 3e 4e 0b 93 3e 2b 74 2c be 3a a1 d3 bd
       0.30083317 0.28719562 -0.1684119 -0.10333486
0002e0 b6 aa 48 3d 8a f1 05 3e 99 bb 92 bc 89 35 06 3e
       0.048990928 0.13080421 -0.01791172 0.1310636
0002f0 5f af eb bd e7 9d 93 3d ef e8 82 3e c8 5c 15 be
       -0.11508059 0.07207852 0.2556834 -0.14586174
000300 0f 0c 98 3d 27 12 28 be 69 18 b8 3c 90 0f 37 be
       0.07424175 -0.16413175 0.022472577 -0.1787703
000310 df e5 81 bc 32 ab 87 bd 89 10 5b bd 9b d8 0d be
       -0.015856681 -0.0662445 -0.053482566 -0.1385216
000320 cd 95 b6 3e f9 1b b8 3d af 1a a2 bc 5e b8 09 be
       0.35661164 0.0898971 -0.019788114 -0.13449237
000330 d1 c7 b9 bd b7 af a3 3d 71 24 f1 3d 24 12 12 bd
       -0.09071315 0.07992499 0.11774529 -0.03566183
000340 81 89 b4 3c 0a ad b6 bd 76 fa 1c 3e 19 36 1a 3e
       0.022038223 -0.08919723 0.15329918 0.15059699
000350 3c 33 55 3e c0 a7 06 3d 6d c5 34 3e c0 1b 3a bc
       0.20820326 0.032874823 0.17653437 -0.011359155
000360 2b a5 91 3e ef f1 8d 3e 84 e1 19 bd c6 dc 4b 3e
       0.28446326 0.27723643 -0.037568584 0.19908437
000370 00 b5 d0 bd 42 d4 03 3d ea 91 01 3e 32 f2 bf bd
       -0.10190773 0.032184847 0.12653318 -0.09372367
000380 81 7b 02 be d9 4e 19 3e 66 f2 ea 3d b5 82 0b be
       -0.12742426 0.14971484 0.11472015 -0.1362408
000390 f5 bf 2d 3e bd cb a1 3e d1 7f 52 be f2 e3 ea bd
       0.16967757 0.31600752 -0.2055657 -0.11469258
0003a0 2d 8f 9d 3d 0f ed fd bc 62 21 35 3c 33 37 f6 3b
       0.07693324 -0.030996827 0.011055322 0.0075139045
0003b0 7e 07 30 bd 29 b9 27 3d 66 2c 4e 3e 9d 84 16 3e
       -0.042975895 0.040948067 0.20134124 0.14699025
0003c0 1e e9 0a be 6f 28 3a bd a9 ef 9d be 6a 31 b2 3d
       -0.1356549 -0.045448717 -0.3084691 0.08700831
0003d0 39 2e bb 3c f0 14 87 bd c7 ef eb 3d 71 60 02 3e
       0.02284919 -0.065957904 0.11520343 0.12732102
0003e0 ab c6 4c 3e 62 16 1b 3e 4c 37 8c 3e 8b 13 6a 3d
       0.19997661 0.15145257 0.27385938 0.057147544
0003f0 c7 21 9a 3e 35 62 f0 bd da 9c 25 3e d7 16 17 3e
       0.30103895 -0.117374815 0.16173115 0.14754806

network.3.bias f4 [128]
000000 41 71 07 3f c8 94 bd 3e c9 21 d6 3e fe 66 fa 3e
       0.52907187 0.37027574 0.4182265 0.48906702
000010 b0 8d dc 3c 73 36 d6 3d 51 f8 28 bd 2a 46 c9 bd
       0.02692303 0.10459604 -0.041252438 -0.09827836
000020 e6 0a ca 3e 81 6e 78 3d a0 59 85 3e 7d 81 b4 3e
       0.3946144 0.06065226 0.2604494 0.35255042
000030 4a ca c6 3e ac e2 cc 3e 34 0e b5 3e 03 74 76 bd
       0.3882621 0.40016687 0.353624 -0.06016923
000040 bf 2f 02 3f 5a 4a 08 3d 9c 6d 9d bc a0 ee 32 3f
       0.50854105 0.033274032 -0.019217305 0.6989536
000050 b7 aa 3b bd 83 43 f0 3e 29 aa 08 3f a2 fc 55 3e
       -0.045817103 0.46926507 0.53384644 0.20897153
000060 6b 7c 6b bc bc c7 1e bd 36 9c e4 3e e4 0b e2 3e
       -0.014372925 -0.0387647 0.4465043 0.44149697
000070 63 fd e1 bc 11 86 cc 3e 2a c5 fe 3e 20 74 b3 bd
       -0.027586645 0.39946035 0.497598 -0.087623835
000080 58 8b a4 bd 81 6a aa 3e a3 80 bd 3e 92 5d 81 bd
       -0.0803439 0.3328438 0.37012205 -0.06316675
000090 07 48 51 bd 72 3e d4 3e 4b a7 e6 3d ce 31 88 3e
       -0.05109408 0.41453892 0.11262377 0.26600498
0000a0 cc d2 dc 3c d4 12 19 bc 35 7c a0 3e 08 f6 bd bd
       0.026955985 -0.009342868 0.31344762 -0.09275442
0000b0 53 f7 4c bd 8a 2b b1 bd fb 54 9c bd 56 10 8b 3d
       -0.050040554 -0.086508825 -0.07633396 0.06790225
0000c0 03 23 8b 3e 50 9e 91 3d 8d 6d e0 3e c8 37 a2 bd
       0.2717515 0.07110274 0.4383358 -0.07920796
0000d0 63 4e 66 bd 94 7e bd bc ac 7a f8 3e 3d d0 b4 3e
       -0.0562271 -0.023131646 0.4853109 0.35315123
0000e0 9e d9 1e bd f7 1d 52 bd 46 15 0a 3f e1 90 f3 3e
       -0.038781755 -0.051298108 0.5393871 0.4757147
0000f0 9c 73 87 bd 5a ea b5 3e b3 f8 c2 3e 89 e4 87 3e
       -0.066138476 0.3553036 0.38080367 0.26541546
000100 db 49 74 bd b6 f3 d4 3d 67 e2 1b 3e 54 31 ac bd
       -0.059640747 0.10398047 0.15223084 -0.08407846
000110 ed 55 a9 3e b8 b2 30 3e 14 d3 c4 3e ac 0e c0 3e
       0.3307337 0.17255676 0.3844229 0.37511194
000120 10 7f ee bc 54 d8 d4 3e 61 41 d0 3e a3 15 88 bd
       -0.029113322 0.41571295 0.4067488 -0.06644752
000130 4d 6f 10 3f 20 f0 b2 3e 03 0f db 3e 47 8a 81 bd
       0.5641983 0.34948826 0.4278489 -0.063252024
000140 18 a8 01 3e a3 50 e3 3e e3 ac 86 bd c7 4b 27 bd
       0.12661779 0.44397458 -0.06575944 -0.04084375
000150 e4 59 f3 bc 70 d9 3d 3e 5f 77 20 3d 7a f0 b2 3e
       -0.02970595 0.18539977 0.03917634 0.34949094
000160 a9 8a 2e 3d 58 38 9b 3e a4 9b fb 3e 2f bf aa 3e
       0.042612705 0.30316424 0.49142182 0.33348987
000170 d2 c2 be 3c c5 56 cd 3e 49 a6 0e 3d 36 5b fa bd
       0.023286257 0.40105262 0.03482655 -0.12224428
000180 ea ee 37 bd de 4e 9d 3e 8b 58 ba bc 04 c5 60 bd
       -0.04490558 0.30724233 -0.022747299 -0.05487539
000190 cc 15 8a bd cb c0 4c bd 5f 70 b4 3e 87 d0 d9 3e
       -0.06742439 -0.04998855 0.35241982 0.42541906
0001a0 72 87 b9 3e cd 2a 05 3f 26 20 85 bd 40 d6 e3 3e
       0.3623615 0.52018434 -0.065002725 0.44499397
0001b0 ff cd 8c 3e a1 9b 75 3e af 02 ad 3e 9c 5d 4d bd
       0.27500913 0.23985149 0.3379111 -0.0501381
0001c0 1a d6 e9 3e 42 ca ec bc 34 91 ec 3e 13 b0 e8 3e
       0.4567116 -0.028905038 0.4620453 0.45446834
0001d0 5e 5a 9f bd f1 a3 22 3e 81 c2 f4 bc 01 c5 ac 3e
       -0.07780908 0.15882851 -0.029877903 0.33744052
0001e0 b3 6e c8 3c d2 2f 23 bd 86 40 d8 3e 52 9b 09 bd
       0.024466848 -0.039840527 0.42236727 -0.03359539
0001f0 ad 6a 03 3f 4a 6e 84 bc d3 a4 c4 3e 36 54 eb bb
       0.5133465 -0.016165871 0.38407 -0.0071816696

network.6.weight f4 [5, 128]
000000 71 11 71 3e d1 e4 92 3b 6e 5d 9d 3e 5b bd bd 3d
       0.2354181 0.0044828434 0.30735344 0.09264632
000010 97 cb 90 3e 68 95 0a 3e d5 92 11 be e5 b5 10 3c
       0.28280327 0.13533556 -0.14216168 0.00883243
000020 57 c8 bd 3e 43 28 c1 3e f8 3b 9d 3e e2 46 85 3e
       0.3706691 0.3772603 0.30709815 0.26030642
000030 a3 6c 7b 3e 18 5b b8 3e 90 ee 4a 3e 00 f3 61 be
       0.2455316 0.36007 0.19817567 -0.22065353
000040 0d 9c 77 3e f0 4e 5d 3d de 3d 7a be f1 07 5d 3e
       0.24180622 0.05403036 -0.24437663 0.2158506
000050 b3 7f 4b 3e e0 20 b7 3e 35 55 a0 3e 3f e3 e3 3e
       0.19872932 0.3576727 0.31315008 0.44509313
000060 4a 2f c1 be 2c 08 c2 3d bc 71 8b 3e 1b 85 0c 3e
       -0.3773139 0.09474215 0.2723521 0.1372265
000070 16 20 b1 3d 02 25 ee 3e e3 af d9 3e 26 51 5c be
       0.08648698 0.4651261 0.42517003 -0.2151533
000080 60 da 26 be 61 cb 8a bd 29 ae e1 3e 81 05 62 be
       -0.16294241 -0.06777073 0.44078186 -0.22072412
000090 c6 45 29 3e f8 a2 bc 3e b8 70 a6 bd 25 78 f7 3e
       0.16530523 0.36843085 -0.08126968 0.4833385
0000a0 ea 57 47 3d 5a b0 8a be f9 b8 58 3e 9b 36 31 bd
       0.048667826 -0.2708767 0.21164311 -0.043264966
0000b0 8e fb 2e 3e 6f 11 2b be f3 12 45 3e 67 3e 79 be
       0.17088148 -0.16705869 0.1924551 -0.24340211
0000c0 c0 a1 06 3e b6 ec 85 3e 12 c3 c3 3e 50 d1 1e be
       0.1314764 0.2615716 0.38234764 -0.15509534
0000d0 1e 4e 9d be ad e7 33 3e b3 89 3c 3e 31 a8 39 bd
       -0.3072366 0.17568846 0.18411903 -0.045326415
0000e0 ba a8 06 bc 17 cb ad be 8f 44 4d 3e 9c 68 d9 3e
       -0.0082189385 -0.33944008 0.20045684 0.42462623
0000f0 52 b1 53 3c f0 8e d4 3e 4b 17 a3 3e c2 54 19 3e
       0.012920694 0.41515303 0.3185371 0.14973739
000100 2a d2 43 be 12 67 ea 3e a3 53 14 3e 3e 12 b6 3d
       -0.1912314 0.4578176 0.1448503 0.08890198
000110 66 98 29 be dc 40 26 be 47 1c bd 3e 8d 57 02 3e
       -0.16562042 -0.1623568 0.36935636 0.1272871
000120 c5 c2 53 be 6b fb 81 3e 20 88 c2 3e 8b dd ad be
       -0.20679767 0.2538713 0.3799448 -0.33958086
000130 fe e9 04 3e e4 1f 90 3d 8f f7 1f 3e fc e6 88 bb
       0.12979886 0.07037333 0.1562178 -0.004177926
000140 5f c6 5d be 8e b0 f2 3e 92 70 63 3e 3a b2 92 be
       -0.21657704 0.47400326 0.22210911 -0.286516
000150 1d cf a5 3d 33 a1 6f 3e 19 0b 42 be 17 7c d3 3d
       0.08096144 0.23401336 -0.18949546 0.10326403
000160 3b df 31 be 5b a6 97 3e 60 6d 92 3e 62 4b 2c 3c
       -0.17370312 0.29619107 0.28599072 0.01051602
000170 5d 67 45 be 81 c1 b0 3e f2 6e 9f be 0a cf fd bd
       -0.19277711 0.34522632 -0.31139332 -0.12393005
000180 57 bf be be 34 0e 04 3f 23 c1 b4 be c1 71 0a 3e
       -0.37255356 0.5158417 -0.35303602 0.13519956
000190 8f 54 29 be 0a 3d ff 3c f4 12 97 3e ac d2 66 3d
       -0.16536163 0.031157035 0.29506648 0.056353256
0001a0 f5 da a7 3d 4a 7f ca 3e 3f e1 2f be 0e b6 ab 3e
       0.081960596 0.3955024 -0.17175768 0.33537334
0001b0 c6 bc f4 3c b5 50 c8 3d bc 6a cd 3e bd c1 75 3c
       0.02987517 0.09781019 0.40120494 0.014999804
0001c0 3d fb 8e 3e 1c 86 c1 3d 26 28 96 3e 22 3a ab 3e
       0.27926055 0.094494075 0.29327506 0.3344279
0001d0 88 09 2f be dc 15 f3 bd 69 c6 8a 3e ad e7 9d 3c
       -0.1709348 -0.11869404 0.271045 0.01927551
0001e0 82 27 aa be 8f 5f 4c be 2a df d6 3e 7d 4c a3 bc
       -0.33233267 -0.19958328 0.41967136 -0.019933933
0001f0 65 20 c2 3e 98 28 6f be 5d bb e0 3e 08 df d3 3d
       0.3791534 -0.23355329 0.43892947 0.10345274
000200 98 3f 6e 3e db d5 86 3e 92 23 d5 3e ff 43 9a 3e
       0.23266447 0.26335034 0.416287 0.30130002
000210 d7 8e d7 be b6 38 49 be a8 6a 9f be c2 a0 46 be
       -0.42101166 -0.1965054 -0.3113606 -0.19397262
000220 ee 3d 45 3e 36 65 69 be 88 7e c0 bc 9d 1a e5 3d
       0.19261906 -0.22792515 -0.023497835 0.11186717
000230 2f bd 5c 3e 9a 41 ba 3e 05 48 cd 3d 20 c1 95 be
       0.21556543 0.36378175 0.10023502 -0.29248905
000240 76 a3 9c 3e 01 2d 2a 3e 13 5e 08 be 11 64 09 3f
       0.3059346 0.1661873 -0.13317136 0.53668314
000250 76 85 58 be 67 f9 6d 3e 9e 08 8e 3e e6 11 4d 3e
       -0.21144661 0.2323967 0.2774095 0.20026359
000260 f4 48 0a 3d 5f 27 13 3e f7 56 a4 3e b0 1b b7 3e
       0.03376098 0.14370488 0.320976 0.3576331
000270 c0 50 d2 be 07 38 3f 3e aa b4 8f 3e 8f 8b 5f be
       -0.41077232 0.18673716 0.28067523 -0.21830581
000280 2d 2a 95 be 8c 89 c3 3e 6e 01 8c 3e 93 c1 08 be
       -0.2913374 0.38190877 0.2734484 -0.13355093
000290 5f 7d 8a be b2 6e a2 3e 4d 54 22 be 79 80 be 3e
       -0.27048776 0.3172508 -0.1585247 0.37207392
0002a0 ff 9f 6b be 2d 4b 24 be fd 8c 19 3e 11 4d 70 be
       -0.23010252 -0.16044302 0.14995189 -0.23466899
0002b0 69 09 d2 be c7 49 4d be 03 0c d6 be 92 35 30 bd
       -0.41022804 -0.20047675 -0.4180604 -0.04301984
0002c0 3c d9 f5 3e d2 e8 11 3d aa 28 6c 3e 37 d6 6c be
       0.480173 0.035622425 0.23062387 -0.23128591
0002d0 66 c3 ff be d4 79 b5 bd e0 b9 18 3e df 47 72 3e
       -0.49953765 -0.088611275 0.14914656 0.23660229
0002e0 46 3b 58 be b0 11 e4 bd 95 01 79 3e 79 8e b2 3e
       -0.21116361 -0.11136186 0.2431701 0.34874323
0002f0 eb b2 16 bd 28 ac 06 3e 05 48 b4 3e 57 fb e0 3e
       -0.036791723 0.1315161 0.35211197 0.43941757
000300 2c 22 35 be fe ea bd bd 60 33 f9 3e a8 9f fe bd
       -0.17688817 -0.09273337 0.4867201 -0.12432796
000310 47 f0 86 3e 9a a6 0c 3e 4b d9 92 3e 97 c1 b7 3e
       0.26355192 0.13735428 0.28681406 0.35889885
000320 76 f3 53 be f6 67 8f 3e 2a 1e 61 3e 32 52 25 be
       -0.20698342 0.28009003 0.21984163 -0.16144636
000330 82 01 9b 3e 35 78 9f 3e 79 3c a3 3e c2 5b a6 be
       0.30274588 0.31146398 0.31882074 -0.3249188
000340 28 74 62 3e ac b6 bc 3e 4c ef db be 53 54 ad be
       0.22114623 0.36858118 -0.42956007 -0.33853397
000350 b8 12 11 3e f3 83 8e 3e 33 71 55 3e 88 65 da 3e
       0.14167297 0.27835044 0.20843963 0.42655587
000360 46 c4 0b 3e e8 8e f0 3e e7 0a b3 3e fd 02 b7 3e
       0.13649091 0.4698403 0.34969255 0.35744467
000370 c9 a2 19 be 87 de b4 3e 52 e7 7b bd ee 34 8c bd
       -0.15003504 0.35326025 -0.0614999 -0.06846033
000380 56 57 57 bc b8 66 3f 3e 33 df 58 bd 89 7e 22 be
       -0.013143381 0.18691528 -0.052947234 -0.15868582
000390 e9 66 2b be 4f 46 27 bc 2b b1 a5 3e e8 23 ba 3e
       -0.16738476 -0.010209634 0.3236173 0.3635552
0003a0 3d e1 a3 3e 65 e2 90 3e d8 30 9e be d6 b6 9c 3e
       0.3200778 0.28297725 -0.3089664 0.30608243
0003b0 8c e9 23 3e 5f 69 9a 3d 13 a8 3c 3e 63 20 cd bd
       0.1600706 0.07539629 0.1842349 -0.10015943
0003c0 ce 7a 8f 3e b0 d8 ad be 45 7d a6 3e 08 21 9c 3e
       0.2802338 -0.33954382 0.32517448 0.3049395
0003d0 be 1d b9 be 8d 6c 81 3e 98 84 6d be 2a 1c 9d 3e
       -0.36155504 0.2527813 -0.23195112 0.3068555
0003e0 1f 3a 02 3e 27 75 c9 bb d8 8e 72 3e 5e f4 36 be
       0.12717484 -0.006147999 0.23687303 -0.17866656
0003f0 a1 1e dd 3e a8 71 b9 3c e7 d4 5a 3e 08 9f 95 be
       0.4318743 0.022637203 0.21370278 -0.29222894

network.6.bias f4 [5]
000000 86 72 21 3e 27 c7 c8 3e de be 65 3e 6c ae da 3e
       0.15766343 0.3921444 0.22436091 0.42711198
000010 eb f6 34 3e
       0.17672317

network.0.weight f4 [128, 16]
000000 5d 7b 98 3d 99 c0 4e 3d 87 f4 92 bc 66 7c 65 3e
       0.07445405 0.050476644 -0.017938865 0.22410735
000010 e5 91 79 bc f0 82 37 be 15 b6 94 3e 7c c2 dc 3d
       -0.015232538 -0.17921042 0.29045168 0.107792825
000020 16 ec e9 3e 4d cc ae 3d 1d e3 06 3c d1 0b 9a bd
       0.45687932 0.08535061 0.008232859 -0.07521785
000030 6c 28 29 be 64 a1 ea 3d 53 64 f6 bd 4e 92 d3 bd
       -0.16519326 0.11456564 -0.12030854 -0.1033064
000040 f7 34 87 3e 48 29 96 3d 99 d8 1e be ea 1f ec 3d
       0.26407596 0.073320925 -0.15512313 0.115295246
000050 f9 5b a6 bd 7e a2 c2 3e 5d 1e 6d bd 1c 16 18 3d
       -0.08123011 0.38014597 -0.057890285 0.03713046
000060 dd 32 f8 3e 57 e8 1a bd 10 0a 21 be 77 99 1b be
       0.48476306 -0.037819233 -0.15726495 -0.15195261
000070 e9 d8 72 3d a9 d0 6b bd b4 05 8f be 3d c9 ee bd
       0.059288893 -0.05757204 -0.2793404 -0.11659477
000080 1e 2e b7 3d ff 70 ba 3e 8c b6 9b 3c fe ab 6e 3e
       0.08944343 0.36414334 0.019007944 0.23307797
000090 b8 1b 3c be f2 3d 90 3e 0e b0 1a 3d 40 39 b1 bd
       -0.18369949 0.2817226 0.037765555 -0.08653498
0000a0 11 46 83 bb fe 95 52 bd 2f 29 32 3e f9 19 32 be
       -0.0040061553 -0.051412575 0.17398523 -0.1739272
0000b0 40 0d 77 3e bc 4b 24 3e f1 5c 2e be f1 02 3f bd
       0.24126148 0.16044515 -0.17027642 -0.046633665
0000c0 6a 51 97 be 5b 23 17 be e0 3a 59 3c 28 48 99 bd
       -0.29554302 -0.14759581 0.013258666 -0.07484466
0000d0 54 71 03 be 9e 3d 40 3d f4 a0 55 be d2 03 85 bd
       -0.128362 0.046933763 -0.2086218 -0.06494869
0000e0 2d cc 3e 3e 9e cd 4d 3d 93 c4 ed bd 81 69 1e be
       0.18632574 0.05024492 -0.11609759 -0.15469934
0000f0 e9 fd f2 3e f6 27 02 bd 1f fc d8 bd 74 b3 56 bb
       0.47459343 -0.03177639 -0.10594963 -0.003276077
000100 3d 45 dd bc 85 20 81 be 77 0f 06 3e b3 59 d7 3d
       -0.027010554 -0.25220123 0.13091837 0.10515156
000110 6d 3a 3e be 21 93 fe bd 99 bc 17 3b b1 4f 4e bd
       -0.18576975 -0.12430406 0.0023153184 -0.05036897
000120 4a 92 bc be e0 93 75 3d dc b6 fa bd ad fe 2c 3d
       -0.3683036 0.059955478 -0.12241909 0.042235065
000130 f1 fe d5 3d 04 eb 62 bd 31 e0 c2 be 8b e0 9a 3e
       0.10449017 -0.05539991 -0.3806167 0.30249438
000140 1b bf e6 3d 74 ba 95 3c 8a a7 0a 3e c9 9d 24 3d
       0.11266919 0.018277384 0.13540474 0.04018954
000150 a5 21 ab 3e 36 86 ff 3e 73 12 4c bd 89 47 34 bd
       0.33424106 0.49907082 -0.049822282 -0.044013534
000160 24 7c 83 3e 0a 5a 1a be fd 40 89 3e 71 e4 4a 3e
       0.2568065 -0.1507341 0.26807395 0.19813706
000170 67 da a1 3e 7c ce 7a 3e 19 d1 4c be 28 46 65 be
       0.3161194 0.2449283 -0.2000164 -0.22390044
000180 dc 8d 6d 3e c4 41 82 3e a1 36 98 3d 39 8f b6 bd
       0.23198646 0.254408 0.07432295 -0.08914036
000190 9b 2c 61 3d f6 7f 94 3e da 23 63 3e 6c 12 cc 3d
       0.05497418 0.29003876 0.22181645 0.09964451
0001a0 39 53 18 be 7c bb 6b 3e 27 8b 9a be 4a 54 15 be
       -0.14875497 0.23020738 -0.3018429 -0.14582935
0001b0 27 c8 d6 3e 47 10 88 bd 44 f8 ef 3d e3 d5 3f 3e
       0.4194958 -0.0664373 0.11717275 0.18733935
0001c0 1e 27 9b be 1f b7 48 bd 64 e3 3c 3b 1b 57 04 be
       -0.30303282 -0.049002763 0.0028822059 -0.12923853
0001d0 c7 e1 ac 3d ef a3 a0 be 19 2a 40 be 75 13 8d 3d
       0.08441501 -0.3137507 -0.18766059 0.06888477
0001e0 31 87 48 be 50 61 eb bd 08 2a 34 be 9c 4f 84 3d
       -0.19582821 -0.1149317 -0.17594159 0.06460497
0001f0 00 98 18 bb 29 51 0a be 9b ce db be a3 60 e1 bd
       -0.0023283958 -0.13507523 -0.42931065 -0.1100476
000200 3b 95 fd bd 4c 68 fa bc 58 83 ab 3b 5d 38 03 be
       -0.12381979 -0.03056731 0.0052341633 -0.1281447
000210 05 f3 3d bd 20 c7 61 be cb 86 a5 3d 45 ad d9 bd
       -0.04637434 -0.22048616 0.0808235 -0.10628752
000220 7a 3f 02 3e 53 80 39 3e 37 79 95 be 93 74 af 3d
       0.12719527 0.18115358 -0.29194042 0.08567157
000230 ef 7a ff bc a9 19 6b bd b6 e6 ed be d5 20 1c be
       -0.031186549 -0.05739752 -0.4646508 -0.152469
000240 cd 32 87 be 80 6f 8d be 60 88 3d 3e 1a 78 9a 3d
       -0.26405945 -0.2762413 0.18509054 0.07542439
000250 45 4e eb 3e a3 1e ab 3d c2 04 1c bd d7 6f 87 bd
       0.45958152 0.08355453 -0.038090475 -0.06613129
000260 f5 44 33 bc b5 4e 39 be fa 7f c9 3d 51 b4 35 3e
       -0.010941734 -0.1809643 0.09838863 0.17744567
000270 8e 60 ef 3d f1 1b b4 bd 29 2b 43 be f9 bd 1f 3e
       0.11688338 -0.08794392 -0.19059433 0.15599813
000280 de 82 ba 3e 5f df 9f 3e 8f f8 94 3d 2e 2c c0 bc
       0.3642797 0.31225106 0.07273971 -0.023458567
000290 a9 0b 7a be 9b 88 b7 3e 17 e7 22 3d 4e b6 d7 bd
       -0.2441851 0.3584641 0.039771166 -0.10532819
0002a0 e5 8a 49 3e 38 b2 cf bd 13 53 1b bd 84 a3 2d 3e
       0.1968189 -0.101414144 -0.037921023 0.16956908
0002b0 da 58 37 3e 45 79 c5 3d 40 f4 3f be 05 75 c7 3d
       0.17904988 0.09642271 -0.18745518 0.097391166
0002c0 55 df 26 3d 13 5d 94 3e 13 f3 32 bc 76 c5 d3 bd
       0.04074033 0.2897726 -0.010922211 -0.10340397
0002d0 38 89 3c be a9 03 81 be df 85 6c 3e af 75 dd bd
       -0.1841172 -0.25198105 0.23097943 -0.10813462
0002e0 6c 1f ca 3e 2e 78 82 bc 1e 5c 31 be 6a bc 19 3e
       0.39477098 -0.015926447 -0.17320296 0.1501328
0002f0 fc f4 12 3d f8 1d cf 3d 7a 1e 3e 3e fa 54 08 3e
       0.035878167 0.10113138 0.18566313 0.13313666
000300 74 e6 b5 be f3 b8 6e bc e9 fe ba bd c3 40 cb bd
       -0.35527384 -0.0145704625 -0.091306515 -0.09924462
000310 f7 fe 86 3e 7d f2 47 3d 16 87 83 be 55 c2 34 3d
       0.26366398 0.04881524 -0.25689 0.044130642
000320 22 89 ad bc dd dd f1 bb 70 71 28 bd cc 81 00 bd
       -0.021183554 -0.0073811845 -0.041123807 -0.031373784
000330 0b ae a8 be 4d 11 e3 3c 9e 6c d4 be ca bb 82 be
       -0.32945284 0.02771821 -0.41489118 -0.25533897
000340 6f e6 69 3e fa 24 11 3e 41 fb 7f 3d 1b ef 86 3e
       0.2284181 0.14174262 0.062495474 0.26354298
000350 af b7 eb bd 3f 29 87 be 23 78 7e 3d 6a 33 35 be
       -0.11509644 -0.26398656 0.06212629 -0.17695394
000360 33 48 41 3b 9b 9b 10 be b0 1e bd bc 6b 1b 31 3d
       0.0029492497 -0.14121859 -0.023085922 0.04323904
000370 ed 95 70 3c fd 74 7c 3d 54 10 f0 3e 89 aa 07 be
       0.014684183 0.061635006 0.46887457 -0.13248648
000380 8e 2c 01 bf 38 e7 13 be 57 a7 fb bd 78 ed 01 bd
       -0.5045861 -0.14443672 -0.12287777 -0.03172061
000390 f7 2b ab 3e 0e 68 b5 3d cc d9 86 bc 1b c4 fc bc
       0.3343198 0.088577375 -0.016461276 -0.03085523
0003a0 ea d2 03 bd eb 93 4c bd d3 1e 68 bd 59 c3 0f 3e
       -0.032183565 -0.049945753 -0.05667002 0.14039363
0003b0 a2 ca 7e be 1c a1 f9 ba de 9e b3 bb 82 be be 3d
       -0.24881986 -0.0019045207 -0.005481585 0.0931368
0003c0 dc 2d 86 3d ae 6b 39 be d2 38 81 bc 19 d8 98 3c
       0.06551716 -0.18107483 -0.015774164 0.01865773
0003d0 a0 dd af bd 43 9a 1d be 87 d9 06 be 1c 08 c1 3d
       -0.085871935 -0.15390877 -0.13168918 0.09425375
0003e0 32 0b 90 bd 7b 66 97 bc c7 77 7d 3d b1 fb 09 3e
       -0.07033385 -0.018481484 0.061881807 0.13474919
0003f0 7b f0 d7 3d 95 28 bb 3d 64 4e 3d 3e 48 a8 19 3d
       0.10543915 0.091386 0.18486935 0.037514

network.0.bias f4 [128]
000000 c3 e3 d3 3d 13 12 07 3d e2 eb da 3d fd 8c 1f be
       0.103461765 0.03297622 0.10689522 -0.15581127
000010 2d f5 37 bd 9e 0b 1d 3e 2a cd b7 3d da d8 b3 bd
       -0.044911552 0.15336463 0.08974679 -0.087815955
000020 18 c4 97 bc b4 82 f4 3d 4f 68 b5 3d 72 be 3a 3d
       -0.018526122 0.11938992 0.08857786 0.04559178
000030 69 ce a1 bd 86 d1 9a 3d fc 21 06 bd 00 00 00 00
       -0.07900698 0.07559495 -0.032747254 0.0
000040 24 92 15 3d f6 e6 0c bd 5b 80 fd bc 2a ef f2 3d
       0.036516324 -0.03439995 -0.030944994 0.11862023
000050 62 41 22 3e 17 a7 3b 3d f6 df 7d 3d 4e b5 de 3d
       0.15845254 0.045813646 0.061981164 0.10874425
000060 fa 28 d7 3d f4 48 bd 3d 06 f1 56 bd 8e 25 fe bc
       0.105058625 0.0924243 -0.05247595 -0.031023767
000070 e3 f4 30 3e 5f 37 df 3d cd 9a 2c bc d5 66 a4 bd
       0.17280917 0.10899233 -0.010534954 -0.08027426
000080 00 00 00 00 6a 0b 06 3e 70 56 a4 bd 4e 78 56 bd
       0.0 0.13090292 -0.08024299 -0.052360825
000090 88 48 c7 bd 4a 4a 92 3d ea a2 d7 3d df 80 ac 3d
       -0.09730631 0.07143076 0.1052912 0.08423018
0000a0 fa b6 fa 3c 64 fd 6f bd ce 81 e1 bb 00 00 00 00
       0.030604828 -0.05859126 -0.006881929 0.0
0000b0 81 65 0d 3e c7 65 11 3e d9 23 cc 3d ad 20 7e 3c
       0.13808252 0.14198981 0.09967775 0.01551072
0000c0 e4 6d ff bd 00 00 00 00 f9 9c ca bd 1d 62 7e bd
       -0.12472132 0.0 -0.098932214 -0.062105287
0000d0 05 51 9b 3d 3f df 02 3e 77 af d9 3d 9d 52 fd bd
       0.075838126 0.12780474 0.106291704 -0.12369273
0000e0 17 f3 14 3e ba fa 86 3d 9e d5 12 3e ad 16 81 3d
       0.14545856 0.06590791 0.14339301 0.06303153
0000f0 ed 86 a4 bd 69 b1 00 3d 03 93 da bc 99 e1 98 bd
       -0.080335476 0.03141919 -0.026681429 -0.07464904
000100 b0 19 01 3e 19 1a 19 bd 79 02 a7 bc 32 2c 0d be
       0.12607455 -0.037378404 -0.020386921 -0.1378639
000110 e0 12 f0 3d dd 91 d4 bd 00 00 00 00 3a 42 09 3d
       0.1172235 -0.10379384 0.0 0.033510424
000120 f2 f0 cd 3d 67 2c e9 bc ce a0 7c bd 37 3d 58 bd
       0.10055722 -0.028463555 -0.061676793 -0.052792754
000130 9a 98 95 3d 54 ed 85 3d 3b 63 6f bc 00 00 00 00
       0.07304497 0.06539407 -0.014611061 0.0
000140 0e 19 ae 3d fe e4 44 3e 3f f0 d0 3c f2 08 e1 3d
       0.085008726 0.19227979 0.025505183 0.10988034
000150 fa fb 07 3e e5 bd 94 bc 4e 26 c5 3d 2e 3f eb bb
       0.13279715 -0.018156955 0.09626447 -0.0071791625
000160 7b 09 12 bc 4a e2 d9 3d f7 b8 f4 3d b6 02 62 3d
       -0.008913393 0.10638864 0.11949342 0.055178367
000170 00 00 00 00 09 b5 6e bb 27 62 f0 3d ed f7 ff bb
       0.0 -0.0036423823 0.11737471 -0.0078115375
000180 e7 1a bd bc b8 ec 14 3e a3 c7 9a 3d 18 01 3b bd
       -0.023084117 0.14543426 0.07557609 -0.04565534
000190 ff b4 25 bd 62 27 3c 3e 70 a8 59 3c 87 98 9e bd
       -0.040455814 0.18374398 0.013284788 -0.07743936
0001a0 41 56 b5 3c 49 e7 8b 3d ba 95 a4 3d 6a a7 14 be
       0.022135856 0.068312235 0.080363706 -0.14516988
0001b0 e7 3a bf 3d bb 23 b5 3d 46 28 59 3d 0d 58 9c 3d
       0.093374066 0.08844706 0.053016923 0.07633982
0001c0 de 3a fa bc 01 dd 05 be d0 e8 06 be ac 75 d5 3c
       -0.030545648 -0.13072588 -0.13174748 0.026057087
0001d0 33 08 a9 bc 78 54 d6 3d 58 3d 01 3e 89 de 10 3e
       -0.020633793 0.1046533 0.12621057 0.1414739
0001e0 fd ba f5 3d 4f 03 81 3d 9c ac b1 3d f9 ec 58 3d
       0.11998556 0.06299459 0.08675501 0.05296037
0001f0 e6 e9 16 3e 9b 41 bd bd 07 18 a5 bd e3 ce df 3d
       0.14737663 -0.09241029 -0.080612235 0.109281324

network.3.weight f4 [128, 128]
000000 9c aa 5a 3e ed e5 60 bc 8d 09 88 3e 0b a0 a4 3d
       0.21354145 -0.013726694 0.26569787 0.08038338
000010 cd f7 0a 3d 36 91 0f 3e 42 9e 67 3e 0e d2 1d 3d
       0.033927727 0.14020237 0.22618964 0.038530402
000020 89 7d 0b bd 70 24 78 3d bb 34 82 bc 41 19 00 3e
       -0.034055267 0.060581625 -0.015894284 0.12509634
000030 e6 be 5a be 43 3a 17 3e 16 3d 43 3d 4b 86 b3 bd
       -0.21361884 0.14768319 0.047665678 -0.08765849
000040 bd d0 b7 3d d9 6e 1b bd c6 d4 0d be ab e3 f1 3d
       0.089753605 -0.03794751 -0.13850698 0.11811002
000050 f0 80 31 3e 78 22 30 3e 1a af c7 3d b0 85 68 3e
       0.17334342 0.17200649 0.09750195 0.22707248
000060 2a 46 2e 3e ef 94 10 3e d5 70 f5 3d 37 2d 08 3d
       0.17018953 0.14119314 0.119844116 0.033246245
000070 c6 75 c0 3c 9a 71 70 3e 3b e5 6f be 28 e4 8e bc
       0.023493659 0.23480836 -0.23427288 -0.017442778
000080 96 8e 3e 3c 93 7d 36 3e 3d 70 94 bd 32 a6 c7 3d
       0.011630675 0.1782134 -0.0724797 0.09748496
000090 26 93 a9 be dd 1a 61 3e cc ce 28 3e 0c 3c 91 bd
       -0.33120078 0.21982904 0.16485137 -0.07091531
0000a0 91 f2 4e bd e6 eb 14 3d 02 d5 16 3e 35 1b 68 3d
       -0.050524298 0.036357783 0.14729694 0.05666657
0000b0 d5 be c5 3e 1b 7a 09 3e 82 b1 7a 3e 51 a5 bb 3e
       0.38622156 0.13425486 0.24481776 0.36649564
0000c0 ff a6 de be 6d 6a 0f 3d 89 45 38 be 49 a8 ad bd
       -0.43486783 0.035013605 -0.17995276 -0.084793635
0000d0 b0 74 2d bd 94 f0 56 3d e5 c3 57 bc 4e a0 02 bb
       -0.04234761 0.052475527 -0.0131692635 -0.0019931975
0000e0 50 15 72 3e cb 6b bb bd bd a2 d2 bd 85 5e 73 3e
       0.23640943 -0.09151419 -0.10284946 0.23766525
0000f0 9e b8 f6 bd 67 56 d2 3d ae be 1a bd e3 f7 f5 bd
       -0.12046932 0.10270386 -0.037779503 -0.12010171
000100 30 91 b7 39 eb e6 bf 3c 52 c2 08 bd c5 cf 90 be
       0.00035012653 0.02342554 -0.033388443 -0.28283516
000110 ca 76 38 3e c5 80 7b be 93 72 18 bd 0e 9a 4d 3d
       0.18014064 -0.2456084 -0.03721864 0.050195746
000120 39 6a 3c 3e d0 94 1f 3d f9 cb c0 bd 1d 6a e4 bd
       0.18399896 0.038960278 -0.09413905 -0.11153052
000130 ed fb 90 bb ab 96 ba 3d 8e a0 ae 3c 24 9f ad bd
       -0.004424563 0.09110769 0.021316793 -0.08477619
000140 1b ec 26 3e 00 23 3e 3e 85 5a c1 3d 88 50 95 3e
       0.16301005 0.18568039 0.09441093 0.29163003
000150 9d 6d 80 3c 36 7b 0f bd 92 55 1f 3e f9 b0 a5 bd
       0.015677268 -0.035029612 0.15559986 -0.080903955
000160 de c0 80 3c 9f bc 80 3e a1 5e 07 3e e7 36 72 3e
       0.015716966 0.25143906 0.13219692 0.23653756
000170 0b 5c bc 3a b2 98 0d 3e 9c 4f 16 3d 58 37 4a 3e
       0.0014370693 0.1382778 0.036697015 0.19747674
000180 11 81 5d 3e ca 13 c7 3e a5 3d 98 3e 9f 5a 32 be
       0.21631266 0.38882285 0.2973453 -0.17417382
000190 c3 f4 35 3e 87 01 9a 3e c1 9d a2 bc c2 92 41 ba
       0.1776915 0.3007929 -0.019850614 -0.00073842343
0001a0 9f c2 3f 3e cd 38 94 3e e3 83 39 3e 96 35 19 be
       0.18726586 0.28949586 0.18116717 -0.14961848
0001b0 c8 95 39 3d 48 a6 5d 3d 95 fa 63 3e 19 2a 18 3e
       0.04530886 0.054113656 0.22263558 0.14859809
0001c0 a8 4c 0d 3e 53 28 4b be 1a b1 02 be ae d0 2b 3e
       0.13798773 -0.19839601 -0.12762871 0.16778824
0001d0 d0 5f ff 3d 98 92 96 3e 45 36 9b 3e 4b 63 14 3d
       0.12469447 0.29408717 0.30314842 0.036227506
0001e0 0a 30 a0 3e 98 a2 b8 3d 10 7b b3 3d c7 16 d9 3d
       0.3128665 0.09015387 0.08763707 0.106000476
0001f0 d5 21 c1 3d 39 7d 2b bd 7c 77 34 3d f8 8e 23 3e
       0.09430281 -0.04186747 0.04405926 0.15972507
000200 95 3e 2a 3d 31 31 68 bc 85 f0 59 3e ad bb 31 3e
       0.04156359 -0.014171884 0.21283157 0.17356749
000210 0e 2a ea 3d cc 3e e0 3c a1 2f 36 3e d9 8b 77 3d
       0.114338025 0.027373694 0.17791606 0.060436103
000220 aa 93 54 bd f9 25 9b 3e 73 c8 a2 3d 65 9f 69 be
       -0.051898636 0.30302408 0.07948389 -0.2281471
000230 5c b7 4c be 3d 0c 1b 3d ef 15 b9 ba 50 01 60 bb
       -0.19991821 0.03785347 -0.0014120917 -0.003418047
000240 ed 0a 15 3d f9 a0 7b be bc 9c 4c 3d 42 ea e1 3d
       0.036387373 -0.24573125 0.04995416 0.11031009
000250 b7 b7 f5 3d d8 ef a5 3c 1e 8b 77 3c c8 1a 0a 3e
       0.119979315 0.020255968 0.015108852 0.13486779
000260 94 70 4e bd 3c 05 bf 3c 56 1b 85 3e 8f fc 2b bc
       -0.05040033 0.023317926 0.25997418 -0.010497226
000270 13 a0 10 3e 35 7d 8a 3e 7b e0 86 3d 43 bc 0c 3e
       0.14123563 0.2704865 0.06585785 0.13743691
000280 40 c0 ff 3d 6f 88 f3 3d 86 1a a8 3d f3 bc dc bc
       0.12487841 0.11891257 0.08208184 -0.026945567
000290 5d 5d 42 be 9f f1 63 3e b1 ba 1e 3d b0 b4 67 3d
       -0.18980928 0.2226014 0.03875226 0.0565688
0002a0 3e 80 1c be af 6a 0f bd 55 fe 20 3e 84 9a 0e be
       -0.15283296 -0.03501385 0.1572202 -0.1392613
0002b0 12 5f 2f 3e 79 a4 2a 3e 4b 27 37 be 48 0f 20 3d
       0.1712611 0.16664304 -0.17886083 0.039077073
0002c0 9e f2 fa bd 2d fe cf 3d a3 60 44 be 26 68 89 be
       -0.12253307 0.10155902 -0.19177489 -0.2683727
0002d0 fd 6a 97 3e 8f 63 93 3e ba 7c 28 be 23 50 ca bd
       0.29573813 0.28786895 -0.1645383 -0.09878566
0002e0 c8 b3 44 3d 5b 74 02 3e 12 f2 45 bc 48 81 fa 3d
       0.048023015 0.12739699 -0.01208164 0.1223169
0002f0 65 da ef bd 6c b3 95 3d cf d8 80 3e 83 42 12 be
       -0.11711577 0.07309613 0.25165412 -0.14283185
000300 f2 80 8c 3d 13 18 2b be 4b 07 8e 3c f7 0e 30 be
       0.06860532 -0.16708402 0.017337462 -0.17193209
000310 4b 63 0f bc 87 c1 82 bd 89 10 5b bd a9 44 10 be
       -0.008751701 -0.06384569 -0.053482566 -0.14088692
000320 ea 72 b8 3e f9 1b b8 3d ad 28 8e bc 48 86 0e be
       0.36025172 0.0898971 -0.01735338 -0.13918412
000330 ff 1b b0 bd 7f d7 a7 3d 71 24 f1 3d 24 12 12 bd
       -0.0859909 0.081953995 0.11774529 -0.03566183
000340 07 a2 5f 3c b1 89 b7 bd 39 c8 22 3e 72 12 1b 3e
       0.01364947 -0.089618094 0.15896691 0.15143755
000350 76 8a 54 3e 27 2e 1d 3d db 40 2d 3e c0 1b 3a bc
       0.20755944 0.038374092 0.16919272 -0.011359155
000360 71 88 8e 3e 37 93 8d 3e 30 46 04 bd 84 fe 4a 3e
       0.27838472 0.2765138 -0.0322935 0.19823653
000370 00 b5 d0 bd 50 5e 25 3d 16 20 fb 3d 29 5b df bd
       -0.10190773 0.040373147 0.12261979 -0.10906059
000380 b1 a4 01 be 00 dc 1b 3e 1b 92 dd 3d 8c bb 06 be
       -0.12660481 0.15220642 0.10818883 -0.13157481
000390 32 33 27 3e 22 c2 a0 3e e9 f4 49 be ef 64 e9 bd
       0.16328123 0.31398112 -0.19722332 -0.11396205
0003a0 3b 4a 95 3d 89 fa f2 bc 96 81 26 3c 69 96 15 3c
       0.07289549 -0.02966048 0.010162732 0.009130099
0003b0 20 e5 28 bd 53 e2 32 3d c2 1b 4b 3e df f2 19 3e
       -0.041234136 0.04367287 0.19834808 0.15034054
0003c0 65 2d 0d be 27 b6 2a bd 8e 8d 9b be 4a d5 a7 3d
       -0.13786848 -0.04167762 -0.30381435 0.081949785
0003d0 39 2e bb 3c 70 df 9d bd 3e 2a f9 3d 83 da f8 3d
       0.02284919 -0.07708633 0.1216626 0.12151053
0003e0 55 f5 44 3e e1 07 1a 3e 3b 12 8c 3e 34 66 80 3d
       0.19234212 0.15042068 0.2735766 0.06269494
0003f0 e5 07 98 3e 26 92 de bd 77 d2 2c 3e ee 50 16 3e
       0.29693523 -0.10867719 0.16877161 0.1467931

network.3.bias f4 [128]
000000 ea f1 04 3f 33 ae b8 3e 56 f4 d1 3e dc 62 f3 3e
       0.5193163 0.36070403 0.41006726 0.4753636
000010 21 ad da 3c 64 ad d8 3d 28 50 2d bd ec 5f c0 bd
       0.026693882 0.10579947 -0.04231277 -0.09393296
000020 1a bc c4 3e 37 77 59 3d 7b 04 7d 3e 1a f5 ad 3e
       0.3842476 0.053092208 0.2470874 0.3397606
000030 3c 1c c1 3e eb be ca 3e 0e 01 ae 3e d9 04 7c bd
       0.37716854 0.39598784 0.3398518 -0.06152806
000040 b2 80 fe 3e a6 8d 17 3d 86 2b ab bc 5a 11 31 3f
       0.49707562 0.03700032 -0.020894777 0.691671
000050 df 95 3c bd 73 1a ed 3e 03 db 06 3f dc 6b 4f 3e
       -0.046041366 0.46309242 0.52677935 0.20255989
000060 57 be 56 bc bc c7 1e bd 09 34 e0 3e 0b 22 dd 3e
       -0.013106904 -0.0387647 0.437897 0.43190035
000070 c1 61 b3 bc e9 58 c7 3e b6 0e fd 3e a7 3a b7 bd
       -0.021897199 0.3893502 0.49425286 -0.08946734
000080 4f 64 a0 bd d4 90 a7 3e 9f 69 b8 3e a7 b0 7c bd
       -0.07831632 0.32727683 0.36018082 -0.061691906
000090 92 27 4f bd 51 58 d0 3e 0c 6b de 3d 73 a5 80 3e
       -0.050574847 0.4069238 0.10860261 0.25126228
0000a0 3d 6d 1c 3d c0 16 24 bc 7d 90 9e 3e 87 33 c0 bd
       0.038190115 -0.01001519 0.3096961 -0.09384828
0000b0 f0 cf 4e bd 82 03 b3 bd 69 86 a3 bd f7 a0 74 3d
       -0.050491273 -0.087409034 -0.07984621 0.05972382
0000c0 dd 52 84 3e e3 e8 8a 3d f4 0f dc 3e 39 c8 a6 bd
       0.2584447 0.06782701 0.4298092 -0.08143658
0000d0 31 21 5a bd 94 7e bd bc e2 fa f4 3e d2 f0 ac 3e
       -0.05325431 -0.023131646 0.47847658 0.3377748
0000e0 aa ac 3a bd cc 46 50 bd 89 8f 04 3f 7d ed ee 3e
       -0.04557482 -0.050848767 0.5178152 0.46665564
0000f0 ec 9f 88 bd 74 fa b2 3e b1 af be 3e 4b 68 82 3e
       -0.06671128 0.34956706 0.37243417 0.25470194
000100 04 85 75 bd 81 95 ca 3d 87 95 0b 3e c4 d1 ad bd
       -0.059941307 0.09891797 0.13631259 -0.08487275
000110 00 6a a2 3e e5 de 2f 3e 81 34 c2 3e 97 4e bb 3e
       0.31721497 0.17174871 0.37930682 0.36583397
000120 53 0a c0 bc 80 3c d1 3e d0 24 cb 3e 0f ae 81 bd
       -0.023442423 0.4086647 0.39676523 -0.06332027
000130 66 d4 0e 3f 80 1b aa 3e 36 ae d9 3e e5 6b 7e bd
       0.55792844 0.33224106 0.42515725 -0.062114615
000140 fa 70 06 3e cd 8d de 3e fd 6e 88 bd 6e 26 32 bd
       0.13129035 0.4346756 -0.06661794 -0.04349368
000150 e4 59 f3 bc 98 35 39 3e c1 14 29 3d 7e 9d ad 3e
       -0.02970595 0.1808685 0.041279558 0.3390922
000160 7a 21 16 3d a7 93 92 3e 1a 0c f7 3e a7 fa a5 3e
       0.03665302 0.28628275 0.4825142 0.32417795
000170 51 ad a7 3c 2b 45 ca 3e 00 88 ed 3c 6b 38 f7 bd
       0.020468386 0.39505896 0.028995514 -0.12071308
000180 28 c5 35 bd dd 55 98 3e a5 ce db bc 04 c5 60 bd
       -0.044377476 0.29753008 -0.026831934 -0.05487539
000190 c9 1a 89 bd cb c0 4c bd bc f0 b0 3e ac c5 d8 3e
       -0.06694562 -0.04998855 0.34558666 0.42338312
0001a0 4a 48 b4 3e 5c 3e 03 3f 6d 32 81 bd ca 86 df 3e
       0.35211402 0.5126703 -0.06308446 0.43657523
0001b0 95 bf 87 3e 18 5f 6a 3e a8 67 a9 3e f2 53 3f bd
       0.26513353 0.22887838 0.33086896 -0.046710916
0001c0 69 85 e5 3e 29 cf c6 bc 1a c9 e8 3e 79 8e e2 3e
       0.44828346 -0.024268704 0.45465928 0.44249323
0001d0 bb 37 a0 bd 7b cb 1e 3e ed a6 1d bd 74 71 a9 3e
       -0.0782313 0.15507309 -0.03848927 0.3309437
0001e0 3d 88 e2 3c e1 09 21 bd 35 04 d4 3e df 1c 1a bd
       0.027652854 -0.039316062 0.4140946 -0.03762519
0001f0 b7 2a 01 3f 07 77 82 bc 35 78 c0 3e cb dd 42 bc
       0.504558 -0.015925897 0.3759171 -0.0118937
