教学演示项目/项目1_强化学习智能体训练/results/results/model_episode_1800.pth (torch, 869205 bytes, 24 tensors)

network.0.weight f4 [128, 16]
0.093087964 0.046562333 -0.081242196 0.16080476 -0.33523476 -0.29392618 0.24816343 -0.040626533
0.48075965 0.069851264 -0.08938638 -0.07521785 -0.10231181 0.04189248 -0.0706386 -0.069445066
0.18519107 0.24431224 -0.18618993 0.08422815 -0.41244426 0.10618945 -0.053287055 0.23404779
0.79618585 0.19146374 -0.097477436 -0.15195261 0.0813072 -0.0445415 -0.17592865 -0.16487297
0.101111665 0.28425536 -0.015349193 0.19872041 -0.4641567 0.3244368 0.017899733 -0.0631941
0.034159727 0.006311304 0.086568564 -0.1739272 0.042563878 0.085336626 -0.0026281097 -0.0029832309
-0.30529273 -0.15821977 0.0041780923 -0.083925314 -0.13091889 0.03722023 -0.2175317 -0.08809102
0.18632574 0.056913696 -0.09002218 -0.15469934 0.46222654 -0.022379156 -0.09652276 0.006308635
-0.003063814 -0.36737007 0.11397765 0.08821119 -0.34648296 0.21855772 -0.03310038 -0.12416529
-0.34767652 -0.059428558 0.04203236 0.042235065 0.16901524 0.033440705 -0.3464387 0.35735458
0.15487394 0.03637518 0.07331797 -0.02189764 0.034686655 0.5464859 -0.10819567 0.004242613
0.097130336 -0.26397416 0.4717061 0.19813706 0.07614565 0.13683857 -0.0869788 -0.050818764
0.28005362 0.03557556 0.05855557 -0.10490795 -0.06841058 0.6393342 0.19439958 0.06894127
0.011220826 0.14494236 -0.021383042 -0.14582935 0.26572564 -0.050873995 0.074598014 0.35371706
-0.7757993 -0.6105711 -0.17721587 -0.30933598 0.007316911 -0.42736375 -0.36817056 0.061543748
-0.21215795 -0.07555935 -0.24033384 0.06460497 -0.387247 -0.14663498 -0.4332861 0.05615485
0.014555931 0.0061571724 -0.04329599 -0.1766749 -0.30916327 -0.13794059 0.02323653 0.031352606
0.5118686 0.14494835 -0.2850132 0.08567157 0.07163618 -0.08999538 -0.6695379 -0.14315741
0.022638548 -0.066454366 0.17890465 0.069238044 -0.0813908 0.07088446 -0.025621941 0.077269666
-0.033775914 -0.18277441 0.12056213 0.17744567 -0.021354245 -0.023054896 0.048131756 0.0012033057
0.2679757 0.25081262 0.053523347 -0.042674847 -0.37328923 0.33982688 0.0393544 -0.09489299
0.05516719 -0.0041549127 0.033609405 0.16956908 0.21481624 0.021605823 -0.021611122 0.06674688
0.121080264 0.17769396 0.007893195 -0.084588386 -0.37112 -0.087057985 0.26059562 -0.08417859
0.48125872 0.024032012 -0.08113266 0.1501328 0.093063876 0.10482754 -0.10738498 0.032912347
-0.95675987 -0.6893004 -0.2202135 -0.22815165 0.2459611 -0.03940181 -0.3850378 -0.019507913
-0.1247636 0.015735237 -0.1717404 -0.031373784 -0.39890906 -0.10088597 -0.3379759 -0.20621741
0.29575348 0.111790225 0.05894019 0.25998807 -0.38536462 -0.22081022 0.07556969 0.0041039377
0.03992293 0.028183628 0.04140027 0.04323904 0.016615542 0.011048121 0.16999169 0.07039956
-0.8518795 -0.63852376 -0.29961812 -0.20846178 0.18247068 -0.08364978 -0.19286233 0.04290024
-0.13927671 -0.07897853 -0.1966258 0.14039363 -0.33477867 -0.1373872 -0.28928107 -0.06962221
0.06551716 -0.18107483 -0.015774164 0.01865773 -0.085871935 -0.15390877 -0.13168918 0.09425375
-0.07033385 -0.018481484 0.061881807 0.13474919 0.10543915 0.091386 0.18486935 0.037514
00000000: e7a4 be3d 25b8 3e3d 4f62 a6bd 01aa 243e
00000010: e4a3 abbe 7e7d 96be 8e1e 7e3e 0268 26bd
00000020: 2126 f63e 2e0e 8f3d 3510 b7bd d10b 9abd
00000030: db88 d1bd 7397 2b3d f8aa 90bd 3739 8ebd
00000040: baa2 3d3e fd2c 7a3e 93a8 3ebe cf7f ac3d
00000050: e52b d3be db79 d93d 8743 5abd 39aa 6f3e
00000060: d6d2 4b3f 120f 443e 40a2 c7bd 7799 1bbe
00000070: 6484 a63d 2671 36bd a426 34be 76d4 28be
00000080: a213 cf3d eb89 913e 2e7b 7bbc 5d7d 4b3e
00000090: f2a5 edbe 951c a63e 76a2 923c e96b 81bd
000000a0: 12eb 0b3d 0ecf ce3b dc4a b13d f919 32be
000000b0: 7657 2e3d f8c4 ae3d 5d3c 2cbb 4f82 43bb
000000c0: 544f 9cbe 5d04 22be 61e8 883b 09e1 abbd
000000d0: 9a0f 06be 3d74 183d a1c0 5ebe 1169 b4bd
000000e0: 2dcc 3e3e 561e 693d 8c5d b8bd 8169 1ebe
000000f0: f5a8 ec3e 7e54 b7bc baad c5bd abb8 ce3b
00000100: 45ca 48bb ee17 bcbe 1d6d e93d 12a8 b43d
00000110: 3766 b1be 98cd 5f3e 4494 07bd 5f4a febd
00000120: a802 b2be 5c6b 73bd 202a 2c3d adfe 2c3d
00000130: 5512 2d3e 1ff9 083d 6a60 b1be 2ef7 b63e
00000140: 4697 1e3e 24fe 143d bb27 963d ae62 b3bc
00000150: 9813 0e3d 80e6 0b3f b195 ddbd 9e05 8b3b
00000160: 45ec c63d 9f27 87be 7683 f13e 71e4 4a3e
00000170: 40f2 9b3d 691f 0c3e f121 b2bd 5627 50bd
00000180: 3063 8f3e aeb7 113d f7d7 6f3d fbd9 d6bd
00000190: d91a 8cbd 68ab 233f af10 473e 1531 8d3d
000001a0: 8ed7 373c c56b 143e 7d2b afbc 4a54 15be
000001b0: 310d 883e 4061 50bd d8c6 983d 671a b53e
000001c0: c89a 46bf 634e 1cbf 1478 35be 4961 9ebe
000001d0: b3c2 ef3b 6ccf dabe da80 bcbe 4c15 7c3d
000001e0: ef3f 59be dcbe 9abd 131a 76be 9c4f 843d
000001f0: 3d45 c6be 7b27 16be add7 ddbe a102 663d
00000200: 007c 6e3c 1bc2 c93b 2357 31bd 44ea 34be
00000210: a64a 9ebe 4c40 0dbe 895a be3c 976b 003d
00000220: d209 033f 576d 143e 40ed 91be 9374 af3d
00000230: fdb5 923d 7f4f b8bd d666 2bbf db97 12be
00000240: 7a74 b93c 3a19 88bd c832 373e adcc 8d3d
00000250: 38b0 a6bd df2b 913d 1be5 d1bc 8f3f 9e3d
00000260: 9d58 0abd 3729 3bbe 47e9 f63d 51b4 353e
00000270: 19ef aebc 9fdd bcbc ce25 453d 3db8 9d3a
00000280: 1c34 893e 836a 803e 4c3b 5b3d d2cb 2ebd
00000290: c41f bfbe cafd ad3e 1432 213d 4257 c2bd
000002a0: fef6 613d ef25 88bb 04aa 093d 84a3 2d3e
000002b0: caf8 5b3e b2fe b03c cf09 b1bc 97b2 883d
000002c0: eef8 f73d 68f5 353e 7652 013c ad3c adbd
000002d0: 7103 bebe 754b b2bd ca6c 853e d365 acbd
000002e0: 8b67 f63e c8de c43c e128 a6bd 6abc 193e
000002f0: 4698 be3d d2af d63d a8ec dbbd 19cf 063d
00000300: 37ee 74bf fe75 30bf a67f 61be 96a0 69be
00000310: 3add 7b3e cb63 21bd ad23 c5be 0fcf 9fbc
00000320: 0f84 ffbd 2fe7 803c b7dc 2fbe cc81 00bd
00000330: cf3d ccbe 4e9d cebd 2d0b adbe a82a 53be
00000340: 006d 973e 46f2 e43d 456b 713d 281d 853e
00000350: 834e c5be 131c 62be 48c4 9a3d 537a 863b
00000360: 3a86 233d 5ae1 e63c 5493 293d 6b1b 313d
00000370: 511d 883c 2e03 353c 4d12 2e3e a52d 903d
00000380: c614 5abf 4b76 23bf 8c67 99be 0177 55be
00000390: 98d9 3a3e 9350 abbd b47d 45be 29b8 2f3d
000003a0: 8e9e 0ebe 7fbf a1bd 4658 49be 59c3 0f3e
000003b0: 1c68 abbe 3baf 0cbe a61c 94be 1796 8ebd
000003c0: dc2d 863d ae6b 39be d238 81bc 19d8 983c
000003d0: a0dd afbd 439a 1dbe 87d9 06be 1c08 c13d
000003e0: 320b 90bd 7b66 97bc c777 7d3d b1fb 093e
000003f0: 7bf0 d73d 9528 bb3d 644e 3d3e 48a8 193d

network.0.bias f4 [128]
0.040158562 0.0019090195 0.072538145 -0.16489153 -0.06185201 0.09127815 0.07397916 -0.26791307
-0.06705642 0.11320421 0.06936138 0.064407304 -0.20791394 0.0720397 -0.20948857 0.0
-0.014147728 -0.20712423 -0.030944994 0.031238304 0.09420218 0.016636847 0.0473972 0.10106868
0.05675591 0.050293937 -0.123235166 -0.20209178 0.053995542 0.046657592 -0.044670563 -0.22156292
0.0 0.08398812 -0.2676689 -0.026516557 -0.25531113 0.016162088 0.02948428 0.031505153
0.08931747 -0.022196934 -0.006881929 0.0 0.104892336 0.12293976 0.0897054 -0.0673793
-0.24678262 0.0 -0.27026153 -0.20729265 0.12289708 0.05996841 0.10213523 -0.19432811
0.111642845 -0.009335697 0.040172614 0.11672011 -0.077381864 0.04387414 0.0039764764 -0.24889256
0.0562483 0.03610345 0.0037265217 -0.2778679 0.059440956 -0.27121267 0.0 0.026109878
0.08101851 -0.054454733 -0.17752416 -0.12397631 0.054073874 0.011459588 -0.042447403 0.0
0.068375126 0.14940615 -0.08718838 0.05454591 0.057797067 -0.15078355 0.10487433 -0.0071791625
0.03349309 0.016642822 0.06600609 0.08999383 0.0 -0.074223585 0.04573772 -0.03071391
-0.008720227 0.06282271 0.02434322 -0.19108297 -0.07775037 0.10790346 -0.0033531878 -0.10499163
-0.055921726 0.054039214 0.03669497 -0.21815802 0.024800505 0.062170003 0.023364253 0.0020664537
-0.18121529 -0.2343198 -0.18425262 0.044527166 -0.020633793 0.07066971 0.09839994 0.10169387
0.04746607 -0.014813571 0.08066418 -0.0053688562 0.05584063 -0.13291183 -0.16688189 0.058721956
00000000: 4e7d 243d 1138 fa3a e18e 943d 53d9 28be
00000010: 8958 7dbd 0af0 ba3d 6382 973d e72b 89be
00000020: e054 89bd 9cd7 e73d 570d 8e3d fae7 833d
00000030: 64e7 54be 8d89 933d 2c84 56be 0000 0000
00000040: dfcb 67bc 6018 54be 5b80 fdbc 79e7 ff3c
00000050: 13ed c03d ff49 883c 9123 423d 19fd ce3d
00000060: e378 683d 0401 4e3d b862 fcbd 26f1 4ebe
00000070: 6e2a 5d3d 081c 3f3d 7bf8 36bd 64e1 62be
00000080: 0000 0000 f701 ac3d e60b 89be 4039 d9bc
00000090: 24b8 82be 5b66 843c 0489 f13c 8c0b 013d
000000a0: 14ec b63d 58d6 b5bc ce81 e1bb 0000 0000
000000b0: cbd1 d63d d7c7 fb3d 77b7 b73d 29fe 89bd
000000c0: 95b4 7cbe 0000 0000 b85f 8abe 8644 54be
000000d0: 77b1 fb3d 6fa1 753d 472c d13d f3fd 46be
000000e0: 01a5 e43d c0f4 18bc 0a8c 243d f40a ef3d
000000f0: 627a 9ebd 5fb5 333d 1a4d 823b b1dd 7ebe
00000100: 9e64 663d 36e1 133d a938 743b b444 8ebe
00000110: 5c78 733d 63dc 8abe 0000 0000 62e4 d53c
00000120: 08ed a53d ed0b 5fbd e5c8 35be 4be7 fdbd
00000130: 917c 5d3d ffc0 3b3c 54dd 2dbd 0000 0000
00000140: 4208 8c3d edfd 183e d28f b2bd 886b 5f3d
00000150: 9ebc 6c3d 0167 1abe 5ac8 d63d 2e3f ebbb
00000160: 0d30 093d 8756 883c 332e 873d af4e b83d
00000170: 0000 0000 8902 98bd 7a57 3b3d bd9b fbbc
00000180: 48df 0ebc 31a9 803d 6f6b c73c 41ab 43be
00000190: 963b 9fbd 7dfc dc3d 28c1 5bbb da05 d7bd
000001a0: 2e0e 65bd 3958 5d3d 774d 163d d164 5fbe
000001b0: 6e2a cb3c f9a5 7e3d 6466 bf3c 576d 073b
000001c0: 8090 39be 88f1 6fbe b8ac 3cbe 1e62 363d
000001d0: 3308 a9bc 48bb 903d e885 c93d e044 d03d
000001e0: c86b 423d 9fb4 72bc 4333 a53d 3bed afbb
000001f0: 25b9 643d 0a1a 08be 16e3 2abe 6f86 703d

network.3.weight f4 [128, 128]
0.091907494 0.008322586 0.13471282 0.077821895 -0.033397675 0.06532393 0.1237631 -0.5634751
-0.09642858 -0.02976702 -0.16506352 0.06401168 -0.2811156 0.061836567 -0.3959787 -0.08765849
-0.018951567 -0.6657627 -0.13850698 0.0087724505 0.1036327 0.051521383 -0.057389867 0.13589859
0.06744604 0.039805412 0.06543492 -0.32362506 -0.058239564 0.08701232 -0.155037 -0.14672631
0.011630675 0.11436717 -0.6581069 0.13224468 -0.6876517 0.11981425 0.058089618 -0.17142738
-0.050044794 -0.061502993 0.14729694 0.05666657 0.23023465 -0.016728984 0.1689358 0.21792755
-1.0039077 0.035013605 -0.77311784 -0.5113723 -0.046587367 -0.025685865 -0.17740545 0.03215655
0.096734636 -0.17285438 -0.069982454 0.10367269 0.016523162 -0.008761772 -0.10038206 -0.6569527
-0.058226146 0.024121556 -0.13211744 -0.85423917 0.103308156 -0.60985583 -0.03721864 -0.06306983
0.055222787 0.07041249 -0.053865846 -0.06183164 -0.088839136 -0.0021933205 0.0421552 -0.08477619
0.042352404 0.089521766 0.13451141 0.19690101 -0.07168491 -0.07883179 -0.010833575 -0.080903955
-0.0035729634 0.15975174 0.025089653 0.13407893 0.0014370693 0.1583517 -0.09293973 0.13345052
0.06304292 0.27801606 0.15319255 -0.72622216 0.17056854 0.13827415 -0.12176593 -0.010761146
-0.0117828 0.14724094 0.052219193 -0.19756067 -0.0398598 0.0267771 0.099629186 0.04409022
-0.084126 -0.23946759 -0.07921586 -0.011544858 0.12469447 0.18279642 0.13214032 -0.041572705
0.20289047 -0.014523541 0.04971953 -0.045688648 0.000687498 -0.0065631117 0.01684796 0.061992012
0.062246844 0.025707038 0.19093764 0.17193644 0.021744264 -0.080735885 0.026481135 -0.52038544
-0.06860789 0.18501262 0.004666508 -0.20836923 -0.48138544 0.054425582 -0.46112597 -0.003418047
0.009341683 -0.8764502 0.04995416 0.048536964 0.029372703 0.027373662 -0.008423786 0.11539376
-0.05023541 -0.03217021 0.24176075 -0.40383312 0.036642723 0.07412604 0.028234871 0.024989981
0.12487841 0.061751276 -0.559485 -0.08197932 -0.73927116 0.15713853 -0.019400725 -0.022379473
-0.11046253 0.056495547 0.1572202 -0.1392613 -0.04096761 0.14752394 -0.12828195 0.057757318
-0.7382432 0.10155902 -0.81445324 -0.69253033 0.28111267 0.17243777 -0.16461474 -0.20837282
0.089013115 0.1577307 -0.08935399 0.10808204 -0.18393317 0.123181365 0.049508445 -0.72482634
0.04325211 -0.18690445 0.05075474 -0.76299185 0.035004925 -0.600945 -0.053482566 -0.07058112
0.2043938 0.0898971 -0.12449678 -0.035327964 -0.05540715 -0.0588608 0.14319952 -0.03566183
-0.01465311 -0.09856725 0.11797473 0.13036002 0.10409813 -0.025443815 0.13029264 -0.011359155
0.19569205 0.17025392 -0.0431093 0.22009763 -0.10190773 0.04422759 -0.046277966 -0.077174544
-0.05676223 0.019363714 0.09600466 -0.7879755 0.08353318 0.15916726 -0.12857495 -0.123469196
0.057131898 -0.028538775 0.011277744 -0.15213841 -0.08907763 0.077220835 0.14198314 0.14144754
-0.31809613 -0.31308553 -0.387797 -0.061136812 0.02284919 -0.14735346 0.06251054 0.02955803
0.19037738 0.12747636 0.16757293 0.01967515 0.20294762 -0.18053214 0.105379425 0.1025797
00000000: ff39 bc3d 755b 083c 28f2 093e 1661 9f3d
00000010: 00cc 08bd 8dc8 853d 8277 fd3d e73f 10bf
00000020: 597c c5bd f7d9 f3bc 6906 29be 8e18 833d
00000030: 62ee 8fbe 5748 7d3d b8bd cabe 4b86 b3bd
00000040: 5140 9bbc 6d6f 2abf c6d4 0dbe 53ba 0f3c
00000050: 623d d43d 1608 533d a311 6bbd 0029 0b3e
00000060: 2621 8a3d 000b 233d be02 863d 2fb2 a5be
00000070: 9c8c 6ebd 8433 b23d 05c2 1ebe 6c3f 16be
00000080: 968e 3e3c 5639 ea3d b279 28bf 266b 073e
00000090: f109 30bf 2c61 f53d 61ef 6d3d a98a 2fbe
000000a0: c5fb 4cbd 90ea 7bbd 02d5 163e 351b 683d
000000b0: a2c2 6b3e 390b 89bc 82fd 2c3e 6628 5f3e
000000c0: 0c80 80bf 6d6a 0f3d 0deb 45bf 4ce9 02bf
000000d0: 65d2 3ebd 2a6b d2bc c6a9 35be 96b6 033d
000000e0: cf1c c63d bd00 31be f652 8fbd 5952 d43d
000000f0: 955b 873c 898d 0fbc 1c95 cdbd 0d2e 28bf
00000100: 8a7e 6ebd 929a c53c cb49 07be 6baf 5abf
00000110: 3a93 d33d 831f 1cbf 9372 18bd c12a 81bd
00000120: 4a31 623d 6c34 903d 6fa2 5cbd 2c43 7dbd
00000130: 4bf1 b5bd d0bd 0fbb eeaa 2c3d 249f adbd
00000140: b779 2d3d 3057 b73d 5cbd 093e 6ba0 493e
00000150: 8acf 92bd 9072 a1bd 4f7f 31bc f9b0 a5bd
00000160: 6128 6abb f695 233e d188 cd3c fd4b 093e
00000170: 0b5c bc3a f326 223e 2f57 bebd 41a7 083e
00000180: a51c 813d 1f58 8e3e 82de 1c3e b2e9 39bf
00000190: 85a9 2e3e bd97 0d3e 6a60 f9bd 854f 30bc
000001a0: a50c 41bc 54c6 163e cbe3 553d 584d 4abe
000001b0: 0844 23bd a65b db3c 630a cc3d f297 343d
000001c0: 414a acbd fe36 75be ed3b a2bd a526 3dbc
000001d0: d05f ff3d fc2e 3b3e cb4f 073e 2448 2abd
000001e0: 85c2 4f3e 25f4 6dbc b5a6 4b3d 0524 3bbd
000001f0: 3639 343a 5f0f d7bb bc04 8a3c 56eb 7d3d
00000200: 8cf6 7e3d 9197 d23c 2885 433e 1b10 303e
00000210: 0721 b23c db58 a5bd f7ee d83c fb37 05bf
00000220: 4b82 8cbd f373 3d3e 82e9 983b be5e 55be
00000230: 2778 f6be 5ced 5e3d b418 ecbe 5001 60bb
00000240: dc0d 193c 0a5f 60bf bc9c 4c3d b2ce 463d
00000250: 069f f03c bb3e e03c eb03 0abc 9053 ec3d
00000260: a5c3 4dbd e9c4 03bd 2190 773e 37c3 cebe
00000270: ae16 163d 65cf 973d d14c e73c cab7 cc3c
00000280: 40c0 ff3d e8ee 7c3d 693a 0fbf c6e4 a7bd
00000290: e040 3dbf ece8 203e 45ee 9ebc 2855 b7bc
000002a0: 2e3a e2bd e067 673d 55fe 203e 849a 0ebe
000002b0: a7cd 27bd 8410 173e 585c 03be f092 6c3d
000002c0: 82fd 3cbf 2dfe cf3d 0280 50bf ab49 31bf
000002d0: 00ee 8f3e 8793 303e c490 28be af5f 55be
000002e0: 824c b63d 2884 213e 3aff b6bd 1e5a dd3d
000002f0: fa58 3cbe 8346 fc3d 5ec9 4a3d 388e 39bf
00000300: 2029 313d e163 3fbe 34e4 4f3d 6f53 43bf
00000310: 5361 0f3d 88d7 19bf 8910 5bbd d68c 90bd
00000320: 9c4c 513e f91b b83d 2bf8 febd 0eb4 10bd
00000330: 9cf2 62bd 0618 71bd e5a2 123e 2412 12bd
00000340: 9913 70bc a0dd c9bd bc9c f13d 197d 053e
00000350: 6631 d53d 8c6f d0bc 6f6b 053e c01b 3abc
00000360: 7f63 483e 0b57 2e3e 6193 30bd 4661 613e
00000370: 00b5 d0bd fd27 353d f78d 3dbd b00d 9ebd
00000380: 837f 68bd a7a0 9e3c 179e c43d c3b8 49bf
00000390: 7213 ab3d befc 223e 27a9 03be 6bdd fcbd
000003a0: 2303 6a3d 26ca e9bc 49c6 383c 2cca 1bbe
000003b0: 556e b6bd f525 9e3d 0764 113e a0d7 103e
000003c0: 7fdd a2be bf4c a0be 548d c6be 986a 7abd
000003d0: 392e bb3c d3e3 16be 8705 803d af23 f23c
000003e0: 4af2 423e 2a89 023e 3d98 2b3e c82d a13c
000003f0: 80d1 4f3e 6bdd 38be 2bd1 d73d 4e15 d23d

network.3.bias f4 [128]
1.7991759 1.6682193 1.640338 1.7325734 0.1581683 1.3577375 0.14177245 0.44206062
1.6720518 1.0101513 1.6050448 1.6631702 1.6970682 1.6180241 1.6370302 0.4374405
1.7430646 0.29783404 0.16467898 1.7454717 0.6709778 1.6962484 1.7841468 1.4678448
0.43090487 0.31149355 1.716784 1.6835978 0.23307757 1.6847119 1.7183744 0.4290194
0.22109514 1.6103948 1.6383356 0.32592967 0.036459573 1.6678302 1.434805 1.6498137
0.18059988 0.4965383 1.6068608 0.58223164 0.029275006 0.150337 0.28964484 1.4346231
1.6391515 1.5746155 1.724453 0.5122897 0.52080303 1.3712264 1.7483962 1.69246
0.49822405 0.31959984 1.8262678 1.6843276 0.519223 1.6896352 1.6390593 1.5999074
0.37166032 1.3819734 1.5785178 0.3873957 1.6678466 1.4849303 1.6707945 1.7096901
0.1747069 1.6978233 1.6483755 0.22702642 1.8256792 1.6947104 1.6306074 0.37453806
1.5043977 1.6433172 0.045282435 0.12323412 0.65650815 1.5090477 0.5127812 1.6981013
0.49930504 1.6419282 1.7271992 1.6527345 0.7550698 1.6629586 1.2444466 -0.7225345
0.3787836 1.6209704 0.42456815 -0.14129958 0.40384534 -0.059602972 1.6351929 1.6484131
1.6961962 1.7023306 0.4792305 1.6877885 1.5967743 1.6106328 1.6353477 0.48900247
1.7028481 0.25411794 1.652194 1.6753021 0.3581973 1.5717766 0.23216549 1.6730324
0.46522242 0.43249553 1.654596 0.64939183 1.6875234 0.47956052 1.6099879 0.27658147
00000000: 654b e63f 3688 d53f 98f6 d13f f7c4 dd3f
00000010: dff6 213e 58ca ad3f cc2c 113e c555 e23e
00000020: cb05 d63f a34c 813f 1c72 cd3f c3e2 d43f
00000030: 8839 d93f 6a1b cf3f 358a d13f 34f8 df3e
00000040: be1c df3f b47d 983e 9ba1 283e 9e6b df3f
00000050: 33c5 2b3f ab1e d93f ec5e e43f 57e2 bb3f
00000060: 909f dc3e 157c 9f3e 94bf db3f 2280 d73f
00000070: e3ab 6e3e a4a4 d73f b1f3 db3f 6ea8 db3e
00000080: c466 623e 6b21 ce3f fbb4 d13f 41e0 a63e
00000090: a256 153d 767b d53f b1a7 b73f 182d d33f
000000a0: 2def 383e 453a fe3e 9dad cd3f 220d 153f
000000b0: 23d2 ef3c f1f1 193e 544c 943e bba1 b73f
000000c0: b7cf d13f 008d c93f e0ba dc3f 6b25 033f
000000d0: 5953 053f 5984 af3f 72cb df3f 87a2 d83f
000000e0: 3917 ff3e 97a2 a33e 25c3 e93f 0c98 d73f
000000f0: cceb 043f f745 d83f b2cc d13f c4c9 cc3f
00000100: 434a be3e 81e4 b03f df0c ca3f bb58 c63e
00000110: ff7b d53f 3212 be3f 98dc d53f 20d7 da3f
00000120: 5ee6 323e 4652 d93f f8fd d23f 9d79 683e
00000130: dbaf e93f 45ec d83f beb7 d03f 74c3 bf3e
00000140: 1b90 c03f 3858 d23f 137a 393d 2c62 fc3d
00000150: eb10 283f 7a28 c13f a145 033f 625b d93f
00000160: e9a4 ff3e b42a d23f dd14 dd3f ce8c d33f
00000170: 414c 413f d4db d43f 074a 9f3f 05f8 38bf
00000180: edef c13e f57b cf3f ff60 d93e d6b0 10be
00000190: d1c4 ce3e 3f22 74bd 004e d13f 33ff d23f
000001a0: f51c d93f f8e5 d93f b35d f53e 7409 d83f
000001b0: 1a63 cc3f 3729 ce3f 1353 d13f 885e fa3e
000001c0: edf6 d93f bf1b 823e 187b d33f 4d70 d63f
000001d0: a365 b73e fa2f c93f cabc 6d3e ed25 d63f
000001e0: a231 ee3e 0e70 dd3e cdc9 d33f 8b3e 263f
000001f0: c400 d83f f588 f53e 1514 ce3f 169c 8d3e

network.6.weight f4 [5, 128]
0.41010356 0.3897676 0.4364273 0.3943761 0.45440212 0.2818605 0.16633984 -0.337089
0.37688082 0.30019912 0.33034024 0.3166994 0.3037981 0.41681314 0.4340115 -0.713917
0.42036405 0.28771114 -0.97715265 0.5868112 0.26679984 0.38045108 0.3978143 0.43595144
-0.96127653 -0.067298084 0.42175767 0.4043598 0.26399088 0.3841635 0.51245755 -0.6632423
-0.7380272 0.36881196 0.38627174 -0.7574519 0.4230751 0.43122798 0.364829 0.46239698
0.27814424 -0.20264158 0.36738923 -0.28442305 0.3442691 -0.7641811 0.46689287 0.308241
0.41208124 0.34881786 0.42708144 -0.5986407 -0.7339567 0.29628813 0.41608962 0.32854873
-0.42497158 -0.8437184 0.36560687 0.46628645 -0.26040772 0.34001565 0.42117617 0.37694368
-0.39133775 0.4321584 0.5945488 0.04581007 0.3610565 0.32532528 0.4365588 0.42103028
-0.385958 0.3494486 0.37678707 -0.6474883 0.3792922 0.2889895 0.50836825 -0.4310127
0.3004335 0.481991 0.39296204 -0.7716002 0.32285288 0.30117068 -0.51644284 0.49901253
-0.65167254 0.43684992 0.36814222 0.35026935 0.3823421 0.40815452 0.26375794 -0.16033627
-0.99005324 0.46779335 -1.1190423 0.10259195 -0.76571035 0.031157035 0.37108263 0.43937063
0.3266392 0.4779984 -0.39931726 0.468898 0.33455977 0.2890204 0.36272615 -0.47448936
0.481593 0.26789936 0.4793357 0.41105038 -0.73629725 0.28548655 0.4534105 0.34659544
-0.1510137 -0.64363164 0.49680272 0.33873525 0.44480872 -0.5115756 0.4659012 0.43639413
0.37256056 0.39634237 0.4586008 0.3691852 -0.62610286 0.32141322 0.015820783 -0.45539665
0.36648992 0.35085616 0.34001455 0.32288447 0.32750726 0.46410027 0.36946276 -0.67509514
0.427733 0.6889483 -0.20394681 0.6531729 0.28586215 0.4174112 0.3680793 0.40547165
0.100197256 0.081780724 0.40159792 0.41786304 -0.6315775 0.4284501 0.48468846 -0.5373946
-0.65863705 0.3641041 0.43845445 -0.40716386 -0.68514776 0.49345127 0.34842867 0.5123403
0.2771382 0.2929315 0.37757647 -0.64610153 -0.6353559 -0.5074482 -0.72117364 0.3366883
0.45406976 0.38915437 0.39970806 -0.56621534 -0.9686921 0.2754117 0.3690853 0.37740523
-0.516277 -0.45308933 0.38818318 0.48608777 -0.27843955 0.41861367 0.47755757 0.4711472
-0.5593786 0.3765436 0.5870927 -0.47323608 0.3526577 0.3904383 0.4871254 0.45051128
-0.32668293 0.3827906 0.39952987 -0.4794777 0.3256882 0.3596753 0.45679227 -0.6463261
0.29143128 0.5275777 -0.82704306 -0.58297515 0.2852943 0.35973775 0.26857704 0.5669602
0.3235363 0.5547782 0.491944 0.36785746 0.46243823 0.47797862 0.32529137 -0.7969521
0.10787895 0.48801044 0.2675463 -0.16003487 -0.53304416 -0.0014510215 0.36390057 0.45634967
0.34527346 0.49111605 -0.5700787 0.41716737 0.31791466 0.2973525 0.38218018 -0.44967
0.46333155 -0.53238785 0.52189714 0.44639626 -0.7742002 0.35771546 -0.35572708 0.33430424
0.29194802 -0.029123044 0.4549378 0.37120247 0.48313227 0.21205242 0.45291668 -0.38494632
00000000: 18f9 d13e 9e8f c73e 6673 df3e aaeb c93e
00000010: 65a7 e83e 0550 903e fe54 2a3e ee96 acbe
00000020: 86f6 c03e b3b3 993e 5b22 a93e 6c26 a23e
00000030: 6d8b 9b3e 8868 d53e c136 de3e 44c3 36bf
00000040: f539 d73e e04e 933e ad26 7abf 4239 163f
00000050: fd99 883e 7cca c23e 51ae cb3e 0735 df3e
00000060: 3816 76bf 94d3 89bd 9ff0 d73e 3f08 cf3e
00000070: d029 873e 14b1 c43e 6b30 033f 3fca 29bf
00000080: 5aef 3cbf ecd4 bc3e 69c5 c53e 5ee8 41bf
00000090: 4d9d d83e eac9 dc3e deca ba3e 4cbf ec3e
000000a0: ec68 8e3e 4681 4fbe 711a bc3e e69f 91be
000000b0: 0a44 b03e 5fa1 43bf 950c ef3e c4d1 9d3e
000000c0: 50fc d23e 4198 b23e 6baa da3e 8440 19bf
000000d0: 96e4 3bbf 14b3 973e b309 d53e 8a37 a83e
000000e0: e095 d9be eefd 57bf d330 bb3e 19bd ee3e
000000f0: 2954 85be 8816 ae3e 67a4 d73e c3fe c03e
00000100: 6c5d c8be de43 dd3e 5a34 183f 57a3 3b3d
00000110: 66dc b83e 0991 a63e a384 df3e 4891 d73e
00000120: 499c c5be edea b23e 3cea c03e cbc1 25bf
00000130: 9632 c23e 6ff6 933e 6c24 023f b2ad dcbe
00000140: 6bd2 993e 86c7 f63e 5232 c93e 9787 45bf
00000150: f94c a53e 0b33 9a3e 9935 04bf 927e ff3e
00000160: 03d4 26bf cbaa df3e 237d bc3e 8156 b33e
00000170: 58c2 c33e a1f9 d03e 480b 873e 312f 24be
00000180: 2174 7dbf 9c82 ef3e c73c 8fbf ba1b d23d
00000190: 9805 44bf 0a3d ff3c 8bfe bd3e 30f5 e03e
000001a0: 413d a73e 35bc f43e 5073 ccbe 6613 f03e
000001b0: 6b4b ab3e 7bfa 933e 3eb7 b93e 45f0 f2be
000001c0: 5c93 f63e 1b2a 893e 7d6b f53e 3275 d23e
000001d0: fa7d 3cbf 4b2b 923e 6c25 e83e f574 b13e
000001e0: 56a3 1abe 0bc5 24bf ed5c fe3e b56e ad3e
000001f0: f8bd e33e 9ef6 02bf 9a8a ee3e 0d6f df3e
00000200: 42c0 be3e 63ed ca3e b9cd ea3e d805 bd3e
00000210: 4748 20bf 4690 a43e 969a 813c c029 e9be
00000220: 91a4 bb3e 6ba3 b33e 6316 ae3e 1d51 a53e
00000230: 08af a73e 8d9e ed3e 392a bd3e 09d3 2cbf
00000240: d2ff da3e ea5e 303f 6fd7 50be 5736 273f
00000250: 865c 923e ecb6 d53e e474 bc3e fb99 cf3e
00000260: 3834 cd3d a77c a73d 3e9e cd3e 25f2 d53e
00000270: 10af 21bf d05d db3e 1629 f83e b192 09bf
00000280: 709c 28bf da6b ba3e 1a7d e03e c877 d0be
00000290: d865 2fbf a5a5 fc3e 3e65 b23e bc28 033f
000002a0: 0fe5 8d3e 1efb 953e b451 c13e e966 25bf
000002b0: afa6 22bf 20e8 01bf d69e 38bf 6962 ac3e
000002c0: d57b e83e 3e3f c73e 89a6 cc3e 7df3 10bf
000002d0: 35fc 77bf c302 8d3e c0f8 bc3e 423b c13e
000002e0: bb2a 04bf 53fb e7be f2bf c63e 7fe0 f83e
000002f0: a18f 8ebe 8854 d63e 6d82 f43e 353a f13e
00000300: 7033 0fbf 53ca c03e b54b 163f 004c f2be
00000310: 8d8f b43e 87e7 c73e 8068 f93e 6aa9 e63e
00000320: fc42 a7be 21fd c33e 2e8f cc3e 1a7e f5be
00000330: 9bc0 a63e 5c27 b83e ade0 e93e a175 25bf
00000340: 7b36 953e 550f 073f 18b9 53bf dc3d 15bf
00000350: 1812 923e 8c2f b83e ee82 893e 4e24 113f
00000360: 8da6 a53e f205 0e3f 15e0 fb3e d057 bc3e
00000370: b4c4 ec3e 9db9 f43e 978c a63e 0e05 4cbf
00000380: a4ef dc3d 81dc f93e d4fb 883e 2ee0 23be
00000390: 9575 08bf 3430 beba 2d51 ba3e aaa6 e93e
000003a0: afc7 b03e 9073 fb3e adf0 11bf f696 d53e
000003b0: b6c5 a23e 963e 983e 1fad c33e 253b e6be
000003c0: cb39 ed3e 924a 08bf 0d9b 053f 0d8e e43e
000003d0: fc31 46bf 7b26 b73e dc21 b6be ed29 ab3e
000003e0: 367a 953e 7393 eebc 9bed e83e 400e be3e
000003f0: 1d5d f73e 4524 593e b2e4 e73e af17 c5be

network.6.bias f4 [5]
2.0018015 3.1648228 1.9994732 3.002157 0.3126088
00000000: 841d 0040 758c 4a40 bdee ff3f 5723 4040
00000010: 430e a03e

network.0.weight f4 [128, 16]
0.09603083 0.049238354 -0.07513088 0.16691613 -0.326814 -0.28873938 0.25429192 -0.05264055
0.489793 0.06925304 -0.09855231 -0.07521785 -0.10326084 0.03416792 -0.07550671 -0.06888655
0.18394674 0.2422535 -0.18697162 0.08344649 -0.41134465 0.108232304 -0.054224107 0.2421099
0.79618585 0.1907002 -0.093970425 -0.15195261 0.08864787 -0.042571392 -0.17574435 -0.16468802
0.10052867 0.28439936 -0.015540543 0.19852905 -0.46314022 0.324949 0.017489333 -0.057915974
0.030191626 0.005662947 0.09890193 -0.1739272 0.04796572 0.082522325 -0.004107719 -0.0065678284
-0.30529273 -0.15821977 0.0041780923 -0.083925314 -0.13091889 0.03722023 -0.2175317 -0.08809102
0.18632574 0.056913696 -0.09002218 -0.15469934 0.46222654 -0.022379156 -0.09652276 0.006308635
-0.0005137714 -0.36354545 0.11071828 0.084951825 -0.35345268 0.21572186 -0.036414593 -0.118857116
-0.34513846 -0.054259308 0.046272002 0.042235065 0.17617989 0.039762888 -0.3379559 0.35811388
0.15730084 0.0386856 0.08166046 -0.013555126 0.045336243 0.5559269 -0.09998402 -0.002638361
0.08825413 -0.277379 0.47121072 0.19813706 0.06877447 0.12520619 -0.099796265 -0.053130984
0.27975094 0.032255124 0.061939124 -0.10152437 -0.06120945 0.64384604 0.1976247 0.062210284
0.009062436 0.1385604 -0.026190208 -0.14582935 0.25595024 -0.058029518 0.06878498 0.35524696
-0.7757993 -0.6105711 -0.17858836 -0.31070855 0.005899122 -0.42873576 -0.3695432 0.06291626
-0.21057463 -0.07418497 -0.23874623 0.06460497 -0.38578823 -0.1452625 -0.43190083 0.05615485
0.017281648 0.005207555 -0.041620634 -0.17499952 -0.30727866 -0.1316669 0.024547866 0.03318655
0.5116994 0.14892788 -0.28185573 0.08567157 0.074445955 -0.08946829 -0.670487 -0.14392398
0.02384653 -0.06534581 0.17854331 0.068876676 -0.08272722 0.07075813 -0.026078941 0.077184826
-0.031195996 -0.18365948 0.12110878 0.17744567 -0.01510772 -0.026198087 0.054114092 0.0025249908
0.27138847 0.2522486 0.05366985 -0.042528342 -0.37570554 0.34371904 0.039059956 -0.09262273
0.0574087 -0.0039944695 0.035896048 0.16956908 0.2223093 0.015586335 -0.02427857 0.06565074
0.12137706 0.17914599 0.009965213 -0.08251639 -0.36706886 -0.087831214 0.2627945 -0.08227682
0.48624876 0.019741029 -0.0837803 0.1501328 0.09542813 0.10360583 -0.10102166 0.035520367
-0.95670927 -0.7058178 -0.21554756 -0.22348571 0.25122064 -0.034067146 -0.38041332 -0.024203185
-0.1298768 0.01107828 -0.18449858 -0.031373784 -0.3964523 -0.105654225 -0.33615816 -0.22238721
0.28902814 0.10692056 0.052244827 0.25329274 -0.3912273 -0.22843838 0.0690047 0.007856138
0.042083204 0.036669206 0.033383444 0.04323904 0.026203051 0.009921197 0.17510103 0.07789513
-0.84800637 -0.6559209 -0.29652408 -0.20536777 0.18602268 -0.07966682 -0.1898254 0.03980589
-0.14053148 -0.081574395 -0.20810711 0.14039363 -0.3343271 -0.14048457 -0.28823575 -0.08082086
0.06551716 -0.18107483 -0.015774164 0.01865773 -0.085871935 -0.15390877 -0.13168918 0.09425375
-0.07033385 -0.018481484 0.061881807 0.13474919 0.10543915 0.091386 0.18486935 0.037514
00000000: d0ab c43d 28ae 493d 38de 99bd 10ec 2a3e
00000010: 2a54 a7be a6d5 93be 8d32 823e 9e9d 57bd
00000020: 26c6 fa3e 8ad4 8d3d cbd5 c9bd d10b 9abd
00000030: 6b7a d3bd a9f3 0b3d 43a3 9abd 6414 8dbd
00000040: 895c 3c3e 4d11 783e 7d75 3fbe fee5 aa3d
00000050: c49b d2be e6a8 dd3d 191a 5ebd a8eb 773e
00000060: d6d2 4b3f ea46 433e 9173 c0bd 7799 1bbe
00000070: 048d b53d 575f 2ebd 54f6 33be faa3 28be
00000080: fae1 cd3d cb9c 913e c39d 7ebc 334b 4b3e
00000090: b720 edbe b75f a63e ca45 8f3c 4d39 6dbd
000000a0: 6e54 f73c 3e90 b93b 188d ca3d f919 32be
000000b0: b477 443d 7701 a93d 0b9a 86bb f036 d7bb
000000c0: 544f 9cbe 5d04 22be 61e8 883b 09e1 abbd
000000d0: 9a0f 06be 3d74 183d a1c0 5ebe 1169 b4bd
000000e0: 2dcc 3e3e 561e 693d 8c5d b8bd 8169 1ebe
000000f0: f5a8 ec3e 7e54 b7bc baad c5bd abb8 ce3b
00000100: 9dae 06ba a122 babe 44c0 e23d 39fb ad3d
00000110: c0f7 b4be 31e6 5c3e 7827 15bd 5c6b f3bd
00000120: fdb5 b0be 023f 5ebd b687 3d3d adfe 2c3d
00000130: 8068 343e 69de 223d 8e08 adbe b45a b73e
00000140: 7913 213e cb74 1e3d 993d a73d 5216 5ebc
00000150: 7fb2 393d 3a51 0e3f 6cc4 ccbd 5ae8 2cbb
00000160: 95be b43d 9f04 8ebe 8842 f13e 71e4 4a3e
00000170: a1d9 8c3d 0d36 003e fc61 ccbd e09f 59bd
00000180: 843b 8f3e f31d 043d e1b3 7d3d 02ec cfbd
00000190: c3b6 7abd 18d3 243f 215e 4a3e 36d0 7e3d
000001a0: 9d7a 143c c7e2 0d3e d98c d6bc 4a54 15be
000001b0: e90b 833e 5cb0 6dbd 24df 8c3d eee2 b53e
000001c0: c89a 46bf 634e 1cbf dedf 36be 3115 9fbe
000001d0: 6c4d c13b 4183 dbbe c434 bdbe 3dda 803d
000001e0: e0a0 57be 4aee 97bd e479 74be 9c4f 843d
000001f0: 0986 c5be b1bf 14be 1b22 ddbe a102 663d
00000200: 3e92 8d3c 23a4 aa3b 667a 2abd 1333 33be
00000210: a153 9dbe b0d3 06be 9b18 c93c 9fee 073d
00000220: bbfe 023f 8d80 183e 654f 90be 9374 af3d
00000230: 1f77 983d 273b b7bd 09a5 2bbf cf60 13be
00000240: cc59 c33c 06d4 85bd 0fd4 363e 370f 8d3d
00000250: e46c a9bd a3e9 903d 81a3 d5bc 1413 9e3d
00000260: bf8e ffbc 3b11 3cbe e107 f83d 51b4 353e
00000270: 5f86 77bc 5f9d d6bc bda6 5d3d 517a 253b
00000280: 6ef3 8a3e ba26 813e ebd4 5b3d 3332 2ebd
00000290: 7a5c c0be f1fb af3e 55fd 1f3d fcb0 bdbd
000002a0: 6325 6b3d 0ae4 82bb bc07 133d 84a3 2d3e
000002b0: 0da5 633e d45d 7f3c dae3 c6bc e573 863d
000002c0: 8994 f83d 0c72 373e 2245 233c 5afe a8bd
000002d0: 73f0 bbbe dae0 b3bd 008d 863e c080 a8bd
000002e0: 99f5 f83e f0b7 a13c 0295 abbd 6abc 193e
000002f0: d36f c33d 4b2f d43d 72e4 cebd ce7d 113d
00000300: e6ea 74bf 7ab0 34bf 80b8 5cbe 70d9 64be
00000310: fe9f 803e fe89 0bbd 89c5 c2be c245 c6bc
00000320: 6dfe 04be ad81 353c 32ed 3cbe cc81 00bd
00000330: ccfb cabe 3e61 d8bd ec1c acbe 79b9 63be
00000340: 7ffb 933e 2bf9 da3d acfe 553d 96af 813e
00000350: f24e c8be c0eb 69be 5652 8d3d 08b7 003c
00000360: 705f 2c3d 7332 163d 14bd 083d 6b1b 313d
00000370: c8a7 d63c 848c 223c af4d 333e 7b87 9f3d
00000380: f216 59bf 6fea 27bf 01d2 97be ee4b 52be
00000390: bb7c 3e3e 5c28 a3bd 9761 42be 800b 233d
000003a0: 7ce7 0fbe 7a10 a7bd 081a 55be 59c3 0f3e
000003b0: ec2c abbe 30db 0fbe a393 93be 6885 a5bd
000003c0: dc2d 863d ae6b 39be d238 81bc 19d8 983c
000003d0: a0dd afbd 439a 1dbe 87d9 06be 1c08 c13d
000003e0: 320b 90bd 7b66 97bc c777 7d3d b1fb 093e
000003f0: 7bf0 d73d 9528 bb3d 644e 3d3e 48a8 193d

network.0.bias f4 [128]
0.04626989 0.0011273475 0.072346784 -0.16489153 -0.065111384 0.099620625 0.077362746 -0.26928562
-0.065381095 0.11284284 0.06950786 0.0664793 -0.203248 0.065344326 -0.20639457 0.0
-0.009251175 -0.20514642 -0.030944994 0.038306404 0.09220178 0.018025491 0.040919516 0.10144755
0.061938442 0.050843388 -0.12288869 -0.20140535 0.057225104 0.04364785 -0.049970713 -0.20854245
0.0 0.08423594 -0.26934794 -0.030045291 -0.25798035 0.01588982 0.032344826 0.03298044
0.08900623 -0.021703577 -0.006881929 0.0 0.10638236 0.12891285 0.090605006 -0.06202953
-0.24851537 0.0 -0.2688899 -0.20946606 0.118176155 0.049908996 0.10149617 -0.19447348
0.114430465 -0.0055864975 0.04276833 0.11752392 -0.081806436 0.04798107 -0.0019782241 -0.24904598
0.057592746 0.040665194 0.0077429977 -0.27912045 0.058970407 -0.2768964 0.0 0.024461005
0.0828678 -0.054454733 -0.17323126 -0.12953429 0.055047084 0.0137371095 -0.042447403 0.0
0.06754827 0.15443474 -0.08718838 0.05816638 0.059097935 -0.14556755 0.10501232 -0.0071791625
0.03876846 0.015137394 0.06225778 0.08666335 0.0 -0.07063739 0.048339505 -0.029907085
-0.007407225 0.060150675 0.02598462 -0.2032576 -0.07945481 0.11111226 -0.0008249467 -0.1086672
-0.05281607 0.05569225 0.036920704 -0.22463411 0.02177428 0.06462948 0.02608704 0.00041816343
-0.18275863 -0.24038066 -0.18986902 0.04768253 -0.020633793 0.0781464 0.09677333 0.10296274
0.051924493 -0.013158052 0.07746043 -0.00674848 0.056944378 -0.14333454 -0.16688189 0.061218604
00000000: 7f85 3d3d 81c3 933a 8d2a 943d 53d9 28be
00000010: 1e59 85bd e605 cc3d 5c70 9e3d cedf 89be
00000020: 86e6 85bd 261a e73d 235a 8e3d 4d26 883d
00000030: 3e20 50be 3fd3 853d 1959 53be 0000 0000
00000040: 3e92 17bc e711 52be 5b80 fdbc 2de7 1c3d
00000050: 49d4 bc3d 32aa 933c 399b 273d bcc3 cf3d
00000060: 2ab3 7d3d 2841 503d 11ad fbbd 343d 4ebe
00000070: df64 6a3d 17c8 323d 17ae 4cbd 278c 55be
00000080: 0000 0000 e483 ac3d f9e7 89be 8b21 f6bc
00000090: 0016 84be 5e2b 823c 027c 043d 7f16 073d
000000a0: e648 b63d b3cb b1bc ce81 e1bb 0000 0000
000000b0: ffde d93d bb01 043e 1e8f b93d ad12 7ebd
000000c0: d07a 7ebe 0000 0000 f0ab 89be 457e 56be
000000d0: 5706 f23d 606d 4c3d 39dd cf3d 0e24 47be
000000e0: 855a ea3d f00e b7bb d82d 2f3d 62b0 f03d
000000f0: 228a a7bd cc87 443d 18a5 01bb e905 7fbe
00000100: 5fe6 6b3d 8c90 263d f9b8 fd3b e0e8 8ebe
00000110: f48a 713d 5dc5 8dbe 0000 0000 7262 c83c
00000120: 98b6 a93d ed0b 5fbd 8963 31be a3a4 04be
00000130: 0d79 613d 9d11 613c 54dd 2dbd 0000 0000
00000140: bf56 8a3d 2424 1e3e d28f b2bd df3f 6e3d
00000150: ad10 723d a90f 15be b310 d73d 2e3f ebbb
00000160: adcb 1e3d d502 783c 0402 7f3d 8e7c b13d
00000170: 0000 0000 56aa 90bd a5ff 453d b4ff f4bc
00000180: 4fb8 f2bb 8e60 763d b3dd d43c c322 50be
00000190: 34b9 a2bd d38e e33d 3c41 58ba e98c debd
000001a0: aa55 58bd 8f1d 643d 2a3a 173d 7c06 66be
000001b0: fa5f b23c 765c 843d 7db4 d53c f23c db39
000001c0: 1425 3bbe 5926 76be 066d 42be c24e 433d
000001d0: 3308 a9bc 380b a03d 1831 c63d 21de d23d
000001e0: c7ae 543d df94 57bc 93a3 9e3d 5a22 ddbb
000001f0: 823e 693d 4ac6 12be 16e3 2abe 5cc0 7a3d

network.3.weight f4 [128, 128]
0.09181953 0.0028994856 0.12741269 0.077821895 -0.03800998 0.059059214 0.120976366 -0.5634751
-0.10533897 -0.036748655 -0.16356249 0.05838616 -0.29611018 0.049604192 -0.4069781 -0.08765849
-0.020287765 -0.6678727 -0.13850698 0.0065399255 0.09568952 0.04397191 -0.07081456 0.13041347
0.06374778 0.033148143 0.054508645 -0.32466677 -0.06428212 0.08494756 -0.16188757 -0.15533042
0.011630675 0.11001744 -0.6581053 0.12539403 -0.6876517 0.111027665 0.054561075 -0.17591794
-0.055471666 -0.07648608 0.14729694 0.05666657 0.22228427 -0.020994045 0.16633134 0.21540083
-1.0039077 0.035013605 -0.77311784 -0.51153934 -0.062764876 -0.031961422 -0.18315983 0.02979608
0.08930752 -0.18064816 -0.07831265 0.09878612 0.010183795 -0.019097771 -0.09965485 -0.6569527
-0.06401714 0.017237702 -0.13767986 -0.85423917 0.09828291 -0.60985583 -0.03721864 -0.07216015
0.051541436 0.07041249 -0.0662379 -0.060456593 -0.09811619 -0.0047425097 0.0421552 -0.08477619
0.03315545 0.08313695 0.13451141 0.1936797 -0.082199216 -0.08661873 -0.014641938 -0.080903955
-0.006392791 0.14968657 0.019115495 0.12240403 0.0014370693 0.1561119 -0.0972126 0.1263711
0.055570394 0.2715886 0.15101044 -0.7302383 0.17168167 0.13340156 -0.12245106 -0.015919806
-0.018146506 0.13961767 0.045406986 -0.19501497 -0.047908224 0.02089407 0.09146541 0.035278197
-0.083205745 -0.2386055 -0.074300624 -0.014545133 0.12469447 0.18172343 0.12127778 -0.043001283
0.19800657 -0.025634766 0.03985659 -0.052302834 -0.0033542607 -0.015371375 0.01684796 0.06069986
0.063273154 0.021551253 0.18658167 0.17193644 0.01831053 -0.08009421 0.026006602 -0.52038544
-0.07401757 0.1827207 0.0064843176 -0.21029168 -0.497534 0.04938901 -0.47198176 -0.003418047
0.012184463 -0.8790035 0.04995416 0.05231132 0.023518031 0.024263302 -0.013588044 0.1165721
-0.045712795 -0.03685357 0.23885874 -0.40485564 0.034805324 0.07746764 0.026495306 0.022405827
0.12487841 0.057681363 -0.55949974 -0.08212394 -0.73927116 0.15506864 -0.019942524 -0.02054747
-0.11494075 0.047013618 0.1572202 -0.1392613 -0.040332135 0.14873269 -0.13214101 0.05440955
-0.7382432 0.10155902 -0.81445324 -0.6924998 0.2703273 0.17313905 -0.17014275 -0.21482849
0.08556371 0.15249291 -0.09041461 0.106172256 -0.18677543 0.11922612 0.05211407 -0.72482634
0.043058187 -0.19004017 0.04922424 -0.76299185 0.032083802 -0.600945 -0.053482566 -0.07388627
0.21136309 0.0898971 -0.13410367 -0.030794885 -0.05853389 -0.057192832 0.14319952 -0.03566183
-0.0208986 -0.09927778 0.11797473 0.13319765 0.10119758 -0.031144414 0.13116013 -0.011359155
0.19718626 0.16793321 -0.044885542 0.20822385 -0.10190773 0.04712572 -0.041787416 -0.07860433
-0.059711456 0.016243361 0.0968598 -0.7870285 0.08906561 0.16004649 -0.123956196 -0.12713104
0.05280592 -0.034842186 0.006196671 -0.15185526 -0.09007175 0.07592449 0.13839412 0.13711646
-0.31686732 -0.31466177 -0.39081872 -0.05955324 0.02284919 -0.14523654 0.053807423 0.03168086
0.19059621 0.11987518 0.16920416 0.017260412 0.20125796 -0.18729343 0.105379425 0.106209345
00000000: e10b bc3d 4c05 3e3b 7978 023e 1661 9f3d
00000010: 5ab0 1bbd 13e8 713d 75c2 f73d e73f 10bf
00000020: f5bb d7bd c285 16bd ed7c 27be 5326 6f3d
00000030: c19b 97be c42d 4b3d 6f5f d0be 4b86 b3bd
00000040: 8732 a6bc b5f9 2abf c6d4 0dbe df4c d63b
00000050: def8 c33d e41b 343d 3907 91bd 1c8b 053e
00000060: 328e 823d 59c6 073d 7544 5f3d b93a a6be
00000070: 58a6 83bd fdf8 ad3d dbc5 25be f00e 1fbe
00000080: 968e 3e3c d350 e13d 9779 28bf 4b67 003e
00000090: f109 30bf 7962 e33d 6f7b 5f3d d523 34be
000000a0: 4236 63bd bca4 9cbd 02d5 163e 351b 683d
000000b0: 7d9e 633e b4fb abbc c352 2a3e 0992 5c3e
000000c0: 0c80 80bf 6d6a 0f3d 0deb 45bf 3ef4 02bf
000000d0: df8a 80bd fbe9 02bd 408e 3bbe e916 f43c
000000e0: dce6 b63d d5fb 38be 6262 a0bd 6150 ca3d
000000f0: efd9 263c ee72 9cbc d817 ccbd 0d2e 28bf
00000100: 6b1b 83bd 1536 8d3c f3fb 0cbe 6baf 5abf
00000110: 8d48 c93d 831f 1cbf 9372 18bd b3c8 93bd
00000120: 1d1d 533d 6c34 903d bca7 87bd 55a1 77bd
00000130: 24f1 c8bd 0e67 9bbb eeaa 2c3d 249f adbd
00000140: 02ce 073d b543 aa3d 5cbd 093e f953 463e
00000150: 1058 a8bd 2965 b1bd bde4 6fbc f9b0 a5bd
00000160: 9e7a d1bb 7047 193e 1998 9c3c f7ae fa3d
00000170: 0b5c bc3a ccdb 1f3e 6617 c7bd 6d67 013e
00000180: c89d 633d a90d 8b3e 7ba2 1a3e e6f0 3abf
00000190: 52cd 2f3e 6b9a 083e 9fc7 fabd 416a 82bc
000001a0: fba7 94bc eff7 0e3e adfc 393d 01b2 47be
000001b0: 6a3b 44bd 0a2a ab3c 3852 bb3d df7f 103d
000001c0: c667 aabd 0055 74be ed2a 98bd b64e 6ebc
000001d0: d05f ff3d b515 3a3e 7c60 f83d 1d22 30bd
000001e0: 3cc2 4a3e 0000 d2bc aa40 233d 7f3b 56bd
000001f0: 28d3 5bbb 38d8 7bbc bc04 8a3c 6ba0 783d
00000200: 5b95 813d 418c b03c 440f 3f3e 1b10 303e
00000210: f7ff 953c 6f08 a4bd cc0b d53c fb37 05bf
00000220: 8696 97bd 231b 3b3e 667a d43b b456 57be
00000230: c7bc febe 214c 4a3d 98a7 f1be 5001 60bb
00000240: 58a1 473c 6006 61bf bc9c 4c3d 6544 563d
00000250: e3a8 c03c d5c3 c63c 63a0 5ebc 5abd ee3d
00000260: 573d 3bbd c5f3 16bd 6397 743e 3d49 cfbe
00000270: 0790 0e3d 5ba7 9e3d af0c d93c 6d8c b73c
00000280: 40c0 ff3d 4b43 6c3d 603b 0fbf 9930 a8bd
00000290: e040 3dbf 50ca 1e3e 815e a3bc 2b53 a8bc
000002a0: 0e66 ebbd 5a91 403d 55fe 203e 849a 0ebe
000002b0: 4f33 25bd 624d 183e f94f 07be 8cdc 5e3d
000002c0: 82fd 3cbf 2dfe cf3d 0280 50bf ab47 31bf
000002d0: 5768 8a3e 5d4b 313e e739 2ebe 00fc 5bbe
000002e0: 073c af3d 1a27 1c3e 4c2b b9bd d770 d93d
000002f0: 0f42 3fbe d32c f43d 9075 553d 388e 39bf
00000300: c85d 303d e499 42be 5b9f 493d 6f53 43bf
00000310: 4e6a 033d 88d7 19bf 8910 5bbd af51 97bd
00000320: 916f 583e f91b b83d 7952 09be 8e45 fcbc
00000330: 3bc1 6fbd 0843 6abd e5a2 123e 2412 12bd
00000340: 8a33 abbc 2652 cbbd bc9c f13d f764 083e
00000350: ad40 cf3d 9222 ffbc d74e 063e c01b 3abc
00000360: 32eb 493e aff6 2b3e e7d9 37bd a238 553e
00000370: 00b5 d0bd e606 413d 4829 2bbd 4ffb a0bd
00000380: 0094 74bd cc10 853c 6e5e c63d b37a 49bf
00000390: 0868 b63d 3ae3 233e bfdc fdbd a42e 02be
000003a0: 054b 583d aeb6 0ebd 720d cb3b f27f 1bbe
000003b0: 8a77 b8bd 4d7e 9b3d 30b7 0d3e 4268 0c3e
000003c0: 6f3c a2be 591b a1be 6419 c8be 19ee 73bd
000003d0: 392e bb3c e3b8 14be 2c65 5c3d cac3 013d
000003e0: a72b 433e 1e81 f53d db43 2d3e b565 8d3c
000003f0: 9116 4e3e d9c9 3fbe 2bd1 d73d 4984 d93d

network.3.bias f4 [128]
1.7897199 1.6633894 1.6416637 1.7292186 0.156857 1.3510865 0.15087734 0.44317913
1.6704782 1.008429 1.6133734 1.6647068 1.6885185 1.6171968 1.6387334 0.44210818
1.743647 0.30397877 0.1779938 1.7464118 0.66820544 1.6954587 1.7848041 1.4710952
0.42933604 0.3028552 1.7117851 1.6821793 0.22553012 1.6816841 1.7168772 0.43090987
0.22366127 1.606451 1.6342087 0.32382858 0.033727847 1.6653728 1.4301159 1.6508462
0.18751782 0.4893974 1.6070374 0.5821361 0.028149273 0.15926798 0.29434094 1.4312158
1.6382425 1.5722971 1.7182957 0.5096404 0.5210461 1.3767344 1.7465744 1.6860541
0.50357765 0.3257956 1.821069 1.679655 0.51860744 1.684912 1.6418822 1.5956119
0.37416038 1.383792 1.5775586 0.3833147 1.666435 1.4828657 1.6695455 1.7079337
0.15961765 1.6942713 1.6501498 0.23013344 1.8270956 1.6934183 1.6283336 0.37638578
1.497624 1.6378549 0.04662661 0.12696443 0.6578228 1.5092901 0.5117227 1.6986086
0.49863806 1.6402899 1.7240939 1.6523226 0.7529693 1.6603009 1.2391068 -0.7282159
0.37181684 1.6123717 0.42253098 -0.14129958 0.41055873 -0.059602972 1.6358049 1.6481215
1.6940892 1.7039049 0.47324678 1.6826056 1.5967486 1.6076627 1.6313763 0.49465206
1.7052279 0.2507267 1.6554122 1.6727761 0.3562287 1.5702282 0.24029793 1.6722726
0.46137068 0.43838158 1.653822 0.6507408 1.681847 0.4754957 1.6118735 0.27202737
00000000: 8b15 e53f f2e9 d43f 0922 d23f 0957 dd3f
00000010: 1f9f 203e 67f0 ac3f 977f 1a3e 60e8 e23e
00000020: 3bd2 d53f 3414 813f 0583 ce3f 1d15 d53f
00000030: 6021 d83f 4e00 cf3f 04c2 d13f 015c e23e
00000040: d32f df3f 1ba3 9b3e 0244 363e 6c8a df3f
00000050: 830f 2b3f ca04 d93f 7674 e43f d94c bc3f
00000060: efd1 db3e d60f 9b3e c61b db3f a751 d73f
00000070: 5ef1 663e 6d41 d73f a2c2 db3f 38a0 dc3e
00000080: 7607 653e 30a0 cd3f c02d d13f dccc a53e
00000090: 3626 0a3d f02a d53f 0a0e b73f ee4e d33f
000000a0: ac04 403e 4c92 fa3e 67b3 cd3f df06 153f
000000b0: 4e99 e63c 2517 233e dbb3 963e 1432 b73f
000000c0: eeb1 d13f 0841 c93f 1df1 db3f cb77 023f
000000d0: 4763 053f d538 b03f c08f df3f 9fd0 d73f
000000e0: 77ea 003f aece a63e ca18 e93f effe d63f
000000f0: 75c3 043f 32ab d73f 3229 d23f 033d cc3f
00000100: f391 bf3e 1920 b13f 71ed c93f d341 c43e
00000110: be4d d53f 8bce bd3f abb3 d53f 929d da3f
00000120: cf72 233e e2dd d83f 1c38 d33f 1aa8 6b3e
00000130: 45de e93f eec1 d83f 3c6d d03f a3b5 c03e
00000140: 25b2 bf3f 3ba5 d13f 8bfb 3e3d f702 023e
00000150: 1367 283f 6b30 c13f 4200 033f 026c d93f
00000160: 7d4d ff3e 05f5 d13f 1caf dc3f 4f7f d33f
00000170: 99c2 403f bd84 d43f 0d9b 9e3f 5b6c 3abf
00000180: c75e be3e 3262 ce3f fb55 d83e d6b0 10be
00000190: c134 d23e 3f22 74bd 0e62 d13f a5f5 d23f
000001a0: ead7 d83f 8e19 da3f 674d f23e 9f5f d73f
000001b0: 4262 cc3f e4c7 cd3f f0d0 d03f 0943 fd3e
000001c0: e844 da3f 405f 803e 8ce4 d33f 871d d63f
000001d0: 9c63 b63e 3dfd c83f a910 763e 070d d63f
000001e0: c738 ec3e 8d73 e03e 70b0 d33f f396 263f
000001f0: c346 d73f 2c74 f33e df51 ce3f 2c47 8b3e

network.6.weight f4 [5, 128]
0.41446427 0.39583334 0.44260266 0.3974291 0.45719826 0.28759378 0.16535576 -0.33223364
0.38349697 0.30738902 0.33599985 0.32311875 0.3083245 0.4213604 0.44313595 -0.704961
0.42447853 0.28656432 -0.9803348 0.5984763 0.26831684 0.38304198 0.39963114 0.4477928
-0.95630425 -0.052295003 0.42915785 0.4124767 0.26331 0.3922479 0.515906 -0.65444475
-0.7343649 0.37450117 0.38793787 -0.7472481 0.42520943 0.43918738 0.37154102 0.4659948
0.26611593 -0.19697456 0.37466604 -0.27214342 0.3432149 -0.75881 0.4788233 0.31277674
0.41546473 0.351183 0.42922503 -0.5962132 -0.72929215 0.30032158 0.42166287 0.33179682
-0.42506957 -0.8420752 0.37307054 0.4718238 -0.24521747 0.3432504 0.42775655 0.38193402
-0.3833817 0.43934542 0.6018369 0.045292657 0.36145753 0.33312804 0.43770763 0.43089163
-0.37061393 0.3535859 0.3834472 -0.6397785 0.3872824 0.29542035 0.5146445 -0.42154863
0.30168253 0.48846006 0.39893666 -0.7713712 0.3275577 0.30678773 -0.50417584 0.50199264
-0.64414334 0.44323727 0.37295917 0.35754752 0.39145264 0.4138317 0.2667908 -0.15451528
-0.98750657 0.4685065 -1.1132183 0.10259195 -0.7569125 0.031157035 0.37456766 0.4452538
0.32576805 0.48088422 -0.39254916 0.4788834 0.3360592 0.2895473 0.36884618 -0.464639
0.4861234 0.26553583 0.48888725 0.4178051 -0.7319501 0.28837198 0.4558211 0.35001716
-0.15733944 -0.64325124 0.50557995 0.34285596 0.4502755 -0.506279 0.47598994 0.43818778
0.36675218 0.39641908 0.45942804 0.3693379 -0.62296665 0.3191081 0.011014816 -0.4552587
0.36855343 0.3529608 0.3453585 0.32285348 0.32444412 0.46238405 0.3724925 -0.67807204
0.429136 0.6948894 -0.205455 0.6544965 0.28841415 0.42119223 0.3722921 0.41000697
0.09689503 0.07834783 0.4011626 0.41776577 -0.62538326 0.425685 0.4824441 -0.53880405
-0.65583897 0.359608 0.43802053 -0.40960062 -0.6800108 0.49352187 0.34774578 0.5129575
0.27989262 0.2899361 0.37508872 -0.64817643 -0.63008654 -0.5102371 -0.7172826 0.33796346
0.4529299 0.39087787 0.39566523 -0.5720736 -0.97231245 0.2774249 0.37249878 0.37432334
-0.5180411 -0.45346844 0.39050615 0.4857521 -0.27195105 0.4186223 0.4772188 0.47048742
-0.557162 0.37285158 0.584494 -0.47209772 0.35739255 0.39202356 0.48225072 0.44905475
-0.3280099 0.38170993 0.40022537 -0.48589125 0.3263626 0.3629461 0.45396665 -0.6461478
0.2940507 0.5196849 -0.82430226 -0.58382976 0.28733662 0.3632891 0.26890054 0.56949675
0.32585323 0.55787224 0.48950344 0.36633903 0.4659229 0.47931302 0.32732657 -0.79923046
0.099419676 0.4835516 0.26009193 -0.16003487 -0.5395173 -0.0014510215 0.36475772 0.4596324
0.35080022 0.4887672 -0.57002836 0.41468504 0.31827393 0.2985219 0.38166735 -0.4540061
0.46525902 -0.5314764 0.5209569 0.4455865 -0.7694146 0.35869595 -0.3547309 0.3376228
0.30094582 -0.03639207 0.45790523 0.3729382 0.47740722 0.21164925 0.45518008 -0.38148046
00000000: a934 d43e abaa ca3e d19c e23e d47b cb3e
00000010: e415 ea3e 7e3f 933e 0553 293e 871a aabe
00000020: b759 c43e 1862 9d3e 2c08 ac3e d26f a53e
00000030: b5dc 9d3e 8dbc d73e b7e2 e23e 5378 34bf
00000040: 4055 d93e 8fb8 923e 39f7 7abf be35 193f
00000050: d360 893e 141e c43e 749c cc3e 1945 e53e
00000060: 5bd0 74bf 4933 56bd 94ba db3e 2530 d33e
00000070: 91d0 863e b7d4 c83e 6a12 043f b189 27bf
00000080: 57ff 3bbf 9ebe bf3e cb9f c63e a74b 3fbf
00000090: 0db5 d93e 2bdd e03e a03a be3e df96 ee3e
000000a0: 5940 883e b3b3 49be 3ad4 bf3e 6256 8bbe
000000b0: ddb9 af3e 5f41 42bf 5428 f53e 4624 a03e
000000c0: cbb7 d43e 42ce b33e 62c3 db3e 6ea1 18bf
000000d0: e4b2 3abf c0c3 993e 32e4 d73e 46e1 a93e
000000e0: b8a2 d9be 3e92 57bf 1a03 bf3e e492 f13e
000000f0: 4a1a 7bbe 84be af3e e802 db3e db8c c33e
00000100: 9b4a c4be e2f1 e03e fc11 1a3f cb84 393d
00000110: f610 b93e c28f aa3e 371b e03e d49d dc3e
00000120: 1cc1 bdbe 3609 b53e 3153 c43e 86c8 23bf
00000130: e149 c63e 5641 973e bebf 033f 39d5 d7be
00000140: 2276 9a3e 7017 fa3e 6d41 cc3e 9578 45bf
00000150: a5b5 a73e 4813 9d3e ab11 01bf 9782 003f
00000160: 94e6 24bf ffef e23e 81f4 be3e 7810 b73e
00000170: 7b6c c83e c0e1 d33e ce98 883e 4139 1ebe
00000180: 3bcd 7cbf 15e0 ef3e f07d 8ebf ba1b d23d
00000190: 05c5 41bf 0a3d ff3c 55c7 bf3e 4ef8 e33e
000001a0: 12cb a63e 7536 f63e 34fc c8be 3430 f53e
000001b0: f40f ac3e 8b3f 943e 68d9 bc3e 2ae5 edbe
000001c0: 2be5 f83e 50f4 873e 6e4f fa3e 8dea d53e
000001d0: 1561 3bbf 7ea5 933e 6261 e93e 7335 b33e
000001e0: 971d 21be 1dac 24bf b06d 013f d18a af3e
000001f0: 838a e63e 809b 01bf f4b4 f33e 265a e03e
00000200: f1c6 bb3e 71f7 ca3e 273a eb3e db19 bd3e
00000210: be7a 1fbf 2362 a33e 7d77 343c ab17 e9be
00000220: 09b3 bc3e 47b7 b43e d4d2 b03e 0d4d a53e
00000230: 8a1d a63e 9abd ec3e 56b7 be3e 2196 2dbf
00000240: b7b7 db3e 46e4 313f cc62 52be 158d 273f
00000250: 05ab 933e 82a6 d73e 129d be3e 6fec d13e
00000260: e770 c63d d474 a03d 2f65 cd3e 65e5 d53e
00000270: 1e19 20bf 62f3 d93e ea02 f73e 10ef 09bf
00000280: 10e5 27bf 8a1e b83e 3a44 e03e 2cb7 d1be
00000290: 3015 2ebf e6ae fc3e bc0b b23e 2f51 033f
000002a0: 164e 8f3e 8172 943e a10b c03e e4ee 25bf
000002b0: 5a4d 21bf e69e 02bf d59f 37bf 8c09 ad3e
000002c0: 6ee6 e73e 2521 c83e a294 ca3e 6a73 12bf
000002d0: 78e9 78bf a30a 8e3e 29b8 be3e 4fa7 bf3e
000002e0: 579e 04bf 042d e8be 6cf0 c73e 80b4 f83e
000002f0: 2b3d 8bbe a955 d63e 0656 f43e bae3 f03e
00000300: 2ba2 0ebf 67e6 be3e 66a1 153f cbb6 f1be
00000310: 28fc b63e 50b7 c83e 91e9 f63e 81ea e53e
00000320: eaf0 a7be 7c6f c33e 57ea cc3e bdc6 f8be
00000330: 0019 a73e 12d4 b93e 516e e83e f169 25bf
00000340: d08d 963e 120a 053f 7905 53bf de75 15bf
00000350: c91d 933e 0701 ba3e 55ad 893e 8aca 113f
00000360: 3cd6 a63e b7d0 0e3f 32a0 fa3e ca90 bb3e
00000370: 728d ee3e 8468 f53e 5997 a73e 5e9a 4cbf
00000380: 8b9c cb3d 1394 f73e c52a 853e 2ee0 23be
00000390: ce1d 0abf 3430 beba 86c1 ba3e f054 eb3e
000003a0: 169c b33e b23f fa3e 61ed 11bf 9951 d43e
000003b0: cdf4 a23e ddd7 983e e769 c33e 7d73 e8be
000003c0: 6e36 ee3e d60e 08bf 6e5d 053f ea23 e43e
000003d0: 5bf8 44bf ffa6 b73e 4a9f b5be e5dc ac3e
000003e0: 9215 9a3e da0f 15bd 8e72 ea3e c1f1 be3e
000003f0: b86e f43e 95ba 583e 5d0d e93e 6851 c3be

network.6.bias f4 [5]
2.0044045 3.158453 1.9943551 2.992609 0.31198525
00000000: 2a48 0040 1824 4a40 0747 ff3f e886 3f40
00000010: 88bc 9f3e
