教学演示项目/项目1_强化学习智能体训练/results/results/model_episode_200.pth (torch, 387185 bytes, 24 tensors)

network.0.weight f4 [128, 16]
0.117895 -0.00080084923 -0.05901996 0.18302627 -0.030337572 -0.12990157 0.23494366 0.079400785
0.42924765 0.013792969 -0.086559996 -0.07521785 -0.23835489 0.041416455 -0.122341126 -0.10661011
0.2912575 0.13863097 -0.18798897 0.082429275 -0.1871688 0.30878043 -0.092116065 0.14936732
0.4167254 -0.062354703 -0.067445755 -0.15195261 0.12915634 -0.110139586 -0.38019496 -0.14523156
0.12317123 0.4106799 -0.028011443 0.18605858 -0.29043135 0.2366162 -0.016198259 -0.10236082
-0.06487795 -0.07597021 0.14210944 -0.1739272 0.23752572 0.094166875 -0.2231181 -0.041103736
-0.26664916 -0.114677235 0.039412573 -0.04869086 -0.12193453 0.07567005 -0.18312624 -0.08008686
0.18632574 0.04327513 -0.13531557 -0.15469934 0.51827556 -0.059194315 -0.13348894 -0.03146783
-0.082605906 -0.21744627 0.13706313 0.11129657 -0.17718512 -0.17799966 0.014634992 -0.058572773
-0.38126418 0.045126904 0.010416832 0.042235065 0.13456404 -0.041466366 -0.21106201 0.21890308
0.017871149 0.032991618 0.07029628 -0.024919054 0.28178978 0.31316066 -0.10975749 -0.07502687
0.13548374 -0.17708157 0.23434976 0.19813706 0.31776962 0.11596216 -0.28160855 -0.2836532
0.30606958 0.34160563 0.040943153 -0.122520104 -0.10189114 0.23564944 0.18236643 0.13411713
-0.15528409 0.22274664 -0.30923375 -0.14582935 0.47765675 -0.053469703 0.13763268 0.18867703
-0.26098657 -0.10760023 0.06987157 -0.062249366 0.18478292 -0.16501826 -0.12471146 -0.036088012
-0.23769866 -0.09350652 -0.2077574 0.06460497 -0.07001535 -0.14540662 -0.3569536 -0.02000771
-0.10832074 -0.03669646 0.022276748 -0.11110222 -0.025190353 -0.16331647 0.094726525 -0.13661748
0.09234712 0.08444276 -0.351981 0.08567157 -0.07358501 0.039072342 -0.34968266 -0.050262455
-0.31614164 -0.27459574 0.15147321 0.04180696 0.41720408 0.0270027 -0.06930872 -0.11277587
-0.08708809 -0.19433017 0.10822829 0.17744567 0.029783027 -0.10709998 -0.18145116 0.10507411
0.42881235 0.3892343 0.034534033 -0.06166436 -0.3936534 0.32542175 -0.005865077 -0.029894881
0.2285293 -0.109159715 0.03830854 0.16956908 0.25487608 0.058317598 -0.24363017 0.08940294
0.10895835 0.27845287 -0.03630273 -0.12878451 -0.28007618 -0.1874856 0.19800998 -0.10764311
0.23047379 -0.008542701 -0.1575152 0.1501328 -0.007414167 0.13100497 0.49282062 0.23152931
-0.26996374 -0.0092038885 -0.0304441 -0.038382225 0.3207253 0.21699637 -0.20343727 0.054208387
0.06313309 0.05757596 -0.049951755 -0.031373784 -0.263584 -0.039797526 -0.4076058 -0.20883545
0.20124583 0.06873206 -0.05449701 0.14655061 -0.294114 -0.3014278 -0.060705304 -0.11689103
0.056175265 -0.10348925 0.012224585 0.04323904 0.03366391 0.08943088 0.6267457 -0.085403
-0.47459424 -0.14955677 -0.047850087 0.04330706 0.44385386 0.18376942 0.059918668 -0.08021764
-0.015090384 -0.11085519 -0.11396001 0.14039363 -0.20049246 -0.025489515 -0.05949513 0.100836456
0.06551716 -0.18107483 -0.015774164 0.01865773 -0.085871935 -0.15390877 -0.13168918 0.09425375
-0.07033385 -0.018481484 0.061881807 0.13474919 0.10543915 0.091386 0.18486935 0.037514
00000000: ef72 f13d 15f0 51ba eabe 71bd 3d6b 3b3e
00000010: 8086 f8bc eb04 05be 1295 703e e19c a23d
00000020: 59c6 db3e e8fb 613c 5e46 b1bd d10b 9abd
00000030: 4e13 74be 4da4 293d fc8d fabd 6756 dabd
00000040: b41f 953e 47f5 0d3e 2e80 40be aed0 a83d
00000050: 2ea9 3fbe 7818 9e3e 59a7 bcbd bff3 183e
00000060: 085d d53e a567 7fbd 0021 8abd 7799 1bbe
00000070: 8f41 043e dd90 e1bd eaa8 c2be 95b7 14be
00000080: 3341 fc3d a344 d23e 4178 e5bc 2486 3e3e
00000090: 6bb3 94be 844b 723e 36b2 84bc 8da2 d1bd
000000a0: bbde 84bd 4596 9bbd 2385 113e f919 32be
000000b0: f139 733e 90da c03d 1279 64be 645c 28bd
000000c0: 3d86 88be e6db eabd 146f 213d 1170 47bd
000000d0: d0b8 f9bd e6f8 9a3d 7285 3bbe 9404 a4bd
000000e0: 2dcc 3e3e 4341 313d 2a90 0abe 8169 1ebe
000000f0: b5ad 043f bd75 72bd 53b1 08be 69e4 00bd
00000100: 492d a9bd 3caa 5ebe 475a 0c3e 75ef e33d
00000110: 0470 35be 8b45 36be 9bc7 6f3c 01ea 6fbd
00000120: 0f35 c3be fdd6 383d 5cab 2a3c adfe 2c3d
00000130: 28cb 093e a3d8 29bd a420 58be 2128 603e
00000140: 8466 923c 3822 073d 7ff7 8f3d 0b23 ccbc
00000150: c046 903e 9856 a03e 89c8 e0bd b0a7 99bd
00000160: 40bc 0a3e df54 35be 62f9 6f3e 71e4 4a3e
00000170: b3b2 a23e 927d ed3d ff2e 90be fe3a 91be
00000180: 27b5 9c3e efe6 ae3e 02b4 273d d2eb fabd
00000190: 4dac d0bd 164e 713e 44be 3a3e 0056 093e
000001a0: cb02 1fbe b217 643e e353 9ebe 4a54 15be
000001b0: 6d8f f43e 0c03 5bbd 95ef 0c3e 8d34 413e
000001c0: 08a0 85be 825d dcbd d318 8f3d 31f9 7ebd
000001d0: bc37 3d3e 8cfa 28be b968 ffbd 06d1 13bd
000001e0: 4767 73be 5980 bfbd 5bbe 54be 9c4f 843d
000001f0: 3564 8fbd 79e5 14be 9fc2 b6be 36e7 a3bc
00000200: 44d7 ddbd 074f 16bd ba7d b63c 9089 e3bd
00000210: 005c cebc 6f3c 27be fbff c13d 74e5 0bbe
00000220: 7d20 bd3d 53f0 ac3d db36 b4be 9374 af3d
00000230: bdb3 96bd 520a 203d 9b09 b3be 01e0 4dbd
00000240: 51dd a1be d097 8cbe cb1b 1b3e c63d 2b3d
00000250: c69b d53e c434 dd3c bbf1 8dbd 09f7 e6bd
00000260: 3e5b b2bd 7dfe 46be cba6 dd3d 51b4 353e
00000270: 89fb f33c 3c57 dbbd 55ce 39be 1831 d73d
00000280: 4b8d db3e b849 c73e 8f73 0d3d c593 7cbd
00000290: f08c c9be ae9d a63e d52f c0bb 1ce6 f4bc
000002a0: 9603 6a3e 218f dfbd 6ae9 1c3d 84a3 2d3e
000002b0: 1e7f 823e 6fde 6e3d 307a 79be e318 b73d
000002c0: 8e25 df3d 6091 8e3e 2cb2 14bd 16e0 03be
000002d0: 2566 8fbe 3afc 3fbe 21c3 4a3e fe73 dcbd
000002e0: 5201 6c3e aff6 0bbc aa4b 21be 6abc 193e
000002f0: 8af2 f2bb 2b26 063e fc52 fc3e 0516 6d3e
00000300: b038 8abe e8cb 16bc e865 f9bc ae36 1dbd
00000310: 1b36 a43e 4c34 5e3e dc51 50be 9d09 5e3d
00000320: ec4b 813d c5d4 6b3d 369a 4cbd cc81 00bd
00000330: 7bf4 86be bb02 23bd b5b1 d0be f6d8 55be
00000340: 6313 4e3e 65c3 8c3d 4238 5fbd 5d11 163e
00000350: 1c96 96be bf54 9abe 20a6 78bd 9064 efbd
00000360: 0918 663d 2cf2 d3bd a049 483c 6b1b 313d
00000370: 2be3 093d 8a27 b73d 6872 203f c5e7 aebd
00000380: 04fe f2be 6925 19be 74fe 43bd be62 313d
00000390: d040 e33e 0d2e 3c3e 476d 753d 2549 a4bd
000003a0: a83d 77bc 0c08 e3bd de63 e9bd 59c3 0f3e
000003b0: e54d 4dbe 63cf d0bc 2ab1 73bd 5883 ce3d
000003c0: dc2d 863d ae6b 39be d238 81bc 19d8 983c
000003d0: a0dd afbd 439a 1dbe 87d9 06be 1c08 c13d
000003e0: 320b 90bd 7b66 97bc c777 7d3d b1fb 093e
000003f0: 7bf0 d73d 9528 bb3d 644e 3d3e 48a8 193d

network.0.bias f4 [128]
0.06238056 0.00011033335 0.05987586 -0.12965739 -0.038766894 0.08825601 0.05636698 -0.020826584
-0.0014835323 0.085772246 0.050372276 0.020211272 -0.018144574 -0.041397568 0.042280395 0.0
0.029791044 0.042005457 0.0 0.07266183 0.107803956 0.0075215246 0.017628815 0.004614058
0.049317855 -0.013872049 -0.032404874 0.02254476 0.07106906 0.066081494 0.03201771 -0.009198848
0.0 0.061319347 0.00078216166 -0.006951054 -0.030589953 0.0036023506 0.05479758 0.032520495
-0.030959668 -0.07122905 -0.006881929 0.0 0.09905192 0.057156846 0.0582288 -0.023667587
-0.025084108 0.0 -0.026520733 0.0020916532 0.10910992 0.04295437 0.07176449 -0.06591778
0.0820463 -0.053105768 -0.010804678 0.022798717 -0.024545174 0.014108805 0.04771854 0.0056830687
0.010367345 -0.04598834 -0.07436951 -0.0331044 0.10905952 -0.031193059 0.0 -0.009366432
0.00319124 -0.028463555 -0.0029330265 -0.06261997 0.04122601 0.0028697879 -0.014611061 0.0
0.06039074 0.1739978 0.034853455 0.051964343 0.0403036 -0.0051164776 0.052507434 -0.0071791625
0.048828874 0.023116328 0.06285319 0.034574162 0.0 0.019787943 0.07264961 -0.053346183
-0.055490866 0.08820628 0.031407572 0.03013701 -0.01636045 0.11481097 0.00374764 -0.036524322
-0.022785362 0.025124002 0.035786893 -0.086625636 0.03197269 0.026998209 0.008021777 0.022787997
-0.049832493 -0.08011731 -0.0828027 0.040558327 -0.020633793 0.01990129 0.05946406 0.09187008
0.06135184 0.0027651812 0.005435364 0.058884628 0.08251464 -0.05447138 -0.054388855 0.043622483
00000000: c282 7f3d c462 e738 6440 753d e8c4 04be
00000010: 09ca 1ebd 91bf b43d 10e1 663d 839c aabc
00000020: 1573 c2ba 5ca9 af3d 2953 4e3d 1c92 a53c
00000030: eea3 94bc 7f90 29bd 352e 2d3d 0000 0000
00000040: 590c f43c ea0d 2c3d 0000 0000 bacf 943d
00000050: 52c8 dc3d 1f77 f63b 4e6a 903c 8631 973b
00000060: 8501 4a3d 9747 63bc f9ba 04bd caaf b83c
00000070: a88c 913d bc55 873d 0125 033d c4b6 16bc
00000080: 0000 0000 ff29 7b3d fb09 4d3a abc5 e3bb
00000090: c897 fabc 6a15 6c3b 6d73 603d 3634 053d
000000a0: 219f fdbc 89e0 91bd ce81 e1bb 0000 0000
000000b0: bcdb ca3d 4c1d 6a3d 5281 6e3d 87e2 c1bc
000000c0: 307d cdbc 0000 0000 0242 d9bc 1e14 093b
000000d0: 0675 df3d ecf0 2f3d 43f9 923d e7ff 86bd
000000e0: e407 a83d 6f85 59bd 1b06 31bc 60c4 ba3c
000000f0: f612 c9bc 9e28 673c 8474 433d 0939 ba3b
00000100: ccdb 293c 455e 3cbd 0b4f 98bd 7b98 07bd
00000110: 995a df3d 9688 ffbc 0000 0000 aa75 19bc
00000120: 1f24 513b 672c e9bc 0538 40bb e63e 80bd
00000130: 9bdc 283d 0d13 3c3b 3b63 6fbc 0000 0000
00000140: 485c 773d 7b2c 323e 7fc2 0e3d 90d8 543d
00000150: 6315 253d 20a8 a7bb 0912 573d 2e3f ebbb
00000160: c900 483d 745e bd3c 2cb9 803d a39d 0d3d
00000170: 0000 0000 531a a23c 52c9 943d 8781 5abd
00000180: 644a 63bd 7ea5 b43d 3aa5 003d e4e1 f63c
00000190: 5a06 86bc 0422 eb3d f79a 753b 879a 15bd
000001a0: 5ea8 babc dad0 cd3c 4795 123d c868 b1bd
000001b0: ccf5 023d 592b dd3c c56d 033c e5ad ba3c
000001c0: 281d 4cbd 8b14 a4bd 7694 a9bd 7d20 263d
000001d0: 3308 a9bc 0808 a33c 9690 733d 6126 bc3d
000001e0: 114c 7b3d 0b38 353b 231b b23b 0231 713d
000001f0: 70fd a83d 621d 5fbd d9c6 5ebd 7dad 323d

network.3.weight f4 [128, 128]
0.15843862 -0.027483841 0.2754075 0.08525694 0.10065558 0.038945008 0.29586372 0.1070589
-0.015029855 -0.004160479 0.046555903 0.27527493 -0.16736802 0.14656706 0.0728739 -0.08765849
0.26598093 -0.0034671044 -0.13850698 0.12403291 0.15783572 0.18565434 0.16362418 0.28214025
0.1454382 0.2022288 0.20901224 0.016942924 0.019642618 0.30305454 -0.13931793 -0.0095664775
0.011630675 0.08479252 -0.016710179 0.017103625 -0.26332313 0.14095497 0.15084825 -0.029611334
0.061155103 0.029812964 0.14729694 0.05666657 0.30502212 0.20164281 0.24291265 0.48738196
-0.17524602 0.035013605 -0.117397346 -0.024046842 -0.06302228 0.07464299 0.027266951 0.062090255
0.24517941 -0.08011146 -0.101658486 0.3539975 -0.07575823 0.23029713 -0.038491562 -0.043911085
0.02977231 0.087267555 -0.037062604 -0.00072683225 0.21131511 -0.1200883 -0.03721864 0.053088177
0.27566436 0.038960278 -0.10975532 -0.0906834 0.09097683 0.066915825 0.021316793 -0.08477619
0.2512741 0.2527559 0.36713254 0.28918755 0.09315885 0.05841442 0.18334399 -0.080903955
-0.05648185 0.20177917 0.10432265 0.30980974 0.0014370693 0.08313384 0.12955923 0.08860575
0.26308963 0.32558846 0.32758597 -0.09421197 0.22956334 0.22396919 0.0118245715 0.009197616
0.22566299 0.41157687 0.13952564 0.010577617 0.12334823 0.056416973 0.2856823 0.11041219
0.28561914 -0.14332636 -0.090594545 0.10979027 0.12469447 0.3295914 0.40182027 0.099883966
0.41441652 0.06492464 0.18427308 0.24952902 0.11025619 -0.010662069 0.22778934 0.25581276
-0.11337116 -0.05265271 0.21274967 0.1773388 0.097519934 -0.04578138 0.2632126 0.094187774
-0.045135226 0.18695202 0.117396444 -0.057068665 -0.12557293 -0.004031137 -0.03054442 -0.003418047
0.2054332 -0.20720828 0.019354764 0.12139612 0.10837648 0.01541571 0.06569772 0.18518913
-0.14542347 0.040373165 0.3194357 -0.04640547 0.13104025 0.35147068 0.08832268 0.13023587
0.12487841 0.011554206 0.07231103 -0.13156214 -0.08679603 0.12166138 0.016300028 0.09452519
-0.07189514 -0.044871613 0.1572202 -0.1392613 0.09463668 0.15942402 -0.30410486 0.14325953
0.05135505 0.10155902 -0.12799868 -0.15887533 0.21072638 0.30637756 -0.09188939 0.0024538718
0.020258754 0.09463006 -0.062627755 0.24585009 -0.06046081 0.20437321 0.18546094 -0.08518195
0.03587877 -0.08993436 -0.015811093 -0.016454456 -0.0066112676 -0.0030454986 -0.053482566 -0.21115054
0.43912545 0.0898971 -0.023404159 -0.0989111 -0.06665994 0.056002475 0.11774529 -0.03566183
0.0753469 -0.06021031 0.39368203 0.050183706 0.19477333 0.10363558 0.1523796 -0.011359155
0.17729189 0.16322963 -0.12628931 0.2047039 -0.10190773 0.005260279 0.17874537 -0.1983716
-0.10169915 0.09233446 0.06788183 -0.05538367 0.19307357 0.20448282 -0.15822557 -0.12225382
0.06279237 0.056162354 -0.120965354 0.08794044 -0.020863641 -0.058124248 0.24127522 0.009774073
-0.042719513 0.031314254 -0.24128813 0.01539396 0.02284919 -0.035915155 0.19109389 0.1487939
0.27229065 0.05506979 0.3149796 0.22019602 0.22301695 -0.06435279 0.31327686 0.1870112
00000000: bc3d 223e cb25 e1bc 3602 8d3e 319b ae3d
00000010: 8324 ce3d cd84 1f3d 737b 973e b241 db3d
00000020: c83f 76bc a154 88bb 67b1 3e3d d6f0 8c3e
00000030: 8662 2bbe ad15 163e e93e 953d 4b86 b3bd
00000040: a72e 883e 5c38 63bb c6d4 0dbe f704 fe3d
00000050: b09f 213e 2c1c 3e3e 198d 273e b074 903e
00000060: c0ed 143e 1115 4f3e 4e07 563e e3cb 8a3c
00000070: 8ee9 a03c f729 9b3e 5ca9 0ebe b7bc 1cbc
00000080: 968e 3e3c b3a7 ad3d c9e3 88bc e71c 8c3c
00000090: 4ad2 86be 8056 103e f777 1a3e 7893 f2bc
000000a0: c67d 7a3d 513a f43c 02d5 163e 351b 683d
000000b0: dc2b 9c3e 747b 4e3e 18be 783e 218a f93e
000000c0: b173 33be 6d6a 0f3d 056e f0bd e2fd c4bc
000000d0: d311 81bd 6dde 983d f15e df3c 5a52 7e3d
000000e0: 5010 7b3e 7a11 a4bd 5332 d0bd 293f b53e
000000f0: 2227 9bbd 03d3 6b3e 54a9 1dbd 1cdc 33bd
00000100: 0fe5 f33c 55b9 b23d f5ce 17bd e388 3eba
00000110: fd62 583e dbf0 f5bd 9372 18bd fd72 593d
00000120: e123 8d3e d094 1f3d 66c7 e0bd 38b8 b9bd
00000130: 0f52 ba3d 2a0b 893d 8ea0 ae3c 249f adbd
00000140: 00a7 803e 3969 813e ccf8 bb3e 6410 943e
00000150: 11ca be3d f543 6f3d 87be 3b3e f9b0 a5bd
00000160: 8359 67bd 339f 4e3e 1da7 d53d 629f 9e3e
00000170: 0b5c bc3a 1342 aa3d 2dab 043e ee76 b53d
00000180: afb3 863e 88b3 a63e 59b9 a73e 35f2 c0bd
00000190: a712 6b3e 2e58 653e d9bb 413c 99b1 163c
000001a0: 3314 673e 34ba d23e cfdf 0e3e be4d 2d3c
000001b0: ff9d fc3d 7c15 673d f344 923e c91f e23d
000001c0: ac3c 923e 25c4 12be a289 b9bd b9d9 e03d
000001d0: d05f ff3d 34c0 a83e 63bb cd3e f78f cc3d
000001e0: 672e d43e 36f7 843d 15b2 3c3e 8984 7f3e
000001f0: ffcd e13d f5af 2ebc 9c41 693e e4f9 823e
00000200: 242f e8bd 5eaa 57bd 0ddb 593e 4d98 353e
00000210: 88b8 c73d 4285 3bbd cdc3 863e 85e5 c03d
00000220: b7df 38bd 5a70 3f3e 8c6d f03d d5c0 69bd
00000230: 3196 00be a117 84bb 4b38 fabc 5001 60bb
00000240: 155d 523e 682e 54be e28d 9e3c 879e f83d
00000250: 7df4 dd3d 2d92 7c3c 878c 863d 38a2 3d3e
00000260: e4e9 14be 555e 253d 138d a33e aa13 3ebd
00000270: 6a2f 063e f7f3 b33e 85e2 b43d 8d5c 053e
00000280: 40c0 ff3d da4d 3d3c ce17 943d 3ab8 06be
00000290: 1ec2 b1bd 9a29 f93d a387 853c 6c96 c13d
000002a0: c23d 93bd 4ccb 37bd 55fe 203e 849a 0ebe
000002b0: e0d0 c13d 0d40 233e a2b3 9bbe a0b2 123e
000002c0: ac59 523d 2dfe cf3d 1612 03be 37b0 22be
000002d0: a8c8 573e 85dd 9c3e 8130 bcbd 23d1 203b
000002e0: b0f5 a53c 68cd c13d fb42 80bd 20c0 7b3e
000002f0: c1a5 77bd 3647 513e 79e9 3d3e e073 aebd
00000300: 9ef5 123d 812f b8bd 4486 81bc 7fcb 86bc
00000310: 55a3 d8bb fd96 47bb 8910 5bbd d937 58be
00000320: 0dd5 e03e f91b b83d 14ba bfbc e791 cabd
00000330: 0285 88bd da62 653d 7124 f13d 2412 12bd
00000340: 7a4f 9a3d 169f 76bd b190 c93e 6e8d 4d3d
00000350: a972 473e e43e d43d 6609 1c3e c01b 3abc
00000360: 018c 353e ab25 273e fc51 01be e69d 513e
00000370: 00b5 d0bd 6b5e ac3b 0709 373e ed21 4bbe
00000380: a547 d0bd d919 bd3d a105 8b3d fdd9 62bd
00000390: 14b5 453e f263 513e e205 22be 3660 fabd
000003a0: 4999 803d 7f0a 663d afbc f7bd 1e1a b43d
000003b0: 3aea aabc b113 6ebd da10 773e 6f23 203c
000003c0: a8fa 2ebd 6043 003d 3c14 77be f336 7c3c
000003d0: 392e bb3c c51b 13bd 1eae 433e 6e5d 183e
000003e0: ae69 8b3e dc90 613d 0245 a13e 117b 613e
000003f0: 8e5e 643e 65cb 83bd d365 a03e dd7f 3f3e

network.3.bias f4 [128]
0.24117935 0.08613795 0.09210287 0.14612702 -0.00398752 0.012995096 -0.032219276 -0.029938662
0.09893325 0.010605641 0.047860574 0.05509021 0.050369997 0.19942963 0.02744418 -0.015916856
0.2350942 0.039020665 -0.014988662 0.32989937 -0.06483269 0.18129276 0.17513022 0.04545834
-0.015702287 -0.0387647 0.22395065 0.17843354 0.0023579663 0.076742895 0.22017936 -0.038168006
-0.035825454 0.08716984 0.062007975 -0.018396936 -0.01778988 0.15375575 0.037841897 -0.024726972
0.0107336175 -0.023594895 0.06357214 -0.036848888 -0.043293625 -0.02775801 -0.044683125 0.031795997
0.055946123 -0.076343484 0.17758396 -0.03799536 -0.0024339375 -0.023131646 0.20181946 0.026545413
0.0006434172 0.0093063805 -0.024290215 0.21428216 -0.015334412 0.09847429 0.12333243 -0.0011276067
-0.024459431 -0.026371576 -0.022765612 -0.033160713 0.09029722 0.0069780885 0.057441313 0.033228956
-0.01169754 0.12559974 0.11178185 -0.017530309 0.20052649 0.10708922 0.15308318 -0.027520373
0.042782757 0.20379516 -0.03922555 -0.013247692 -0.02970595 0.055944555 0.020649765 0.13624328
0.03498237 0.012465764 0.20093705 0.10705358 -0.008499966 0.16924377 0.01481317 0.014299912
0.014410884 0.078408696 -0.0075081433 -0.0487895 -0.02586148 -0.04998855 0.06181623 0.15860981
0.081397034 0.24777865 -0.02538653 0.22909914 0.05618349 0.038392663 0.08149865 -0.003959742
0.15734369 0.0050252676 0.15229121 0.16197476 -0.03372573 0.06673957 -0.013468442 0.08492912
0.0019505345 0.0023116812 0.18146776 -0.01606635 0.252961 0.003122129 0.14376765 -0.025076568
00000000: b8f7 763e 1869 b03d 6ea0 bc3d 52a2 153e
00000010: bea9 82bb 62e9 543c 5cf8 03bd ed41 f5bc
00000020: 849d ca3d 48c3 2d3c 7309 443d 46a6 613d
00000030: c550 4e3d 4837 4c3e 9ed2 e03c 1164 82bc
00000040: 89bc 703e 22d4 1f3d 0193 75bc 92e8 a83e
00000050: 00c7 84bd cfa4 393e 5655 333e 8632 3a3d
00000060: 15a2 80bc bcc7 1ebd 5253 653e 48b7 363e
00000070: 1c88 1a3b 612b 9d3d b376 613e 0e56 1cbd
00000080: b6bd 12bd 1a86 b23d 13fc 7d3d 2cb5 96bc
00000090: 15bc 91bc 2672 1d3e 1b00 1b3d 3890 cabc
000000a0: 0edc 2f3c 154a c1bc 1c32 823d dcee 16bd
000000b0: a854 31bd c464 e3bc a705 37bd 853c 023d
000000c0: c327 653d f959 9cbd 92d8 353e 06a1 1bbd
000000d0: b282 1fbb 947e bdbc c3a9 4e3e c475 d93c
000000e0: ffaa 283a ca79 183c 46fc c6bc c86c 5b3e
000000f0: 303d 7bbc e3ac c93d b795 fc3d 34cc 93ba
00000100: 255f c8bc 3409 d8bc f37e babc 87d3 07bd
00000110: c0ed b83d 73a8 e43b 9547 6b3d 161b 083d
00000120: 0aa7 3fbc 389d 003e e2ed e43d b99b 8fbc
00000130: d156 4d3e 9851 db3d d6c1 1c3e 6872 e1bc
00000140: f93c 2f3d aeaf 503e f8aa 20bd d90c 59bc
00000150: e459 f3bc 1e26 653d b229 a93c 5c83 0b3e
00000160: ac49 0f3d 343d 4c3c 71c2 4d3e e83e db3d
00000170: 7143 0bbc 3d4e 2d3e f0b2 723c 2e4a 6a3c
00000180: a11b 6c3c bd94 a03d df06 f6bb 80d7 47bd
00000190: 74db d3bc cbc0 4cbd 0433 7d3d 9c6a 223e
000001a0: 7db3 a63d b0b9 7d3e 6af7 cfbc f798 6a3e
000001b0: a920 663d a041 1d3d c4e8 a63d b9c0 81bb
000001c0: b41e 213e 00ab a43b 3af2 1b3e b6dc 253e
000001d0: fe23 0abd c1ae 883d bdaa 5cbc 52ef ad3d
000001e0: 14a9 ff3a 937f 173b afd2 393e 949d 83bc
000001f0: 1b84 813e a29c 4c3b d437 133e 606d cdbc

network.6.weight f4 [5, 128]
0.081042394 -0.171627 0.20100251 -0.13220133 0.19826354 0.038869414 -0.12727565 0.026453797
0.40046343 0.30043745 0.25460795 0.18031557 0.15345398 0.3248485 0.067031115 -0.15855698
0.11226439 0.06535679 -0.19814584 0.029941915 0.10911871 0.38801426 0.21521755 0.40751892
-0.30256766 0.09474215 0.21144769 -0.05150784 0.07153401 0.47971585 0.4128585 -0.18688689
-0.13427328 -0.23519716 0.4041279 -0.17990021 0.16673447 0.39314932 -0.12599969 0.4776453
0.029279733 -0.26615784 0.10707014 -0.016900988 0.1499543 -0.1356322 0.16263942 -0.22478274
0.17577632 0.24629262 0.39251363 -0.10442759 -0.24040066 0.17568846 0.11164289 -0.20439251
0.06706729 -0.26438302 0.05395014 0.4105727 0.08066281 0.4396135 0.18208367 0.05678385
-0.13899061 0.35015395 0.13895927 0.10497639 -0.2743578 -0.21977252 0.33849677 0.10658081
-0.19400983 0.13754804 0.33797774 -0.28306764 -0.100220636 -0.08166119 -0.029156668 0.02989834
-0.22341329 0.47940737 0.18400101 -0.26917776 0.08096144 0.15923916 -0.12251744 0.09237656
-0.13014296 0.26167545 0.11503627 -0.15139683 -0.1758413 0.32587737 -0.2665553 -0.13123193
-0.3226658 0.54098135 -0.32267812 0.13532455 -0.1328546 0.031157035 0.09635359 -0.11442205
-0.1140624 0.40465865 -0.13130511 0.28778264 -0.106871 -0.01651491 0.3398764 0.050864503
0.251795 0.083400354 0.15412576 0.29780585 -0.116429575 -0.13042495 0.20673032 -0.12577857
-0.27967513 -0.16774051 0.47887775 -0.0065992465 0.40256307 -0.1805309 0.49697274 0.056251496
0.28263894 0.17903033 0.4904053 0.20878874 -0.34408116 -0.22089276 -0.25777897 -0.12135425
0.08239106 -0.20837337 -0.13548222 -0.07411255 0.16202363 0.4564198 -0.08398909 -0.21439771
0.36211738 0.1748894 -0.07611752 0.3958188 -0.16965592 0.21987614 0.32782286 0.13408977
0.021349084 0.14370488 0.3941839 0.40049666 -0.3099638 -0.0149192605 0.36490384 -0.17537165
-0.23475674 0.3541472 0.15466106 -0.09288059 -0.17016222 0.3547369 -0.20529045 0.36686033
-0.19079588 -0.13242503 -0.06552604 -0.1874374 -0.32873723 -0.15890765 -0.33423096 -0.07256442
0.590811 0.01232365 0.27957925 -0.15716524 -0.34089008 -0.088611275 0.048911672 0.05583699
-0.15173173 -0.070749626 0.04132389 0.39928126 -0.022054786 0.056325156 0.46498552 0.4946612
-0.16393586 -0.2213612 0.16928853 -0.07456925 0.22273366 -0.0044459905 0.20419724 0.46195403
-0.16962415 0.28971964 0.13965556 -0.14657153 0.3021321 0.30117443 0.38076732 -0.24354744
0.19544113 0.43876937 -0.3291398 -0.24896394 0.14167297 0.2342767 0.15382896 0.56433755
0.10100211 0.47827974 0.36807057 0.31296802 -0.14695837 0.44267675 -0.06983573 -0.039222926
-0.01459257 0.21398532 -0.07748005 -0.1591974 -0.11174256 -0.010209634 0.29274198 0.4098284
0.3859396 0.30067575 -0.25517866 0.4267491 -0.03361832 -0.07944631 0.12524725 -0.052450385
0.4337535 -0.2604954 0.45364368 0.21742114 -0.27140766 0.19575566 -0.19215545 0.24738151
0.050519623 -0.014286069 0.2851409 -0.092192024 0.48184112 0.019871278 0.19456501 -0.21442287
00000000: 8ef9 a53d fdbe 2fbe 9ad3 4d3e c95f 07be
00000010: 9905 4b3e 8935 1f3d 8c54 02be a2b5 d83c
00000020: 8b09 cd3e f0d2 993e f95b 823e a5a4 383e
00000030: 0a23 1d3e 8b52 a63e 9c47 893d c35c 22be
00000040: dfea e53d c8d9 853d bee6 4abe bf48 f53c
00000050: a179 df3d cea9 c63e fd61 5c3e 52a6 d03e
00000060: 26ea 9abe 2c08 c23d be85 583e e3f9 52bd
00000070: 6c80 923d 519d f53e 3062 d33e 475f 3fbe
00000080: ef7e 09be 86d7 70be dae9 ce3e c337 38be
00000090: 71bc 2a3e de4a c93e 1006 01be ed8d f43e
000000a0: 0ddc ef3c d745 88be 9747 db3d f173 8abc
000000b0: 9f8d 193e 2be3 0abe f38a 263e 722d 66be
000000c0: b5fe 333e 2234 7c3e 8cf7 c83e 22de d5bd
000000d0: 972b 76be ade7 333e 07a5 e43d 454c 51be
000000e0: 935a 893d 365d 87be d2fa 5c3d 9636 d23e
000000f0: 8b32 a53d 0515 e13e 2474 3a3e 2f96 683d
00000100: 8e53 0ebe 6147 b33e 574b 0e3e ddfd d63d
00000110: a078 8cbe 0c0c 61be 734f ad3e 0a47 da3d
00000120: 83aa 46be 65d9 0c3e 6b0b ad3e 3eee 90be
00000130: 7a40 cdbd fb3d a7bd f7d9 eebc 5ded f43c
00000140: 74c6 64be e274 f53e c36a 3c3e abd1 89be
00000150: 1dcf a53d 970f 233e 6cea fabd ec2f bd3d
00000160: 3244 05be 53fa 853e 2398 eb3d c507 1bbe
00000170: be0f 34be 66d9 a63e f079 88be aa61 06be
00000180: 7434 a5be c17d 0a3f 1136 a5be 8592 0a3e
00000190: 090b 08be 0a3d ff3c 0855 c53d 1c56 eabd
000001a0: 8c99 e9bd 6b2f cf3e d974 06be 3f58 933e
000001b0: 2fdf dabd 474a 87bc 4804 ae3e 4c57 503d
000001c0: 46eb 803e cecd aa3d 25d3 1d3e 027a 983e
000001d0: a172 eebd 1e8e 05be 1db1 533e 19cc 00be
000001e0: 9431 8fbe 2bc4 2bbe 772f f53e 7e3e d8bb
000001f0: bf1c ce3e 18dd 38be 3673 fe3e f867 663d
00000200: 0db6 903e ba53 373e 6716 fb3e b7cc 553e
00000210: 682b b0be b631 62be 9bfb 83be 9488 f8bd
00000220: a5bc a83d d45f 55be dabb 0abe 52c8 97bd
00000230: 86e9 253e dbaf e93e 7902 acbd 138b 5bbe
00000240: 7367 b93e 3516 333e 81e3 9bbd c3a8 ca3e
00000250: 48ba 2dbe 3627 613e 66d8 a73e d44e 093e
00000260: 46e4 ae3c 5f27 133e 79d2 c93e e60d cd3e
00000270: 93b3 9ebe ea6f 74bc add4 ba3e a094 33be
00000280: 1264 70be c852 b53e 785f 1e3e 2e38 bebd
00000290: 013f 2ebe 13a0 b53e a937 52be 1ed5 bb3e
000002a0: ff5f 43be 6d9a 07be 8432 86bd 97ef 3fbe
000002b0: 3f50 a8be b0b8 22be 5220 abbe a89c 94bd
000002c0: 643f 173f 22e9 493c 0325 8f3e edef 20be
000002d0: 2589 aebe d479 b5bd 9b57 483d 54b5 643d
000002e0: 905f 1bbe 2ee5 90bd 3d43 293d 986e cc3e
000002f0: 3dac b4bc 35b5 663d 9512 ee3e 3c44 fd3e
00000300: cdde 27be 83ac 62be f959 2d3e c3b7 98bd
00000310: 4b14 643e acaf 91bb 1519 513e 3d85 ec3e
00000320: f4b1 2dbe 2256 943e de01 0f3e d916 16be
00000330: 0fb1 9a3e 8933 9a3e eff3 c23e 8064 79be
00000340: b821 483e 61a6 e03e 0385 a8be 67f0 7ebe
00000350: b812 113e 3be6 6f3e 5785 1d3e 6d78 103f
00000360: 32da ce3d 15e1 f43e bf73 bc3e 583d a03e
00000370: 417c 16be 87a6 e23e 0906 8fbd 38a8 20bd
00000380: ad15 6fbc f81e 5b3e dcad 9ebd a504 23be
00000390: 49d9 e4bd 4f46 27bc 47e2 953e 07d5 d13e
000003a0: e099 c53e 2cf2 993e c7a6 82be dc7e da3e
000003b0: 5db3 09bd bfb4 a2bd d140 003e 37d6 56bd
000003c0: f014 de3e a75f 85be fc43 e83e a6a3 5e3e
000003d0: f2f5 8abe 2c74 483e 66c4 44be 9451 7d3e
000003e0: aaed 4e3d 1e10 6abc fdfd 913e 2ccf bcbd
000003f0: e1b3 f63e 17c9 a23c 0d3c 473e ab91 5bbe

network.6.bias f4 [5]
0.012942319 0.08676696 0.053442944 0.09879612 0.03591589
00000000: 050c 543c e0b2 b13d fde6 5a3d 9f55 ca3d
00000010: 8a1c 133d

network.0.weight f4 [128, 16]
0.117895 -0.00080084923 -0.05901996 0.18302627 -0.030337572 -0.12990157 0.23494366 0.079400785
0.42924765 0.013792969 -0.086559996 -0.07521785 -0.23835489 0.041416455 -0.122341126 -0.10661011
0.2912575 0.13863097 -0.18798897 0.082429275 -0.1871688 0.30878043 -0.092116065 0.14936732
0.4167254 -0.062354703 -0.067445755 -0.15195261 0.12915634 -0.110139586 -0.38019496 -0.14523156
0.12317123 0.4106799 -0.028011443 0.18605858 -0.29043135 0.2366162 -0.016198259 -0.10236082
-0.06487795 -0.07597021 0.14210944 -0.1739272 0.23752572 0.094166875 -0.2231181 -0.041103736
-0.26664916 -0.114677235 0.039412573 -0.04869086 -0.12193453 0.07567005 -0.18312624 -0.08008686
0.18632574 0.04327513 -0.13531557 -0.15469934 0.51827556 -0.059194315 -0.13348894 -0.03146783
-0.082605906 -0.21744627 0.13706313 0.11129657 -0.17718512 -0.17799966 0.014634992 -0.058572773
-0.38126418 0.045126904 0.010416832 0.042235065 0.13456404 -0.041466366 -0.21106201 0.21890308
0.017871149 0.032991618 0.07029628 -0.024919054 0.28178978 0.31316066 -0.10975749 -0.07502687
0.13548374 -0.17708157 0.23434976 0.19813706 0.31776962 0.11596216 -0.28160855 -0.2836532
0.30606958 0.34160563 0.040943153 -0.122520104 -0.10189114 0.23564944 0.18236643 0.13411713
-0.15528409 0.22274664 -0.30923375 -0.14582935 0.47765675 -0.053469703 0.13763268 0.18867703
-0.26098657 -0.10760023 0.06987157 -0.062249366 0.18478292 -0.16501826 -0.12471146 -0.036088012
-0.23769866 -0.09350652 -0.2077574 0.06460497 -0.07001535 -0.14540662 -0.3569536 -0.02000771
-0.10832074 -0.03669646 0.022276748 -0.11110222 -0.025190353 -0.16331647 0.094726525 -0.13661748
0.09234712 0.08444276 -0.351981 0.08567157 -0.07358501 0.039072342 -0.34968266 -0.050262455
-0.31614164 -0.27459574 0.15147321 0.04180696 0.41720408 0.0270027 -0.06930872 -0.11277587
-0.08708809 -0.19433017 0.10822829 0.17744567 0.029783027 -0.10709998 -0.18145116 0.10507411
0.42881235 0.3892343 0.034534033 -0.06166436 -0.3936534 0.32542175 -0.005865077 -0.029894881
0.2285293 -0.109159715 0.03830854 0.16956908 0.25487608 0.058317598 -0.24363017 0.08940294
0.10895835 0.27845287 -0.03630273 -0.12878451 -0.28007618 -0.1874856 0.19800998 -0.10764311
0.23047379 -0.008542701 -0.1575152 0.1501328 -0.007414167 0.13100497 0.49282062 0.23152931
-0.26996374 -0.0092038885 -0.0304441 -0.038382225 0.3207253 0.21699637 -0.20343727 0.054208387
0.06313309 0.05757596 -0.049951755 -0.031373784 -0.263584 -0.039797526 -0.4076058 -0.20883545
0.20124583 0.06873206 -0.05449701 0.14655061 -0.294114 -0.3014278 -0.060705304 -0.11689103
0.056175265 -0.10348925 0.012224585 0.04323904 0.03366391 0.08943088 0.6267457 -0.085403
-0.47459424 -0.14955677 -0.047850087 0.04330706 0.44385386 0.18376942 0.059918668 -0.08021764
-0.015090384 -0.11085519 -0.11396001 0.14039363 -0.20049246 -0.025489515 -0.05949513 0.100836456
0.06551716 -0.18107483 -0.015774164 0.01865773 -0.085871935 -0.15390877 -0.13168918 0.09425375
-0.07033385 -0.018481484 0.061881807 0.13474919 0.10543915 0.091386 0.18486935 0.037514
00000000: ef72 f13d 15f0 51ba eabe 71bd 3d6b 3b3e
00000010: 8086 f8bc eb04 05be 1295 703e e19c a23d
00000020: 59c6 db3e e8fb 613c 5e46 b1bd d10b 9abd
00000030: 4e13 74be 4da4 293d fc8d fabd 6756 dabd
00000040: b41f 953e 47f5 0d3e 2e80 40be aed0 a83d
00000050: 2ea9 3fbe 7818 9e3e 59a7 bcbd bff3 183e
00000060: 085d d53e a567 7fbd 0021 8abd 7799 1bbe
00000070: 8f41 043e dd90 e1bd eaa8 c2be 95b7 14be
00000080: 3341 fc3d a344 d23e 4178 e5bc 2486 3e3e
00000090: 6bb3 94be 844b 723e 36b2 84bc 8da2 d1bd
000000a0: bbde 84bd 4596 9bbd 2385 113e f919 32be
000000b0: f139 733e 90da c03d 1279 64be 645c 28bd
000000c0: 3d86 88be e6db eabd 146f 213d 1170 47bd
000000d0: d0b8 f9bd e6f8 9a3d 7285 3bbe 9404 a4bd
000000e0: 2dcc 3e3e 4341 313d 2a90 0abe 8169 1ebe
000000f0: b5ad 043f bd75 72bd 53b1 08be 69e4 00bd
00000100: 492d a9bd 3caa 5ebe 475a 0c3e 75ef e33d
00000110: 0470 35be 8b45 36be 9bc7 6f3c 01ea 6fbd
00000120: 0f35 c3be fdd6 383d 5cab 2a3c adfe 2c3d
00000130: 28cb 093e a3d8 29bd a420 58be 2128 603e
00000140: 8466 923c 3822 073d 7ff7 8f3d 0b23 ccbc
00000150: c046 903e 9856 a03e 89c8 e0bd b0a7 99bd
00000160: 40bc 0a3e df54 35be 62f9 6f3e 71e4 4a3e
00000170: b3b2 a23e 927d ed3d ff2e 90be fe3a 91be
00000180: 27b5 9c3e efe6 ae3e 02b4 273d d2eb fabd
00000190: 4dac d0bd 164e 713e 44be 3a3e 0056 093e
000001a0: cb02 1fbe b217 643e e353 9ebe 4a54 15be
000001b0: 6d8f f43e 0c03 5bbd 95ef 0c3e 8d34 413e
000001c0: 08a0 85be 825d dcbd d318 8f3d 31f9 7ebd
000001d0: bc37 3d3e 8cfa 28be b968 ffbd 06d1 13bd
000001e0: 4767 73be 5980 bfbd 5bbe 54be 9c4f 843d
000001f0: 3564 8fbd 79e5 14be 9fc2 b6be 36e7 a3bc
00000200: 44d7 ddbd 074f 16bd ba7d b63c 9089 e3bd
00000210: 005c cebc 6f3c 27be fbff c13d 74e5 0bbe
00000220: 7d20 bd3d 53f0 ac3d db36 b4be 9374 af3d
00000230: bdb3 96bd 520a 203d 9b09 b3be 01e0 4dbd
00000240: 51dd a1be d097 8cbe cb1b 1b3e c63d 2b3d
00000250: c69b d53e c434 dd3c bbf1 8dbd 09f7 e6bd
00000260: 3e5b b2bd 7dfe 46be cba6 dd3d 51b4 353e
00000270: 89fb f33c 3c57 dbbd 55ce 39be 1831 d73d
00000280: 4b8d db3e b849 c73e 8f73 0d3d c593 7cbd
00000290: f08c c9be ae9d a63e d52f c0bb 1ce6 f4bc
000002a0: 9603 6a3e 218f dfbd 6ae9 1c3d 84a3 2d3e
000002b0: 1e7f 823e 6fde 6e3d 307a 79be e318 b73d
000002c0: 8e25 df3d 6091 8e3e 2cb2 14bd 16e0 03be
000002d0: 2566 8fbe 3afc 3fbe 21c3 4a3e fe73 dcbd
000002e0: 5201 6c3e aff6 0bbc aa4b 21be 6abc 193e
000002f0: 8af2 f2bb 2b26 063e fc52 fc3e 0516 6d3e
00000300: b038 8abe e8cb 16bc e865 f9bc ae36 1dbd
00000310: 1b36 a43e 4c34 5e3e dc51 50be 9d09 5e3d
00000320: ec4b 813d c5d4 6b3d 369a 4cbd cc81 00bd
00000330: 7bf4 86be bb02 23bd b5b1 d0be f6d8 55be
00000340: 6313 4e3e 65c3 8c3d 4238 5fbd 5d11 163e
00000350: 1c96 96be bf54 9abe 20a6 78bd 9064 efbd
00000360: 0918 663d 2cf2 d3bd a049 483c 6b1b 313d
00000370: 2be3 093d 8a27 b73d 6872 203f c5e7 aebd
00000380: 04fe f2be 6925 19be 74fe 43bd be62 313d
00000390: d040 e33e 0d2e 3c3e 476d 753d 2549 a4bd
000003a0: a83d 77bc 0c08 e3bd de63 e9bd 59c3 0f3e
000003b0: e54d 4dbe 63cf d0bc 2ab1 73bd 5883 ce3d
000003c0: dc2d 863d ae6b 39be d238 81bc 19d8 983c
000003d0: a0dd afbd 439a 1dbe 87d9 06be 1c08 c13d
000003e0: 320b 90bd 7b66 97bc c777 7d3d b1fb 093e
000003f0: 7bf0 d73d 9528 bb3d 644e 3d3e 48a8 193d

network.0.bias f4 [128]
0.06238056 0.00011033335 0.05987586 -0.12965739 -0.038766894 0.08825601 0.05636698 -0.020826584
-0.0014835323 0.085772246 0.050372276 0.020211272 -0.018144574 -0.041397568 0.042280395 0.0
0.029791044 0.042005457 0.0 0.07266183 0.107803956 0.0075215246 0.017628815 0.004614058
0.049317855 -0.013872049 -0.032404874 0.02254476 0.07106906 0.066081494 0.03201771 -0.009198848
0.0 0.061319347 0.00078216166 -0.006951054 -0.030589953 0.0036023506 0.05479758 0.032520495
-0.030959668 -0.07122905 -0.006881929 0.0 0.09905192 0.057156846 0.0582288 -0.023667587
-0.025084108 0.0 -0.026520733 0.0020916532 0.10910992 0.04295437 0.07176449 -0.06591778
0.0820463 -0.053105768 -0.010804678 0.022798717 -0.024545174 0.014108805 0.04771854 0.0056830687
0.010367345 -0.04598834 -0.07436951 -0.0331044 0.10905952 -0.031193059 0.0 -0.009366432
0.00319124 -0.028463555 -0.0029330265 -0.06261997 0.04122601 0.0028697879 -0.014611061 0.0
0.06039074 0.1739978 0.034853455 0.051964343 0.0403036 -0.0051164776 0.052507434 -0.0071791625
0.048828874 0.023116328 0.06285319 0.034574162 0.0 0.019787943 0.07264961 -0.053346183
-0.055490866 0.08820628 0.031407572 0.03013701 -0.01636045 0.11481097 0.00374764 -0.036524322
-0.022785362 0.025124002 0.035786893 -0.086625636 0.03197269 0.026998209 0.008021777 0.022787997
-0.049832493 -0.08011731 -0.0828027 0.040558327 -0.020633793 0.01990129 0.05946406 0.09187008
0.06135184 0.0027651812 0.005435364 0.058884628 0.08251464 -0.05447138 -0.054388855 0.043622483
00000000: c282 7f3d c462 e738 6440 753d e8c4 04be
00000010: 09ca 1ebd 91bf b43d 10e1 663d 839c aabc
00000020: 1573 c2ba 5ca9 af3d 2953 4e3d 1c92 a53c
00000030: eea3 94bc 7f90 29bd 352e 2d3d 0000 0000
00000040: 590c f43c ea0d 2c3d 0000 0000 bacf 943d
00000050: 52c8 dc3d 1f77 f63b 4e6a 903c 8631 973b
00000060: 8501 4a3d 9747 63bc f9ba 04bd caaf b83c
00000070: a88c 913d bc55 873d 0125 033d c4b6 16bc
00000080: 0000 0000 ff29 7b3d fb09 4d3a abc5 e3bb
00000090: c897 fabc 6a15 6c3b 6d73 603d 3634 053d
000000a0: 219f fdbc 89e0 91bd ce81 e1bb 0000 0000
000000b0: bcdb ca3d 4c1d 6a3d 5281 6e3d 87e2 c1bc
000000c0: 307d cdbc 0000 0000 0242 d9bc 1e14 093b
000000d0: 0675 df3d ecf0 2f3d 43f9 923d e7ff 86bd
000000e0: e407 a83d 6f85 59bd 1b06 31bc 60c4 ba3c
000000f0: f612 c9bc 9e28 673c 8474 433d 0939 ba3b
00000100: ccdb 293c 455e 3cbd 0b4f 98bd 7b98 07bd
00000110: 995a df3d 9688 ffbc 0000 0000 aa75 19bc
00000120: 1f24 513b 672c e9bc 0538 40bb e63e 80bd
00000130: 9bdc 283d 0d13 3c3b 3b63 6fbc 0000 0000
00000140: 485c 773d 7b2c 323e 7fc2 0e3d 90d8 543d
00000150: 6315 253d 20a8 a7bb 0912 573d 2e3f ebbb
00000160: c900 483d 745e bd3c 2cb9 803d a39d 0d3d
00000170: 0000 0000 531a a23c 52c9 943d 8781 5abd
00000180: 644a 63bd 7ea5 b43d 3aa5 003d e4e1 f63c
00000190: 5a06 86bc 0422 eb3d f79a 753b 879a 15bd
000001a0: 5ea8 babc dad0 cd3c 4795 123d c868 b1bd
000001b0: ccf5 023d 592b dd3c c56d 033c e5ad ba3c
000001c0: 281d 4cbd 8b14 a4bd 7694 a9bd 7d20 263d
000001d0: 3308 a9bc 0808 a33c 9690 733d 6126 bc3d
000001e0: 114c 7b3d 0b38 353b 231b b23b 0231 713d
000001f0: 70fd a83d 621d 5fbd d9c6 5ebd 7dad 323d

network.3.weight f4 [128, 128]
0.15843862 -0.027483841 0.2754075 0.08525694 0.10065558 0.038945008 0.29586372 0.1070589
-0.015029855 -0.004160479 0.046555903 0.27527493 -0.16736802 0.14656706 0.0728739 -0.08765849
0.26598093 -0.0034671044 -0.13850698 0.12403291 0.15783572 0.18565434 0.16362418 0.28214025
0.1454382 0.2022288 0.20901224 0.016942924 0.019642618 0.30305454 -0.13931793 -0.0095664775
0.011630675 0.08479252 -0.016710179 0.017103625 -0.26332313 0.14095497 0.15084825 -0.029611334
0.061155103 0.029812964 0.14729694 0.05666657 0.30502212 0.20164281 0.24291265 0.48738196
-0.17524602 0.035013605 -0.117397346 -0.024046842 -0.06302228 0.07464299 0.027266951 0.062090255
0.24517941 -0.08011146 -0.101658486 0.3539975 -0.07575823 0.23029713 -0.038491562 -0.043911085
0.02977231 0.087267555 -0.037062604 -0.00072683225 0.21131511 -0.1200883 -0.03721864 0.053088177
0.27566436 0.038960278 -0.10975532 -0.0906834 0.09097683 0.066915825 0.021316793 -0.08477619
0.2512741 0.2527559 0.36713254 0.28918755 0.09315885 0.05841442 0.18334399 -0.080903955
-0.05648185 0.20177917 0.10432265 0.30980974 0.0014370693 0.08313384 0.12955923 0.08860575
0.26308963 0.32558846 0.32758597 -0.09421197 0.22956334 0.22396919 0.0118245715 0.009197616
0.22566299 0.41157687 0.13952564 0.010577617 0.12334823 0.056416973 0.2856823 0.11041219
0.28561914 -0.14332636 -0.090594545 0.10979027 0.12469447 0.3295914 0.40182027 0.099883966
0.41441652 0.06492464 0.18427308 0.24952902 0.11025619 -0.010662069 0.22778934 0.25581276
-0.11337116 -0.05265271 0.21274967 0.1773388 0.097519934 -0.04578138 0.2632126 0.094187774
-0.045135226 0.18695202 0.117396444 -0.057068665 -0.12557293 -0.004031137 -0.03054442 -0.003418047
0.2054332 -0.20720828 0.019354764 0.12139612 0.10837648 0.01541571 0.06569772 0.18518913
-0.14542347 0.040373165 0.3194357 -0.04640547 0.13104025 0.35147068 0.08832268 0.13023587
0.12487841 0.011554206 0.07231103 -0.13156214 -0.08679603 0.12166138 0.016300028 0.09452519
-0.07189514 -0.044871613 0.1572202 -0.1392613 0.09463668 0.15942402 -0.30410486 0.14325953
0.05135505 0.10155902 -0.12799868 -0.15887533 0.21072638 0.30637756 -0.09188939 0.0024538718
0.020258754 0.09463006 -0.062627755 0.24585009 -0.06046081 0.20437321 0.18546094 -0.08518195
0.03587877 -0.08993436 -0.015811093 -0.016454456 -0.0066112676 -0.0030454986 -0.053482566 -0.21115054
0.43912545 0.0898971 -0.023404159 -0.0989111 -0.06665994 0.056002475 0.11774529 -0.03566183
0.0753469 -0.06021031 0.39368203 0.050183706 0.19477333 0.10363558 0.1523796 -0.011359155
0.17729189 0.16322963 -0.12628931 0.2047039 -0.10190773 0.005260279 0.17874537 -0.1983716
-0.10169915 0.09233446 0.06788183 -0.05538367 0.19307357 0.20448282 -0.15822557 -0.12225382
0.06279237 0.056162354 -0.120965354 0.08794044 -0.020863641 -0.058124248 0.24127522 0.009774073
-0.042719513 0.031314254 -0.24128813 0.01539396 0.02284919 -0.035915155 0.19109389 0.1487939
0.27229065 0.05506979 0.3149796 0.22019602 0.22301695 -0.06435279 0.31327686 0.1870112
00000000: bc3d 223e cb25 e1bc 3602 8d3e 319b ae3d
00000010: 8324 ce3d cd84 1f3d 737b 973e b241 db3d
00000020: c83f 76bc a154 88bb 67b1 3e3d d6f0 8c3e
00000030: 8662 2bbe ad15 163e e93e 953d 4b86 b3bd
00000040: a72e 883e 5c38 63bb c6d4 0dbe f704 fe3d
00000050: b09f 213e 2c1c 3e3e 198d 273e b074 903e
00000060: c0ed 143e 1115 4f3e 4e07 563e e3cb 8a3c
00000070: 8ee9 a03c f729 9b3e 5ca9 0ebe b7bc 1cbc
00000080: 968e 3e3c b3a7 ad3d c9e3 88bc e71c 8c3c
00000090: 4ad2 86be 8056 103e f777 1a3e 7893 f2bc
000000a0: c67d 7a3d 513a f43c 02d5 163e 351b 683d
000000b0: dc2b 9c3e 747b 4e3e 18be 783e 218a f93e
000000c0: b173 33be 6d6a 0f3d 056e f0bd e2fd c4bc
000000d0: d311 81bd 6dde 983d f15e df3c 5a52 7e3d
000000e0: 5010 7b3e 7a11 a4bd 5332 d0bd 293f b53e
000000f0: 2227 9bbd 03d3 6b3e 54a9 1dbd 1cdc 33bd
00000100: 0fe5 f33c 55b9 b23d f5ce 17bd e388 3eba
00000110: fd62 583e dbf0 f5bd 9372 18bd fd72 593d
00000120: e123 8d3e d094 1f3d 66c7 e0bd 38b8 b9bd
00000130: 0f52 ba3d 2a0b 893d 8ea0 ae3c 249f adbd
00000140: 00a7 803e 3969 813e ccf8 bb3e 6410 943e
00000150: 11ca be3d f543 6f3d 87be 3b3e f9b0 a5bd
00000160: 8359 67bd 339f 4e3e 1da7 d53d 629f 9e3e
00000170: 0b5c bc3a 1342 aa3d 2dab 043e ee76 b53d
00000180: afb3 863e 88b3 a63e 59b9 a73e 35f2 c0bd
00000190: a712 6b3e 2e58 653e d9bb 413c 99b1 163c
000001a0: 3314 673e 34ba d23e cfdf 0e3e be4d 2d3c
000001b0: ff9d fc3d 7c15 673d f344 923e c91f e23d
000001c0: ac3c 923e 25c4 12be a289 b9bd b9d9 e03d
000001d0: d05f ff3d 34c0 a83e 63bb cd3e f78f cc3d
000001e0: 672e d43e 36f7 843d 15b2 3c3e 8984 7f3e
000001f0: ffcd e13d f5af 2ebc 9c41 693e e4f9 823e
00000200: 242f e8bd 5eaa 57bd 0ddb 593e 4d98 353e
00000210: 88b8 c73d 4285 3bbd cdc3 863e 85e5 c03d
00000220: b7df 38bd 5a70 3f3e 8c6d f03d d5c0 69bd
00000230: 3196 00be a117 84bb 4b38 fabc 5001 60bb
00000240: 155d 523e 682e 54be e28d 9e3c 879e f83d
00000250: 7df4 dd3d 2d92 7c3c 878c 863d 38a2 3d3e
00000260: e4e9 14be 555e 253d 138d a33e aa13 3ebd
00000270: 6a2f 063e f7f3 b33e 85e2 b43d 8d5c 053e
00000280: 40c0 ff3d da4d 3d3c ce17 943d 3ab8 06be
00000290: 1ec2 b1bd 9a29 f93d a387 853c 6c96 c13d
000002a0: c23d 93bd 4ccb 37bd 55fe 203e 849a 0ebe
000002b0: e0d0 c13d 0d40 233e a2b3 9bbe a0b2 123e
000002c0: ac59 523d 2dfe cf3d 1612 03be 37b0 22be
000002d0: a8c8 573e 85dd 9c3e 8130 bcbd 23d1 203b
000002e0: b0f5 a53c 68cd c13d fb42 80bd 20c0 7b3e
000002f0: c1a5 77bd 3647 513e 79e9 3d3e e073 aebd
00000300: 9ef5 123d 812f b8bd 4486 81bc 7fcb 86bc
00000310: 55a3 d8bb fd96 47bb 8910 5bbd d937 58be
00000320: 0dd5 e03e f91b b83d 14ba bfbc e791 cabd
00000330: 0285 88bd da62 653d 7124 f13d 2412 12bd
00000340: 7a4f 9a3d 169f 76bd b190 c93e 6e8d 4d3d
00000350: a972 473e e43e d43d 6609 1c3e c01b 3abc
00000360: 018c 353e ab25 273e fc51 01be e69d 513e
00000370: 00b5 d0bd 6b5e ac3b 0709 373e ed21 4bbe
00000380: a547 d0bd d919 bd3d a105 8b3d fdd9 62bd
00000390: 14b5 453e f263 513e e205 22be 3660 fabd
000003a0: 4999 803d 7f0a 663d afbc f7bd 1e1a b43d
000003b0: 3aea aabc b113 6ebd da10 773e 6f23 203c
000003c0: a8fa 2ebd 6043 003d 3c14 77be f336 7c3c
000003d0: 392e bb3c c51b 13bd 1eae 433e 6e5d 183e
000003e0: ae69 8b3e dc90 613d 0245 a13e 117b 613e
000003f0: 8e5e 643e 65cb 83bd d365 a03e dd7f 3f3e

network.3.bias f4 [128]
0.24117935 0.08613795 0.09210287 0.14612702 -0.00398752 0.012995096 -0.032219276 -0.029938662
0.09893325 0.010605641 0.047860574 0.05509021 0.050369997 0.19942963 0.02744418 -0.015916856
0.2350942 0.039020665 -0.014988662 0.32989937 -0.06483269 0.18129276 0.17513022 0.04545834
-0.015702287 -0.0387647 0.22395065 0.17843354 0.0023579663 0.076742895 0.22017936 -0.038168006
-0.035825454 0.08716984 0.062007975 -0.018396936 -0.01778988 0.15375575 0.037841897 -0.024726972
0.0107336175 -0.023594895 0.06357214 -0.036848888 -0.043293625 -0.02775801 -0.044683125 0.031795997
0.055946123 -0.076343484 0.17758396 -0.03799536 -0.0024339375 -0.023131646 0.20181946 0.026545413
0.0006434172 0.0093063805 -0.024290215 0.21428216 -0.015334412 0.09847429 0.12333243 -0.0011276067
-0.024459431 -0.026371576 -0.022765612 -0.033160713 0.09029722 0.0069780885 0.057441313 0.033228956
-0.01169754 0.12559974 0.11178185 -0.017530309 0.20052649 0.10708922 0.15308318 -0.027520373
0.042782757 0.20379516 -0.03922555 -0.013247692 -0.02970595 0.055944555 0.020649765 0.13624328
0.03498237 0.012465764 0.20093705 0.10705358 -0.008499966 0.16924377 0.01481317 0.014299912
0.014410884 0.078408696 -0.0075081433 -0.0487895 -0.02586148 -0.04998855 0.06181623 0.15860981
0.081397034 0.24777865 -0.02538653 0.22909914 0.05618349 0.038392663 0.08149865 -0.003959742
0.15734369 0.0050252676 0.15229121 0.16197476 -0.03372573 0.06673957 -0.013468442 0.08492912
0.0019505345 0.0023116812 0.18146776 -0.01606635 0.252961 0.003122129 0.14376765 -0.025076568
00000000: b8f7 763e 1869 b03d 6ea0 bc3d 52a2 153e
00000010: bea9 82bb 62e9 543c 5cf8 03bd ed41 f5bc
00000020: 849d ca3d 48c3 2d3c 7309 443d 46a6 613d
00000030: c550 4e3d 4837 4c3e 9ed2 e03c 1164 82bc
00000040: 89bc 703e 22d4 1f3d 0193 75bc 92e8 a83e
00000050: 00c7 84bd cfa4 393e 5655 333e 8632 3a3d
00000060: 15a2 80bc bcc7 1ebd 5253 653e 48b7 363e
00000070: 1c88 1a3b 612b 9d3d b376 613e 0e56 1cbd
00000080: b6bd 12bd 1a86 b23d 13fc 7d3d 2cb5 96bc
00000090: 15bc 91bc 2672 1d3e 1b00 1b3d 3890 cabc
000000a0: 0edc 2f3c 154a c1bc 1c32 823d dcee 16bd
000000b0: a854 31bd c464 e3bc a705 37bd 853c 023d
000000c0: c327 653d f959 9cbd 92d8 353e 06a1 1bbd
000000d0: b282 1fbb 947e bdbc c3a9 4e3e c475 d93c
000000e0: ffaa 283a ca79 183c 46fc c6bc c86c 5b3e
000000f0: 303d 7bbc e3ac c93d b795 fc3d 34cc 93ba
00000100: 255f c8bc 3409 d8bc f37e babc 87d3 07bd
00000110: c0ed b83d 73a8 e43b 9547 6b3d 161b 083d
00000120: 0aa7 3fbc 389d 003e e2ed e43d b99b 8fbc
00000130: d156 4d3e 9851 db3d d6c1 1c3e 6872 e1bc
00000140: f93c 2f3d aeaf 503e f8aa 20bd d90c 59bc
00000150: e459 f3bc 1e26 653d b229 a93c 5c83 0b3e
00000160: ac49 0f3d 343d 4c3c 71c2 4d3e e83e db3d
00000170: 7143 0bbc 3d4e 2d3e f0b2 723c 2e4a 6a3c
00000180: a11b 6c3c bd94 a03d df06 f6bb 80d7 47bd
00000190: 74db d3bc cbc0 4cbd 0433 7d3d 9c6a 223e
000001a0: 7db3 a63d b0b9 7d3e 6af7 cfbc f798 6a3e
000001b0: a920 663d a041 1d3d c4e8 a63d b9c0 81bb
000001c0: b41e 213e 00ab a43b 3af2 1b3e b6dc 253e
000001d0: fe23 0abd c1ae 883d bdaa 5cbc 52ef ad3d
000001e0: 14a9 ff3a 937f 173b afd2 393e 949d 83bc
000001f0: 1b84 813e a29c 4c3b d437 133e 606d cdbc

network.6.weight f4 [5, 128]
0.081042394 -0.171627 0.20100251 -0.13220133 0.19826354 0.038869414 -0.12727565 0.026453797
0.40046343 0.30043745 0.25460795 0.18031557 0.15345398 0.3248485 0.067031115 -0.15855698
0.11226439 0.06535679 -0.19814584 0.029941915 0.10911871 0.38801426 0.21521755 0.40751892
-0.30256766 0.09474215 0.21144769 -0.05150784 0.07153401 0.47971585 0.4128585 -0.18688689
-0.13427328 -0.23519716 0.4041279 -0.17990021 0.16673447 0.39314932 -0.12599969 0.4776453
0.029279733 -0.26615784 0.10707014 -0.016900988 0.1499543 -0.1356322 0.16263942 -0.22478274
0.17577632 0.24629262 0.39251363 -0.10442759 -0.24040066 0.17568846 0.11164289 -0.20439251
0.06706729 -0.26438302 0.05395014 0.4105727 0.08066281 0.4396135 0.18208367 0.05678385
-0.13899061 0.35015395 0.13895927 0.10497639 -0.2743578 -0.21977252 0.33849677 0.10658081
-0.19400983 0.13754804 0.33797774 -0.28306764 -0.100220636 -0.08166119 -0.029156668 0.02989834
-0.22341329 0.47940737 0.18400101 -0.26917776 0.08096144 0.15923916 -0.12251744 0.09237656
-0.13014296 0.26167545 0.11503627 -0.15139683 -0.1758413 0.32587737 -0.2665553 -0.13123193
-0.3226658 0.54098135 -0.32267812 0.13532455 -0.1328546 0.031157035 0.09635359 -0.11442205
-0.1140624 0.40465865 -0.13130511 0.28778264 -0.106871 -0.01651491 0.3398764 0.050864503
0.251795 0.083400354 0.15412576 0.29780585 -0.116429575 -0.13042495 0.20673032 -0.12577857
-0.27967513 -0.16774051 0.47887775 -0.0065992465 0.40256307 -0.1805309 0.49697274 0.056251496
0.28263894 0.17903033 0.4904053 0.20878874 -0.34408116 -0.22089276 -0.25777897 -0.12135425
0.08239106 -0.20837337 -0.13548222 -0.07411255 0.16202363 0.4564198 -0.08398909 -0.21439771
0.36211738 0.1748894 -0.07611752 0.3958188 -0.16965592 0.21987614 0.32782286 0.13408977
0.021349084 0.14370488 0.3941839 0.40049666 -0.3099638 -0.0149192605 0.36490384 -0.17537165
-0.23475674 0.3541472 0.15466106 -0.09288059 -0.17016222 0.3547369 -0.20529045 0.36686033
-0.19079588 -0.13242503 -0.06552604 -0.1874374 -0.32873723 -0.15890765 -0.33423096 -0.07256442
0.590811 0.01232365 0.27957925 -0.15716524 -0.34089008 -0.088611275 0.048911672 0.05583699
-0.15173173 -0.070749626 0.04132389 0.39928126 -0.022054786 0.056325156 0.46498552 0.4946612
-0.16393586 -0.2213612 0.16928853 -0.07456925 0.22273366 -0.0044459905 0.20419724 0.46195403
-0.16962415 0.28971964 0.13965556 -0.14657153 0.3021321 0.30117443 0.38076732 -0.24354744
0.19544113 0.43876937 -0.3291398 -0.24896394 0.14167297 0.2342767 0.15382896 0.56433755
0.10100211 0.47827974 0.36807057 0.31296802 -0.14695837 0.44267675 -0.06983573 -0.039222926
-0.01459257 0.21398532 -0.07748005 -0.1591974 -0.11174256 -0.010209634 0.29274198 0.4098284
0.3859396 0.30067575 -0.25517866 0.4267491 -0.03361832 -0.07944631 0.12524725 -0.052450385
0.4337535 -0.2604954 0.45364368 0.21742114 -0.27140766 0.19575566 -0.19215545 0.24738151
0.050519623 -0.014286069 0.2851409 -0.092192024 0.48184112 0.019871278 0.19456501 -0.21442287
00000000: 8ef9 a53d fdbe 2fbe 9ad3 4d3e c95f 07be
00000010: 9905 4b3e 8935 1f3d 8c54 02be a2b5 d83c
00000020: 8b09 cd3e f0d2 993e f95b 823e a5a4 383e
00000030: 0a23 1d3e 8b52 a63e 9c47 893d c35c 22be
00000040: dfea e53d c8d9 853d bee6 4abe bf48 f53c
00000050: a179 df3d cea9 c63e fd61 5c3e 52a6 d03e
00000060: 26ea 9abe 2c08 c23d be85 583e e3f9 52bd
00000070: 6c80 923d 519d f53e 3062 d33e 475f 3fbe
00000080: ef7e 09be 86d7 70be dae9 ce3e c337 38be
00000090: 71bc 2a3e de4a c93e 1006 01be ed8d f43e
000000a0: 0ddc ef3c d745 88be 9747 db3d f173 8abc
000000b0: 9f8d 193e 2be3 0abe f38a 263e 722d 66be
000000c0: b5fe 333e 2234 7c3e 8cf7 c83e 22de d5bd
000000d0: 972b 76be ade7 333e 07a5 e43d 454c 51be
000000e0: 935a 893d 365d 87be d2fa 5c3d 9636 d23e
000000f0: 8b32 a53d 0515 e13e 2474 3a3e 2f96 683d
00000100: 8e53 0ebe 6147 b33e 574b 0e3e ddfd d63d
00000110: a078 8cbe 0c0c 61be 734f ad3e 0a47 da3d
00000120: 83aa 46be 65d9 0c3e 6b0b ad3e 3eee 90be
00000130: 7a40 cdbd fb3d a7bd f7d9 eebc 5ded f43c
00000140: 74c6 64be e274 f53e c36a 3c3e abd1 89be
00000150: 1dcf a53d 970f 233e 6cea fabd ec2f bd3d
00000160: 3244 05be 53fa 853e 2398 eb3d c507 1bbe
00000170: be0f 34be 66d9 a63e f079 88be aa61 06be
00000180: 7434 a5be c17d 0a3f 1136 a5be 8592 0a3e
00000190: 090b 08be 0a3d ff3c 0855 c53d 1c56 eabd
000001a0: 8c99 e9bd 6b2f cf3e d974 06be 3f58 933e
000001b0: 2fdf dabd 474a 87bc 4804 ae3e 4c57 503d
000001c0: 46eb 803e cecd aa3d 25d3 1d3e 027a 983e
000001d0: a172 eebd 1e8e 05be 1db1 533e 19cc 00be
000001e0: 9431 8fbe 2bc4 2bbe 772f f53e 7e3e d8bb
000001f0: bf1c ce3e 18dd 38be 3673 fe3e f867 663d
00000200: 0db6 903e ba53 373e 6716 fb3e b7cc 553e
00000210: 682b b0be b631 62be 9bfb 83be 9488 f8bd
00000220: a5bc a83d d45f 55be dabb 0abe 52c8 97bd
00000230: 86e9 253e dbaf e93e 7902 acbd 138b 5bbe
00000240: 7367 b93e 3516 333e 81e3 9bbd c3a8 ca3e
00000250: 48ba 2dbe 3627 613e 66d8 a73e d44e 093e
00000260: 46e4 ae3c 5f27 133e 79d2 c93e e60d cd3e
00000270: 93b3 9ebe ea6f 74bc add4 ba3e a094 33be
00000280: 1264 70be c852 b53e 785f 1e3e 2e38 bebd
00000290: 013f 2ebe 13a0 b53e a937 52be 1ed5 bb3e
000002a0: ff5f 43be 6d9a 07be 8432 86bd 97ef 3fbe
000002b0: 3f50 a8be b0b8 22be 5220 abbe a89c 94bd
000002c0: 643f 173f 22e9 493c 0325 8f3e edef 20be
000002d0: 2589 aebe d479 b5bd 9b57 483d 54b5 643d
000002e0: 905f 1bbe 2ee5 90bd 3d43 293d 986e cc3e
000002f0: 3dac b4bc 35b5 663d 9512 ee3e 3c44 fd3e
00000300: cdde 27be 83ac 62be f959 2d3e c3b7 98bd
00000310: 4b14 643e acaf 91bb 1519 513e 3d85 ec3e
00000320: f4b1 2dbe 2256 943e de01 0f3e d916 16be
00000330: 0fb1 9a3e 8933 9a3e eff3 c23e 8064 79be
00000340: b821 483e 61a6 e03e 0385 a8be 67f0 7ebe
00000350: b812 113e 3be6 6f3e 5785 1d3e 6d78 103f
00000360: 32da ce3d 15e1 f43e bf73 bc3e 583d a03e
00000370: 417c 16be 87a6 e23e 0906 8fbd 38a8 20bd
00000380: ad15 6fbc f81e 5b3e dcad 9ebd a504 23be
00000390: 49d9 e4bd 4f46 27bc 47e2 953e 07d5 d13e
000003a0: e099 c53e 2cf2 993e c7a6 82be dc7e da3e
000003b0: 5db3 09bd bfb4 a2bd d140 003e 37d6 56bd
000003c0: f014 de3e a75f 85be fc43 e83e a6a3 5e3e
000003d0: f2f5 8abe 2c74 483e 66c4 44be 9451 7d3e
000003e0: aaed 4e3d 1e10 6abc fdfd 913e 2ccf bcbd
000003f0: e1b3 f63e 17c9 a23c 0d3c 473e ab91 5bbe

network.6.bias f4 [5]
0.012942319 0.08676696 0.053442944 0.09879612 0.03591589
00000000: 050c 543c e0b2 b13d fde6 5a3d 9f55 ca3d
00000010: 8a1c 133d
