教学演示项目/项目1_强化学习智能体训练/results/results/model_episode_1600.pth (torch, 810325 bytes, 24 tensors)

network.0.weight f4 [128, 16]
000000 89 3e 88 3d bf e0 10 3d 31 04 c0 bd e5 d8 17 3e
       0.06652553 0.035370585 -0.093757994 0.14828832
000010 03 ad 9f be f7 5f 9d be 85 47 6d 3e ff 16 33 bd
       -0.31186685 -0.30737278 0.23171814 -0.043723103
000020 f8 e9 d5 3e 91 22 19 3d bc 13 76 bd d1 0b 9a bd
       0.41780066 0.03738648 -0.060077414 -0.07521785
000030 b3 30 c7 bd 2e 6e df 3d 20 89 cc bd e4 db dd bc
       -0.097260855 0.10909687 -0.09987092 -0.027082391
000040 d1 39 44 3e 8b b7 71 3e c8 35 45 be 83 65 9f 3d
       0.1916268 0.23605172 -0.19258797 0.07783034
000050 3e 58 cd be e0 f9 11 3e 3c ea 87 bd 14 e5 64 3e
       -0.40106386 0.14255476 -0.066364735 0.22353011
000060 10 1f 45 3f c7 b1 d7 3d b6 ef bd bd 77 99 1b be
       0.7700052 0.10531955 -0.09274237 -0.15195261
000070 d6 bc 58 3d 81 88 a9 bd fd 94 29 be 75 5f 3b be
       0.052914463 -0.08277989 -0.16560741 -0.18298133
000080 0b ff ef 3d 3d 05 85 3e 0f 43 0d bd 40 e4 37 3e
       0.117185675 0.2598056 -0.03448778 0.17958164
000090 8c 2d eb be a1 8e b1 3e ff 50 16 bc fd 0d cb bd
       -0.45933187 0.3467913 -0.009174584 -0.099147774
0000a0 21 45 58 3c 0f 6c 67 bb a1 fc cf 3d f9 19 32 be
       0.013200075 -0.003531221 0.10155607 -0.1739272
0000b0 d5 d2 54 3d c2 12 ff 3d e4 00 96 3c 52 c8 a8 39
       0.051958878 0.1245475 0.018310972 0.00032192707
0000c0 54 4f 9c be 5d 04 22 be 61 e8 88 3b 09 e1 ab bd
       -0.30529273 -0.15821977 0.0041780923 -0.083925314
0000d0 9a 0f 06 be 3d 74 18 3d a1 c0 5e be 11 69 b4 bd
       -0.13091889 0.03722023 -0.2175317 -0.08809102
0000e0 2d cc 3e 3e 56 1e 69 3d 8c 5d b8 bd 81 69 1e be
       0.18632574 0.056913696 -0.09002218 -0.15469934
0000f0 f5 a8 ec 3e 7e 54 b7 bc ba ad c5 bd ab b8 ce 3b
       0.46222654 -0.022379156 -0.09652276 0.006308635
000100 fd 3c 82 3d e7 47 a4 be 3f 26 04 3e 3d 87 d3 3d
       0.06359289 -0.32086107 0.12905215 0.10328529
000110 08 75 bb be 22 0a 6c 3e 42 5e 94 bc 8e d3 1c be
       -0.36612725 0.2305074 -0.018111352 -0.15315077
000120 21 49 be be cd 74 50 bd c8 4e c5 bc ad fe 2c 3d
       -0.37165168 -0.05089264 -0.024085417 0.042235065
000130 b8 3a 5a 3e 99 8a 00 bd 9f 28 95 be a5 75 ca 3e
       0.21311462 -0.031382177 -0.29132554 0.3954288
000140 68 ef 3a 3e 94 ad e5 3c d9 dc 98 3d 63 8e a8 bc
       0.18255389 0.02803687 0.07463998 -0.020575708
000150 79 02 18 3d f7 d8 10 3f fa 3c df bd 8c fb 07 3c
       0.037111733 0.5658106 -0.10900302 0.00829972
000160 04 11 04 3e 1d c2 4f be 2d 61 e9 3e 71 e4 4a 3e
       0.12897116 -0.20288892 0.45581952 0.19813706
000170 7a 81 60 3d 55 1c 09 3e be 76 be bd 8f a7 c5 bc
       0.05481098 0.13389714 -0.09299992 -0.02412775
000180 26 1f 93 3e 7c 99 da bc a4 79 08 3d 90 44 05 be
       0.28734702 -0.026684515 0.03331913 -0.13014436
000190 d1 fd 92 bd 58 d5 2a 3f 1b da 26 3e 59 53 76 3d
       -0.07177318 0.66731787 0.16294138 0.06013808
0001a0 d3 d3 13 3c 4c f2 1a 3e 12 0b b1 bd 4a 54 15 be
       0.009022671 0.15131491 -0.086446896 -0.14582935
0001b0 1f 22 78 3e 4e 9e 8f bd 7c a8 81 3d 77 d4 a9 3e
       0.24231766 -0.07012616 0.06330964 0.3316991
0001c0 cd 01 42 bf 4e 8a 19 bf d5 35 2b be 39 40 99 be
       -0.75784 -0.5997666 -0.16719754 -0.2993181
0001d0 52 ef 90 3c 3c f5 d5 be 0f 5b b7 be 3c 0c 53 3d
       0.017692242 -0.4178866 -0.3581166 0.05152534
0001e0 40 a8 68 be ea 3f af bd f1 70 7f be 9c 4f 84 3d
       -0.22720432 -0.085571125 -0.24945427 0.06460497
0001f0 87 dd c2 be c0 69 20 be cb 4a d5 be 69 31 04 3d
       -0.38059637 -0.1566534 -0.41658625 0.032273684
000200 fa 25 9d 3b 3a 1d fc bb 51 34 95 bc 11 3b 1b be
       0.004795787 -0.0076939138 -0.018213423 -0.15159251
000210 49 70 7b be a4 b3 a0 bd ff a0 3a 3d 41 e1 4f 3d
       -0.24554552 -0.07846764 0.045563694 0.05075193
000220 c7 5e ee 3e fe 21 5e 3e 43 33 8d be 93 74 af 3d
       0.46556684 0.21692654 -0.27578172 0.08567157
000230 14 22 66 3d 10 3f 90 bd db 3c 23 bf cb 62 25 be
       0.056184843 -0.07043278 -0.63764733 -0.16150968
000240 ab b4 31 3d a4 f1 c5 bd 2e 5a 3f 3e 81 1b 9e 3d
       0.04338519 -0.0966523 0.18686745 0.0772009
000250 01 39 23 bd c5 45 11 3e b7 53 db bc c8 69 98 3d
       -0.039849285 0.14186771 -0.026773317 0.07442051
000260 eb 15 2e bd 3d c6 33 be 32 0d 08 3e 51 b4 35 3e
       -0.04250137 -0.1755609 0.13286284 0.17744567
000270 41 fc 92 bc 44 c0 22 bd 82 cb fd 3c c4 de 49 3c
       -0.01794255 -0.03973414 0.03098083 0.012321178
000280 c5 ca 9c 3e 00 21 7f 3e 85 31 4d 3d 99 d5 3c bd
       0.3062345 0.24914932 0.050096054 -0.04610214
000290 c6 c7 c0 be 2b 01 c6 3e 4d b4 e5 3c eb 7b b8 bd
       -0.37652415 0.38672766 0.028040076 -0.090080105
0002a0 c3 bf f6 3d 08 3c ff bc cf 5a 3f 3d 84 a3 2d 3e
       0.120482944 -0.031156555 0.04671746 0.16956908
0002b0 76 0b 1c 3e db 35 71 3d 00 57 af 3b 83 d4 97 3d
       0.15238747 0.05888925 0.0053509474 0.0741358
0002c0 6a cf fe 3d 85 a8 50 3e f8 73 4c bb 7b ca c3 bd
       0.12441905 0.20376785 -0.0031197052 -0.095601045
0002d0 19 8b c3 be 09 83 02 be e2 5b 7d 3e 0f 07 aa bd
       -0.3819206 -0.12745298 0.24742082 -0.083021276
0002e0 0d 74 f1 3e 45 cd d5 bc fe a2 80 bd 6a bc 19 3e
       0.47158852 -0.026098857 -0.06281088 0.1501328
0002f0 b5 b9 d9 3d fa b7 c0 3d 30 75 af bc af 6d f9 3c
       0.10631124 0.09410091 -0.021418184 0.030447809
000300 a5 c9 54 bf 3c 22 13 bf 2f 25 5b be 1f 46 63 be
       -0.83120185 -0.5747411 -0.21400903 -0.22194718
000310 60 7f 7b 3e af 22 05 bd 17 02 c2 be ce c2 94 bc
       0.24560308 -0.03250378 -0.3789222 -0.018159296
000320 1c 67 d8 bd 92 4c 1b 3d 5f 06 05 be cc 81 00 bd
       -0.105665416 0.03791482 -0.12990712 -0.031373784
000330 a4 7c d2 be fa e0 79 bd d7 5c bd be 2e 5e 85 bd
       -0.41110718 -0.06100557 -0.36984894 -0.06512104
000340 64 a1 a7 3e d8 cd b0 3d 98 fd 54 3d 7e 8f 81 3e
       0.3274032 0.086330116 0.05199966 0.25304788
000350 cd a7 bd be a3 6c 31 be f5 86 79 3d 8c 1b 41 3d
       -0.37042084 -0.17326598 0.06091972 0.04714541
000360 60 09 39 3d 6e 95 70 ba 62 c8 8c 3d 6b 1b 31 3d
       0.045174956 -0.000917754 0.068741575 0.04323904
000370 1c e0 2f 3d 18 d7 87 3d 73 19 39 3e 6c 80 ac 3d
       0.042938337 0.06632823 0.18076114 0.08422932
000380 25 20 50 bf 1b dd 1e bf 46 7b 9f be 68 9e 61 be
       -0.8129905 -0.6205613 -0.31148738 -0.22033083
000390 85 11 2d 3e a9 1b c1 bd d1 bd 51 be e0 59 60 3d
       0.16901214 -0.09429104 -0.20482565 0.05477321
0003a0 b4 14 f7 bd a2 f3 60 bd c4 40 37 be 59 c3 0f 3e
       -0.12064496 -0.054919846 -0.178958 0.14039363
0003b0 d4 8e 9c be 72 91 fd bd 33 d5 91 be 86 9b 5d 3d
       -0.3057772 -0.12381257 -0.2848297 0.054103397
0003c0 dc 2d 86 3d ae 6b 39 be d2 38 81 bc 19 d8 98 3c
       0.06551716 -0.18107483 -0.015774164 0.01865773
0003d0 a0 dd af bd 43 9a 1d be 87 d9 06 be 1c 08 c1 3d
       -0.085871935 -0.15390877 -0.13168918 0.09425375
0003e0 32 0b 90 bd 7b 66 97 bc c7 77 7d 3d b1 fb 09 3e
       -0.07033385 -0.018481484 0.061881807 0.13474919
0003f0 7b f0 d7 3d 95 28 bb 3d 64 4e 3d 3e 48 a8 19 3d
       0.10543915 0.091386 0.18486935 0.037514

network.0.bias f4 [128]
000000 03 73 e2 3c 63 17 93 bb 9b b9 5a 3d 53 d9 28 be
       0.027642732 -0.004488872 0.053399663 -0.16489153
000010 1f 9a 3f bd 14 a5 bd 3d 82 a6 47 3d d6 0a 84 be
       -0.04677784 0.09260002 0.04874278 -0.25789517
000020 b4 ec 2b bd 6e 26 f8 3d 78 08 87 3d 2d b4 5a 3d
       -0.041973785 0.12116705 0.06593412 0.053394485
000030 ea 8c 4e be b8 52 85 3d 92 ab 62 be 00 00 00 00
       -0.20170942 0.06509918 -0.22135761 0.0
000040 8e 13 36 3a 40 fd 45 be 5b 80 fd bc 2f 17 2b 3d
       0.0006945663 -0.19334888 -0.030944994 0.041770156
000050 98 c6 d8 3d 35 14 47 3c 6d 23 d3 3c 2b 1e c8 3d
       0.10584754 0.012150814 0.025773728 0.09771379
000060 03 46 62 3d e5 43 4e 3d 77 d0 df bd f6 5e 41 be
       0.05524255 0.050357718 -0.109284334 -0.18883881
000070 a8 82 39 3d eb bd 88 3d 93 bc 88 bd ac be 55 be
       0.04529062 0.06676849 -0.06676593 -0.20873517
000080 00 00 00 00 5e 3b 82 3d ed 38 82 be 7a ad 09 bd
       0.0 0.0635898 -0.25434056 -0.033612706
000090 9c db 75 be cc ef 46 3c 1b 46 1c 3d fe 04 18 3d
       -0.24009556 0.012142133 0.038152795 0.037114136
0000a0 6e 8d 2c 3d 41 3f 25 bd ce 81 e1 bb 00 00 00 00
       0.042127065 -0.040343527 -0.006881929 0.0
0000b0 d3 8d e2 3d 6c da fe 3d 41 3b c2 3d 44 7b 47 bd
       0.11062207 0.124440044 0.09483958 -0.04870154
0000c0 bb ef 6d be 00 00 00 00 6e 2b 88 be 9d 07 49 be
       -0.23235981 0.0 -0.26595634 -0.1963181
0000d0 9f 36 ee 3d 95 5b 74 3d 26 90 c8 3d 75 8d 4f be
       0.11631512 0.059657652 0.09793119 -0.20268805
0000e0 6c b2 f2 3d 70 88 07 bb 5c 5c 42 3d a8 17 c8 3d
       0.118504375 -0.0020680688 0.047451362 0.09770137
0000f0 4f 37 9d bd 0e 0c eb 3c 4c 62 05 3c d2 fa 6d be
       -0.07676565 0.028692272 0.008141112 -0.23240212
000100 f1 8b 56 3d e5 64 64 3d 0c 66 0d 3b a7 2f 89 be
       0.052379552 0.055760283 0.0021575717 -0.26794168
000110 c0 d0 66 3d a9 18 89 be 00 00 00 00 fb f7 c5 3b
       0.056351423 -0.26776627 0.0 0.0060415245
000120 d1 08 b2 3d ed 0b 5f bd 0c c4 2c be f9 84 09 be
       0.08693088 -0.054454733 -0.16871661 -0.13429631
000130 d8 b0 2a 3d 1f c6 85 bb 54 dd 2d bd 00 00 00 00
       0.041672558 -0.0040824558 -0.042447403 0.0
000140 bf b5 a9 3d 38 09 18 3e d2 8f b2 bd 13 8e 80 3d
       0.082866184 0.14847267 -0.08718838 0.062770985
000150 e9 9a 91 3d df 4f 18 be e6 4c bd 3d 2e 3f eb bb
       0.07109625 -0.14874218 0.09243183 -0.0071791625
000160 12 81 40 3d f5 df f9 3b e7 a8 8e 3d 42 9f 95 3d
       0.04699809 0.0076255747 0.06965809 0.07305767
000170 00 00 00 00 0e 69 95 bd c0 81 9a 3c 68 6d a1 bc
       0.0 -0.07295428 0.018860698 -0.01970549
000180 a5 35 5c bc 09 7f a2 3d ee 12 b2 3c b6 bc 4c be
       -0.013440524 0.07934386 0.021737542 -0.19993863
000190 18 f9 ba bd 3f 6b c8 3d 16 0a 2c 3c ff 08 0d be
       -0.09129542 0.097860806 0.010500452 -0.13772963
0001a0 4f f1 54 bd 1e b7 11 3d 6e c2 e7 3c 04 e0 3d be
       -0.051987942 0.035575025 0.028290953 -0.18542486
0001b0 cf 69 fb 3c 6f 1c 66 3d 7b 7d 16 3c 90 df 16 3c
       0.030690102 0.05617946 0.00918519 0.009208575
0001c0 ba c1 2a be 73 3f 69 be 3f bd 25 be e8 ea 96 3d
       -0.16675463 -0.2277811 -0.16185473 0.073690236
0001d0 33 08 a9 bc ae bc a6 3d 7a 5f 96 3d 6d 24 e7 3d
       -0.020633793 0.081414565 0.073424295 0.112862445
0001e0 a2 25 7f 3d 88 9e 9c bb ec 9e 7e 3d ae de 50 3c
       0.06229175 -0.0047796406 0.06216328 0.0127484035
0001f0 d7 1b 53 3d b7 2d 15 be 16 e3 2a be bb 2e 72 3d
       0.051540222 -0.1456822 -0.16688189 0.059126597

network.3.weight f4 [128, 128]
000000 60 1f 7c 3d 89 dc 0b bc ab 9d eb 3d 16 61 9f 3d
       0.06155336 -0.008536466 0.11504682 0.077821895
000010 dd 3f 21 bd ba 9c 8f 3d 15 ab 1d 3e af 7f 0f bf
       -0.039367545 0.07012315 0.15397294 -0.56054205
000020 3f 55 c3 bd 8d e9 87 bc 57 68 0b be a6 ac a8 3d
       -0.09537744 -0.016590858 -0.13614021 0.08236055
000030 ad 64 ba be f0 1d 95 3d d6 6c b2 be 4b 86 b3 bd
       -0.36404935 0.07281101 -0.3484866 -0.08765849
000040 38 9d f4 bc d2 3f 2a bf c6 d4 0d be 7d a3 22 3d
       -0.029860124 -0.6650363 -0.13850698 0.039706696
000050 b8 5e 01 3e dc 38 a7 3d ab 1c 26 bd 46 cb 02 3e
       0.12633789 0.08165142 -0.040554684 0.12772855
000060 99 c6 b2 3d 9d 14 33 3d 96 1c 5c 3d 34 ce 99 be
       0.08729286 0.04372083 0.0537382 -0.30040133
000070 d3 5d 75 bd ff ec fd 3d 9b 36 44 be 3d 06 ec bd
       -0.05990393 0.12398719 -0.19161455 -0.11524627
000080 96 8e 3e 3c 99 03 d6 3d 4f f7 20 bf 15 9a 1b 3e
       0.011630675 0.10449905 -0.6287736 0.15195496
000090 68 22 36 bf 55 8f 09 3e 76 ef b3 3d 54 c2 2b be
       -0.7114625 0.13433583 0.08785908 -0.16773349
0000a0 d8 1a f2 bc 35 4e ae bd 02 d5 16 3e 35 1b 68 3d
       -0.029553816 -0.085110106 0.14729694 0.05666657
0000b0 1e 80 68 3e c4 ec 49 3c c7 d6 23 3e da aa 4d 3e
       0.22705123 0.012324516 0.159999 0.20084706
0000c0 14 bc 82 bf 6d 6a 0f 3d d4 ad 40 bf b7 7d f2 be
       -1.0213647 0.035013605 -0.7526524 -0.47361538
0000d0 ab f4 b0 bd 3e 25 4d bc 73 fa 14 be a2 08 40 bc
       -0.08640417 -0.012521086 -0.14548664 -0.011720808
0000e0 55 13 fa 3d 8d 85 0f be 5a b8 9f bd 7c a3 fa 3d
       0.122107185 -0.1401579 -0.07798834 0.122382134
0000f0 e1 ca 3c bd b9 c9 d8 3c 44 c0 03 be 67 09 27 bf
       -0.046091918 0.026463376 -0.12866312 -0.6524872
000100 b1 76 fb bc 64 16 e8 3c 3c 4a 04 be d5 a0 53 bf
       -0.030696245 0.02833099 -0.12918943 -0.82667285
000110 81 fd c9 3d f4 c4 0b bf 93 72 18 bd 4e 21 45 bd
       0.09862805 -0.545974 -0.03721864 -0.048127465
000120 b4 9a 9b 3d 6c 34 90 3d 2d 04 b3 bd f2 f3 85 bd
       0.07597867 0.07041249 -0.08741031 -0.065406695
000130 86 00 a9 bd da 64 57 3c ee aa 2c 3d 24 9f ad bd
       -0.08252053 0.0131466035 0.0421552 -0.08477619
000140 44 ea 4f 3d 90 63 c6 3d 5c bd 09 3e 15 b4 76 3e
       0.050760522 0.09686959 0.13451141 0.24092133
000150 9b 82 46 bd 9b e5 00 be 87 a1 f4 3b f9 b0 a5 bd
       -0.0484644 -0.12587588 0.0074655446 -0.080903955
000160 3c 63 1b bc 2f 0d 30 3e b1 5a 2b 3d 62 e6 12 3e
       -0.009484109 0.17192529 0.041834537 0.14345697
000170 0b 5c bc 3a af f6 50 3e 96 a2 bd bd 1c 81 eb 3d
       0.0014370693 0.20406602 -0.092595264 0.11499235
000180 ad 9f a3 3d 53 2c a3 3e 0c ee 35 3e 0f 48 2f bf
       0.0798944 0.31869754 0.17766589 -0.6846933
000190 30 ad 1d 3e e2 0f 0c 3e 5c d5 f2 bd 2b 21 0a 3d
       0.15398097 0.13677934 -0.11857101 0.033723038
0001a0 7a 40 1d 3d 6e dc 12 3e 7d 98 64 3d 01 ff 45 be
       0.038391568 0.143419 0.055809487 -0.19335558
0001b0 f7 9c c7 bc 7f 60 27 3d a4 b4 f2 3d 30 46 22 3c
       -0.024366839 0.04086351 0.11850861 0.009904429
0001c0 e4 f0 db bd d6 3f 7b be 9d f1 ac bd 73 17 6d 3d
       -0.107393056 -0.2453607 -0.084445216 0.05788369
0001d0 d0 5f ff 3d ef 87 61 3e 54 ef 1e 3e 19 38 20 bc
       0.12469447 0.22024511 0.15520984 -0.009779
0001e0 fb 0f 7a 3e 6e 8d ca 3b a9 f4 3e 3d 47 17 67 bd
       0.24420159 0.0061814105 0.046620045 -0.056418683
0001f0 d9 a4 a5 b9 16 e6 cc 3c bc 04 8a 3c dc a5 b3 3d
       -0.00031594074 0.025012057 0.01684796 0.087718695
000200 b7 5b bc 3b 6e ad 47 3c ce ab 22 3e 1b 10 30 3e
       0.005748238 0.012187345 0.15885851 0.17193644
000210 db 7d b7 3b 65 6a 94 bd 9b bd 2c 3d 09 5c 04 bf
       0.00559972 -0.07246856 0.04217301 -0.51702935
000220 82 f8 b0 bd 4d 0b 4b 3e 70 3f 4b 3c b6 c0 4f be
       -0.08641149 0.1982853 0.012405261 -0.20288357
000230 70 ff e7 be 1a 7a 8a 3d de 01 be be 50 01 60 bb
       -0.4531207 0.0676157 -0.371108 -0.003418047
000240 2a d5 98 bc 1e 7e 54 bf bc 9c 4c 3d e5 de 49 3d
       -0.018656332 -0.8300494 0.04995416 0.049284834
000250 1f 0a bd 3c a8 1b 0a 3d 3a dc 2d bc 72 1c 03 3e
       0.023076115 0.03371778 -0.010611588 0.1280382
000260 d6 60 aa bd 54 28 05 bd 9e e9 54 3e f5 26 b5 be
       -0.08319251 -0.032509163 0.20792243 -0.35381284
000270 77 bc a7 3c dc b4 ca 3d 42 2b 14 3c 20 cd c6 3d
       0.02047561 0.098977774 0.009043517 0.09707093
000280 40 c0 ff 3d df 10 26 3d 8f 4d f0 be 6a 85 63 bd
       0.12487841 0.040543433 -0.46934173 -0.055547155
000290 60 df 35 bf c3 18 1a 3e ee bf 71 ba f0 dc 12 bb
       -0.7104397 0.15048508 -0.000922202 -0.002240952
0002a0 cd b3 00 be f4 a7 2c 3d 55 fe 20 3e 84 9a 0e be
       -0.12568589 0.04215236 0.1572202 -0.1392613
0002b0 fb ea 69 bd a2 cf 17 3e 1a 18 dc bd bd d9 09 3c
       -0.05710886 0.148253 -0.107467845 0.008413729
0002c0 1c 91 3f bf 2d fe cf 3d 4b 60 45 bf 18 8e 28 bf
       -0.74830794 0.10155902 -0.77100056 -0.6584182
0002d0 67 f1 78 3e eb 97 35 3e 10 f3 2a be 11 4d 73 be
       0.24310838 0.17733733 -0.16694283 -0.23759867
0002e0 2b fe b9 3d 50 da 31 3e e0 73 d4 bd c5 e9 ba 3d
       0.09081682 0.17368436 -0.10373664 0.09126619
0002f0 4a f4 55 be d6 fc b2 3d c8 87 c8 3d a2 2a 28 bf
       -0.2089397 0.08739631 0.09791523 -0.6569005
000300 53 9f 2d 3d dd 14 59 be 4c 63 e7 3c 69 2f 2e bf
       0.04238827 -0.21199365 0.02824559 -0.6804109
000310 e2 e5 0b 3d 36 4d 0a bf 89 10 5b bd 52 61 db bd
       0.03415478 -0.54024065 -0.053482566 -0.10711922
000320 a2 af 5c 3e f9 1b b8 3d 64 7e dc bd b5 9d 23 bd
       0.21551374 0.0898971 -0.107662946 -0.039945323
000330 40 95 4c bd 62 e3 73 bd e5 a2 12 3e 24 12 12 bd
       -0.049947023 -0.05954302 0.14319952 -0.03566183
000340 ec 4d b8 bb 02 83 f8 bd bc 9c f1 3d b9 2b 18 3e
       -0.0056245234 -0.12134363 0.11797473 0.14860429
000350 53 89 cb 3d 45 c5 42 bc a0 4d eb 3d c0 1b 3a bc
       0.09938302 -0.011887853 0.11489415 -0.011359155
000360 a7 bc 2f 3e c4 cb 3d 3e a7 8e 46 bd 10 a5 3e 3e
       0.17161809 0.18534762 -0.048475888 0.18617654
000370 00 b5 d0 bd 4e 13 c2 3d fc 5b 85 bd 81 56 d6 bd
       -0.10190773 0.09476338 -0.06511685 -0.10465718
000380 3c 8f ac bd db 0c 16 3d e6 5e a7 3d 39 e7 3e bf
       -0.08425757 0.036633354 0.08172397 -0.7457157
000390 3f b6 c9 3d bd 9b 10 3e ec d2 ef bd 67 89 aa bd
       0.09849214 0.1412191 -0.11710152 -0.08326989
0003a0 f1 c7 dc 3d db 9e 1b bd fb 2b 3f 3c 88 ec 16 be
       0.10780323 -0.037993293 0.011668201 -0.14738667
0003b0 4f 36 b6 bd 3a 03 d7 3d 7d f1 05 3e a1 f8 0a 3e
       -0.08897077 0.10498662 0.13080402 0.13571407
0003c0 7f 7b ac be 4d 1f a0 be 0f 80 bb be 6b ef ba bc
       -0.3368797 -0.3127388 -0.36621138 -0.022819242
0003d0 39 2e bb 3c ac a1 08 be d4 e3 66 3d 81 01 6a 3d
       0.02284919 -0.13342923 0.056369618 0.05713034
0003e0 0d a1 49 3e e2 b4 25 3e e2 eb 2b 3e c8 0c 49 bc
       0.19690342 0.16182283 0.16789201 -0.012271114
0003f0 e0 56 43 3e 50 12 06 be 2b d1 d7 3d db 3b b2 3d
       0.19076109 -0.13092923 0.105379425 0.08702823

network.3.bias f4 [128]
000000 29 68 db 3f 48 4c ca 3f ae d2 c6 3f 62 f8 d4 3f
       1.7141162 1.5804529 1.5533044 1.66383
000010 f3 77 28 3e a4 cd a0 3f 86 63 0f 3e 62 74 cc 3e
       0.16452007 1.2562757 0.14002809 0.39932543
000020 08 70 cb 3f f6 62 68 3f 2e ec c0 3f 08 84 ca 3f
       1.5893564 0.90776 1.5072076 1.5821543
000030 d0 72 cf 3f b4 d9 c5 3f 52 4f c8 3f 04 2f ac 3e
       1.6206913 1.5457063 1.5649207 0.3362962
000040 b2 cc d3 3f e8 ce 53 3e 07 68 54 3e 16 dc d8 3f
       1.6546843 0.20684397 0.20742808 1.6942165
000050 61 1e 0c 3f 3e 55 d2 3f 06 d7 d9 3f 53 df b0 3f
       0.54733855 1.6432264 1.7018745 1.3818153
000060 37 62 b6 3e d7 96 8f bd 5d 8d d0 3f 94 da ce 3f
       0.35621807 -0.07011192 1.6293141 1.6160455
000070 d1 52 81 3e b2 4c cb 3f 42 eb d1 3f 62 fb b2 3e
       0.25258496 1.588278 1.639992 0.34957415
000080 94 8b 4a 3e 08 09 c3 3f 6d 5d c6 3f 27 cb 7f 3e
       0.19779807 1.5237131 1.5497261 0.2497984
000090 71 65 0f 3c e7 b6 c9 3f 11 ee aa 3f ad 03 c6 3f
       0.008752213 1.5758942 1.3353902 1.5469872
0000a0 d5 9a 47 3e c0 3b d4 3e 45 c2 c3 3f b6 4e fa 3e
       0.19492657 0.41451836 1.5293661 0.48888177
0000b0 b1 79 63 3d 1d 42 cf 3d 17 3f 8a 3e e2 84 a9 3f
       0.055535976 0.10120032 0.2700126 1.3243678
0000c0 0f 61 ca 3f 94 27 bd 3f 4a 42 d2 3f 0a 11 c4 3e
       1.581087 1.4777703 1.642648 0.3829425
0000d0 f1 45 b4 3e e9 58 a3 3f 88 2f d3 3f 15 9e cc 3f
       0.3520961 1.2761508 1.649888 1.5985743
0000e0 91 22 ab 3e 7e 52 84 3e a8 c3 df 3f cb 4d cc 3f
       0.3342481 0.25844187 1.7481585 1.596124
0000f0 96 e1 e4 3e 40 c7 cb 3f 92 7b c6 3f b3 ac c0 3f
       0.44703358 1.5920181 1.5506461 1.5052704
000100 75 d0 96 3e ab f6 a4 3f a0 ad c1 3f 76 a5 a4 3e
       0.29455915 1.2887777 1.5131111 0.32157487
000110 de 2a cb 3f c7 5a b1 3f 1f 94 c8 3f b2 5e d0 3f
       1.5872457 1.3855828 1.5670203 1.6278899
000120 37 13 81 3d 91 56 cb 3f 04 7a c6 3f c4 f7 3d 3e
       0.06302493 1.5885793 1.5505986 0.18551546
000130 07 8c df 3f ee 46 ce 3f f1 bd c6 3f 50 09 97 3e
       1.7464608 1.6115396 1.5526716 0.29499292
000140 8a 3b b1 3f 73 a1 c7 3f 26 e3 db 3c 46 30 9f 3d
       1.3846295 1.5596145 0.026841711 0.07772879
000150 76 98 00 3f a8 72 b1 3f 2a 8f c3 3e f7 88 cd 3f
       0.50232637 1.3863115 0.38195163 1.6057423
000160 eb c5 ce 3e dc 8f c7 3f ee ce d0 3f 08 94 c7 3f
       0.40385374 1.5590777 1.631315 1.559205
000170 25 75 1d 3f e3 62 cb 3f 3d 64 94 3f 4d e0 21 bf
       0.61506873 1.5889553 1.159309 -0.6323288
000180 d1 78 b0 3e 2d bf c2 3f 8c 77 b5 3e d6 b0 10 be
       0.34467176 1.5214592 0.3544277 -0.14129958
000190 13 1d af 3e 3f 22 74 bd 2a 9e c7 3f 54 f6 c6 3f
       0.3420187 -0.059602972 1.5595143 1.5543923
0001a0 97 f0 cf 3f eb 37 d1 3f 04 0a c2 3e 50 b0 cb 3f
       1.6245297 1.634519 0.37898266 1.5913181
0001b0 f1 69 c5 3f 2d 14 c3 3f 02 77 c8 3f 0d 6d d5 3e
       1.5422956 1.5240532 1.5661318 0.41684762
0001c0 a4 ec cf 3f a0 62 84 3e 81 02 cd 3f 7f bb cd 3f
       1.6244092 0.25856495 1.6016389 1.6072844
0001d0 32 0b 8b 3e 90 1e bb 3f 62 bf 66 3e 09 87 c9 3f
       0.2715698 1.4618702 0.22533944 1.5744334
0001e0 36 cb c5 3e 48 9e b8 3e e9 eb cb 3f b6 50 02 3f
       0.386316 0.3605826 1.5931369 0.50904405
0001f0 5d 58 ce 3f 8b ef d8 3e 34 5c c5 3f 01 ef 86 3e
       1.6120716 0.42370257 1.5418763 0.2635422

network.6.weight f4 [5, 128]
000000 46 16 c1 3e 4d 49 bc 3e 35 1f cb 3e ad 68 c6 3e
       0.37712306 0.36774674 0.39672247 0.38751736
000010 25 c1 e0 3e 43 d2 85 3e 42 75 01 3e ae cc 95 be
       0.43897358 0.2613698 0.12642387 -0.2925772
000020 b3 98 b1 3e 90 dd a8 3e 18 fe 97 3e 6a 77 a5 3e
       0.34686813 0.3298154 0.29686046 0.32317668
000030 a5 94 8d 3e d7 86 d9 3e d9 a2 cf 3e 9c 36 33 bf
       0.2765247 0.42485687 0.4055393 -0.700052
000040 17 7b c4 3e e4 e6 ae 3e d7 da 6f bf 3c ee 0b 3f
       0.3837516 0.3416053 -0.936933 0.5466039
000050 dc 3e 89 3e 6c 85 be 3e 2f 72 c9 3e 2c 96 cd 3e
       0.2680577 0.37211168 0.39344928 0.40153635
000060 70 4d 73 bf 2c 08 c2 3d d4 48 d0 3e f0 4d c5 3e
       -0.95040035 0.09474215 0.40680563 0.38536024
000070 c4 3b 66 3e 71 d5 c5 3e e7 2e 03 3f 1d ba 21 bf
       0.22483736 0.38639405 0.5124344 -0.6317461
000080 1c c8 35 bf 32 09 ba 3e fe 28 ca 3e 30 65 40 bf
       -0.7100847 0.3633514 0.394844 -0.751544
000090 4e f2 d4 3e 9c 62 e1 3e e2 6d a9 3e ce cb cd 3e
       0.41591114 0.44020545 0.33091646 0.40194553
0000a0 01 70 65 3e 85 58 66 be 9c 07 bf 3e 4d 09 20 be
       0.22406007 -0.22494705 0.37310493 -0.15628548
0000b0 fb b8 a9 3e 3f 25 38 bf 19 7d ee 3e 4f 59 87 3e
       0.3314894 -0.71931833 0.46579817 0.26435325
0000c0 0a c2 c0 3e 01 56 bd 3e a3 10 bb 3e 65 4a 0a bf
       0.3764804 0.36979678 0.3653613 -0.5401977
0000d0 05 3d 2c bf 64 67 96 3e 3a 67 be 3e be 27 a5 3e
       -0.6728061 0.29375756 0.3718813 0.32256883
0000e0 cf 2e c0 be ab 5d 54 bf 74 c1 b5 3e 8c 6f dc 3e
       -0.37535712 -0.82955426 0.35499156 0.43053854
0000f0 03 57 3e be 64 d0 b2 3e ba 6e d3 3e 65 46 b0 3e
       -0.1858788 0.34924614 0.41295415 0.34428707
000100 f5 c7 a1 be b8 87 d5 3e 0d 0f 14 3f 6c e9 d1 3d
       -0.31597868 0.41705108 0.57835466 0.102496
000110 88 98 a0 3e 5a 9f 99 3e 55 67 e4 3e de 6a cc 3e
       0.31366372 0.30004388 0.44610086 0.39925283
000120 45 9c 92 be f2 1d a4 3e 89 5c ab 3e a2 77 15 bf
       -0.2863485 0.32054096 0.33469036 -0.5838567
000130 2a f0 bd 3e c7 25 93 3e a2 0d ea 3e e6 71 ca be
       0.37097293 0.2873976 0.45713526 -0.39540023
000140 52 b6 92 3e 7a 43 fb 3e a5 26 e6 3e de 2b 31 bf
       0.28654724 0.49074918 0.44951358 -0.6920756
000150 a0 5f 8e 3e 81 f6 86 3e 95 26 07 bf 28 11 f4 3e
       0.2780733 0.26359943 -0.52793247 0.4766934
000160 6f 4a 28 bf f0 c3 d6 3e 92 3d c2 3e 03 0a af 3e
       -0.65738577 0.41946363 0.379376 0.34187326
000170 ce 16 a7 3e 6b 45 cb 3e 8d 00 89 3e 07 25 44 be
       0.32634586 0.397014 0.26758233 -0.1915475
000180 80 74 82 bf 77 9b eb 3e 70 74 8a bf ba 1b d2 3d
       -1.0191803 0.46017048 -1.0816784 0.10259195
000190 ad f2 33 bf 0a 3d ff 3c 38 da ad 3e 2f f9 cf 3e
       -0.7029217 0.031157035 0.3395555 0.406198
0001a0 c5 24 9d 3e cd 64 e3 3e 0c 28 9c be 3f 0c db 3e
       0.30692115 0.44412842 -0.30499303 0.4278278
0001b0 73 92 a0 3e e7 35 90 3e 13 30 b8 3e b0 4a ee be
       0.31361732 0.28166124 0.35974178 -0.46541357
0001c0 39 56 f5 3e 0c 41 90 3e 15 a3 fe 3e 86 be c9 3e
       0.47917345 0.28174627 0.49733797 0.3940317
0001d0 10 fb 3a bf 30 ec a4 3e ef 93 de 3e ed 11 ad 3e
       -0.7303934 0.32211447 0.4347224 0.3380274
0001e0 d9 c3 5a be 41 10 26 bf 72 88 f1 3e 76 8e b3 3e
       -0.21363772 -0.6486855 0.47174412 0.35069627
0001f0 42 2b e7 3e 7d 78 07 bf b8 c9 e2 3e ee cd e2 3e
       0.4515019 -0.52918226 0.44294524 0.44297737
000200 a9 34 c0 3e 80 ae bb 3e ae e1 dc 3e 52 ac b8 3e
       0.37540177 0.3665657 0.4314093 0.3606897
000210 1d e8 1d bf c3 65 9c 3e c3 71 8a bd 43 47 ed be
       -0.616823 0.30546388 -0.067599796 -0.4634343
000220 49 55 a9 3e 6e a3 ae 3e c4 67 a4 3e 20 b8 a1 3e
       0.3307288 0.34109062 0.32110417 0.3158579
000230 5f 4c a3 3e 40 65 e5 3e 59 d8 af 3e 04 6b 26 bf
       0.31894204 0.4480381 0.34344748 -0.6500704
000240 15 ac c2 3e 8d da 19 3f d9 3e 47 be 42 0b 26 3f
       0.38021913 0.6009911 -0.19457568 0.6486093
000250 fe ba a0 3e 2e 06 d0 3e 5b 40 b8 3e 10 34 c4 3e
       0.31392664 0.40629715 0.359866 0.3832097
000260 b6 98 0b 3e fe 6e ec 3d 0c b7 b5 3e d0 e6 d7 3e
       0.13632473 0.115446076 0.35491216 0.42168283
000270 17 43 20 bf 57 e1 ca 3e 03 78 dc 3e 0a fc ea be
       -0.6260237 0.39625046 0.43060312 -0.45895416
000280 62 73 2a bf c8 1d b9 3e 19 27 cd 3e 46 1f bb be
       -0.6658231 0.36155534 0.40068892 -0.36547297
000290 29 fc 22 bf 88 52 e2 3e 38 46 b4 3e 70 00 f6 3e
       -0.63666016 0.4420359 0.35209823 0.4804721
0002a0 82 ff 94 3e 6e 43 46 3e 8e 11 ba 3e 1b 2f 1b bf
       0.29101187 0.1936166 0.36341518 -0.6061875
0002b0 64 9c 18 bf 59 63 e7 be 76 1e 33 bf 4e 84 a5 3e
       -0.59613633 -0.45192984 -0.69968355 0.32327503
0002c0 60 1a ef 3e b3 5e ac 3e da b4 c6 3e 07 26 f7 be
       0.4669981 0.33666 0.38809854 -0.482712
0002d0 10 cb 60 bf a2 84 89 3e 96 e9 b7 3e b2 ff a2 3e
       -0.8780985 0.26859003 0.359204 0.31835705
0002e0 2f 76 f0 be 82 63 d4 be f1 b4 bd 3e fa ce eb 3e
       -0.46965167 -0.41482168 0.3705211 0.46056348
0002f0 56 67 59 be 3d 50 c8 3e 30 fe da 3e a1 18 e8 3e
       -0.21230826 0.39123717 0.42772055 0.4533129
000300 50 8f 0f bf e9 fe b5 3e 58 17 0e 3f dc fc d8 be
       -0.5607805 0.35546044 0.5550437 -0.42380416
000310 af 53 ac 3e 66 cb c1 3e da 54 dc 3e 08 63 d6 3e
       0.33657596 0.37850493 0.43033487 0.4187243
000320 14 c8 c3 be 11 47 b2 3e d0 e0 c5 3e f4 01 de be
       -0.38238585 0.34819844 0.3864808 -0.43360865
000330 05 26 9f 3e f8 b5 b7 3e c4 ac dc 3e 60 91 1b bf
       0.31083694 0.3588102 0.4310056 -0.607687
000340 9a b9 82 3e 0e 43 fb 3e df ce 3d bf 40 10 19 bf
       0.25532228 0.49074596 -0.74143785 -0.5979042
000350 05 d7 88 3e 4b e3 b8 3e f0 dc a4 3e 52 88 0a 3f
       0.26726547 0.3611091 0.32199812 0.5411426
000360 33 9d ae 3e 8d d7 05 3f 9c 3a db 3e 97 4b a6 3e
       0.34104308 0.5228203 0.42818153 0.32479545
000370 3f 4a cb 3e 0b e0 e7 3e 26 e7 a4 3e d9 ca 2d bf
       0.39705083 0.4528812 0.32207602 -0.67887646
000380 51 0c 16 3e 66 7d d8 3e a2 f9 23 3e 2e e0 23 be
       0.14653136 0.4228317 0.16013196 -0.16003487
000390 60 7c f7 be 34 30 be ba 6d 93 af 3e 73 42 e0 3e
       -0.48337078 -0.0014510215 0.34292164 0.43800697
0003a0 bc 09 b9 3e 6c 6d f9 3e 97 22 03 bf b3 a3 bd 3e
       0.3614024 0.48716295 -0.51224655 0.37038955
0003b0 dd 6f 9d 3e 6d 31 96 3e af d5 c1 3e 7e 03 e3 be
       0.30749407 0.29334584 0.3785834 -0.44338602
0003c0 df 96 d8 3e e5 89 08 bf 5b 29 fa 3e 31 22 de 3e
       0.42302606 -0.5333541 0.48859677 0.4338546
0003d0 0b a2 3a bf 9e 15 9d 3e 5f 76 af be 7f 82 a0 3e
       -0.7290351 0.30680555 -0.34269997 0.3134956
0003e0 53 a7 a3 3e 9d 8c 23 3c 74 e9 ec 3e 2a d4 a9 3e
       0.31963596 0.009982255 0.4627186 0.3316968
0003f0 5d 88 f2 3e c8 cd 6a 3e 0b 7b d3 3e d2 8a b9 be
       0.47369662 0.22930062 0.41304812 -0.36238724

network.6.bias f4 [5]
000000 c5 88 e5 3f af be 36 40 bf 44 ea 3f fa 42 2d 40
       1.7932364 2.8553884 1.830223 2.707213
000010 25 be de 3e
       0.43504444

network.0.weight f4 [128, 16]
000000 ad 7b 92 3d 7b 2c 3f 3d 98 af b6 bd 2f 83 1c 3e
       0.071524955 0.04667328 -0.089202106 0.15284418
000010 cd 10 9f be 95 c7 9d be b0 30 72 3e 12 3a 28 bd
       -0.31067505 -0.30816332 0.23651385 -0.041071005
000020 9e c7 d1 3e 48 15 ff 3c f8 23 86 bd d1 0b 9a bd
       0.40972608 0.031138077 -0.06549829 -0.07521785
000030 f4 53 d6 bd 3b f4 de 3d cf 2e d3 bd 7f 08 da bc
       -0.104652315 0.10886427 -0.103116624 -0.02661538
000040 07 3f 44 3e be 5d 73 3e 55 9c 46 be 73 98 9c 3d
       0.19164668 0.23766229 -0.19395573 0.07646265
000050 a6 00 cf be 96 2a 0f 3e 77 26 8b bd 52 3d 65 3e
       -0.40430182 0.13981089 -0.06794446 0.22386673
000060 10 1f 45 3f 18 73 c0 3d c4 63 ac bd 77 99 1b be
       0.7700052 0.093969524 -0.08417466 -0.15195261
000070 24 b5 28 3d a2 e5 ab bd 53 29 26 be c7 1c 3a be
       0.041188374 -0.08393408 -0.16226701 -0.1817504
000080 b3 c8 fa 3d 70 c9 88 3e e0 7a dc bc ab a5 3f 3e
       0.122453116 0.26716185 -0.02691406 0.18715541
000090 f3 a2 e6 be 3b fe b4 3e c6 8f d6 ba 6f 9d d5 bd
       -0.45046195 0.35350212 -0.0016369752 -0.10430419
0000a0 29 70 2b 3c f4 a1 fb bb 40 51 d7 3d f9 19 32 be
       0.010463753 -0.0076792184 0.10513544 -0.1739272
0000b0 6c d9 2b 3d 69 52 00 3e 1e 24 66 3c 2c 6f 2f 3c
       0.041955397 0.12531437 0.014046697 0.010707658
0000c0 54 4f 9c be 5d 04 22 be 61 e8 88 3b 09 e1 ab bd
       -0.30529273 -0.15821977 0.0041780923 -0.083925314
0000d0 9a 0f 06 be 3d 74 18 3d a1 c0 5e be 11 69 b4 bd
       -0.13091889 0.03722023 -0.2175317 -0.08809102
0000e0 2d cc 3e 3e 56 1e 69 3d 8c 5d b8 bd 81 69 1e be
       0.18632574 0.056913696 -0.09002218 -0.15469934
0000f0 f5 a8 ec 3e 7e 54 b7 bc ba ad c5 bd ab b8 ce 3b
       0.46222654 -0.022379156 -0.09652276 0.006308635
000100 6a d2 78 3d 4f 67 a8 be 2a fe 04 3e 0f 37 d5 3d
       0.06074754 -0.32891318 0.12987581 0.10410892
000110 2c 28 b9 be 85 ef 6d 3e ae 0d 8e bc e8 dd 22 be
       -0.3616346 0.232359 -0.017340507 -0.15904963
000120 05 7e bd be bb 9c 60 bd 34 db ed bc ad fe 2c 3d
       -0.37010208 -0.05483697 -0.029035188 0.042235065
000130 a4 e7 5d 3e 3c 20 0a bd 81 1d 94 be 5f a2 c4 3e
       0.21670395 -0.033722147 -0.2892876 0.3840513
000140 d9 42 3e 3e 02 c1 02 3d 65 0d 9b 3d 34 cc 9f bc
       0.18580188 0.031922348 0.07570914 -0.019506551
000150 5f 4e 14 3d 6d 95 10 3f 77 db dc bd e1 86 1a 3c
       0.036207553 0.56478006 -0.10784047 0.009431572
000160 70 96 06 3e 04 47 50 be ab 74 e7 3e 71 e4 4a 3e
       0.13143325 -0.2033959 0.45206198 0.19813706
000170 00 50 54 3d 6f 4e 0a 3e ed ea ae bd a4 0f 9b bc
       0.051834106 0.13506483 -0.08540902 -0.018928356
000180 41 8c 90 3e 86 18 d2 bc 78 e4 0b 3d d9 69 04 be
       0.28232005 -0.02564646 0.03415343 -0.12931003
000190 f6 2d 8c bd fb fe 29 3f 42 f3 27 3e f9 43 6b 3d
       -0.06844704 0.66404694 0.16401389 0.05743787
0001a0 0d c2 ab bb d3 ed 0f 3e 58 b8 b6 bd 4a 54 15 be
       -0.0052416385 0.14055566 -0.089218795 -0.14582935
0001b0 42 1f 7a 3e ab 36 9d bd b9 8b 5c 3d 2a 26 ae 3e
       0.24425986 -0.07676443 0.053844187 0.34013492
0001c0 cd 01 42 bf 4e 8a 19 bf 05 83 2a be d0 e6 98 be
       -0.75784 -0.5997666 -0.16651542 -0.29863596
0001d0 4d 90 96 3c b1 9b d5 be a9 01 b7 be c5 40 50 3d
       0.018379355 -0.41720346 -0.35743454 0.05084302
0001e0 ac 5e 69 be b4 ac b0 bd b9 13 80 be 9c 4f 84 3d
       -0.2279002 -0.086266905 -0.25015047 0.06460497
0001f0 df 3a c3 be 94 1c 21 be d9 a4 d5 be 69 31 04 3d
       -0.38130853 -0.15733558 -0.4172733 0.032273684
000200 2e 93 31 3b 57 c7 1d bc 5a a5 a1 bc 36 c9 1c be
       0.0027095783 -0.009630046 -0.019732166 -0.15311131
000210 b3 82 7b be 77 e6 9e bd 28 79 33 3d 05 8c 89 3d
       -0.24561577 -0.077588014 0.043816715 0.0671616
000220 41 92 e9 3e c5 44 55 3e 36 b7 85 be 93 74 af 3d
       0.45619395 0.20827015 -0.2611634 0.08567157
000230 e1 d6 52 3d d2 bb 70 bd 08 84 24 bf 5a a2 1f be
       0.051474456 -0.05877287 -0.64263964 -0.15589276
000240 d1 a1 2b 3d 60 8e bc bd b0 65 40 3e 88 32 a0 3d
       0.041902367 -0.092068434 0.1878879 0.07822138
000250 cb 0e 1f bd be 3e 10 3e 40 2c d2 bc dc 94 99 3d
       -0.038832467 0.14086434 -0.025655866 0.07499096
000260 d7 36 2c bd 8e 3b 35 be 23 d9 0f 3e 51 b4 35 3e
       -0.042044487 -0.176985 0.14047675 0.17744567
000270 fa e0 69 bc d1 4b 13 bd 48 1c 1a 3d 59 2b a4 3c
       -0.01427483 -0.035960976 0.037624627 0.020040201
000280 f7 9c 9d 3e a4 62 80 3e 5d f2 5d 3d c1 14 2c bd
       0.30783817 0.25075257 0.054186214 -0.04201198
000290 ef d1 bc be a3 ff c8 3e df d3 02 3d 67 bb c7 bd
       -0.36878917 0.39257535 0.031940337 -0.09752541
0002a0 a8 78 e1 3d 7a 0e 1a bd 54 57 33 3d 84 a3 2d 3e
       0.110093415 -0.037611462 0.043784454 0.16956908
0002b0 32 92 19 3e c6 f1 71 3d 0a 16 f5 3b fb 76 9f 3d
       0.14997175 0.059068464 0.007479434 0.077863656
0002c0 90 3e 00 3e d2 9d 57 3e 01 5e 26 39 ab 13 bd bd
       0.12523866 0.21056297 0.00015866013 -0.09232267
0002d0 c8 03 c2 be 4e b6 05 be 39 80 80 3e 61 38 b5 bd
       -0.3789351 -0.13057825 0.25097826 -0.08848644
0002e0 8f e1 f1 3e 7a eb 07 bd 0b 54 7f bd 6a bc 19 3e
       0.472424 -0.033183552 -0.06233601 0.1501328
0002f0 b5 06 cf 3d f3 f5 bb 3d 78 8f 65 bc aa 43 ec 3c
       0.10108701 0.091777705 -0.014011256 0.028840858
000300 d2 73 54 bf 8a b0 0f bf d5 22 5a be c5 43 62 be
       -0.8298923 -0.5612875 -0.2130235 -0.22096165
000310 22 0c 7c 3e 69 40 03 bd 9b 7c c1 be eb 99 96 bc
       0.24614003 -0.03204385 -0.3779038 -0.01838394
000320 c0 05 db bd fd 9b 19 3d fd a3 fe bd cc 81 00 bd
       -0.10694456 0.037502278 -0.12433622 -0.031373784
000330 22 ff d2 be c1 6d 63 bd 26 ce bd be e5 8b 8a bd
       -0.41210276 -0.05552459 -0.3707134 -0.06764964
000340 ae 4b a9 3e 13 b6 c2 3d 34 3c 70 3d 53 f7 84 3e
       0.33065552 0.09507384 0.058651164 0.25969943
000350 9c ec b9 be b2 46 2e be f2 c7 8a 3d 0c cc 39 3d
       -0.3631333 -0.17019156 0.06776418 0.04536061
000360 59 27 2f 3d 89 63 07 bb d8 e1 93 3d 6b 1b 31 3d
       0.042762134 -0.0020658693 0.07220811 0.04323904
000370 07 92 21 3d 61 24 89 3d 89 9a 30 3e 27 0c bd 3d
       0.039445903 0.06696392 0.1724645 0.092308335
000380 25 20 50 bf 1b dd 1e bf 32 d0 9f be 43 48 62 be
       -0.8129905 -0.6205613 -0.31213528 -0.22097878
000390 ab 65 2c 3e 02 6d c2 bd bb 67 52 be 6c 02 63 3d
       0.16835658 -0.09493448 -0.20547383 0.05542223
0003a0 6b aa f5 bd 25 1f 5e bd 1f 94 36 be 59 c3 0f 3e
       -0.11995395 -0.05422892 -0.17829941 0.14039363
0003b0 39 38 9c be b3 3d fc bd 34 7b 91 be 86 9b 5d 3d
       -0.30511644 -0.12316456 -0.2841431 0.054103397
0003c0 dc 2d 86 3d ae 6b 39 be d2 38 81 bc 19 d8 98 3c
       0.06551716 -0.18107483 -0.015774164 0.01865773
0003d0 a0 dd af bd 43 9a 1d be 87 d9 06 be 1c 08 c1 3d
       -0.085871935 -0.15390877 -0.13168918 0.09425375
0003e0 32 0b 90 bd 7b 66 97 bc c7 77 7d 3d b1 fb 09 3e
       -0.07033385 -0.018481484 0.061881807 0.13474919
0003f0 7b f0 d7 3d 95 28 bb 3d 64 4e 3d 3e 48 a8 19 3d
       0.10543915 0.091386 0.18486935 0.037514

network.0.bias f4 [128]
000000 ae e2 03 3d 98 e8 bf bb 36 bf 79 3d 53 d9 28 be
       0.0321986 -0.0058565848 0.06097337 -0.16489153
000010 71 3a 3c bd a1 d5 bf 3d 56 11 4b 3d 6d b1 83 be
       -0.04595417 0.09366918 0.04957708 -0.25721303
000020 36 25 32 bd 75 3d fa 3d e0 68 8f 3d ce 21 68 3d
       -0.04349252 0.12218753 0.07002425 0.056672864
000030 90 8a 4d be 04 f2 92 3d 6b 55 63 be 00 00 00 00
       -0.20072389 0.07175067 -0.22200553 0.0
000040 12 bd 9b 3b 22 de 45 be 5b 80 fd bc 5f b9 42 3d
       0.0047527635 -0.19323018 -0.030944994 0.047540065
000050 ac c1 d3 3d 62 7c 35 3c 58 1d 01 3d b3 47 dd 3d
       0.10339674 0.011077018 0.031522125 0.10804691
000060 52 0e 74 3d f5 a0 45 3d 13 70 e4 bd 24 98 42 be
       0.05958397 0.048249204 -0.11154189 -0.1900335
000070 03 8e 3a 3d e5 de 86 3d 8e 5d 82 bd ab 75 52 be
       0.04554559 0.065854825 -0.063655004 -0.205527
000080 00 00 00 00 ec 84 9a 3d 00 0d 82 be 97 68 16 bd
       0.0 0.07544884 -0.25400543 -0.03672084
000090 6f 6a 79 be c3 66 59 3c 9c 38 0f 3d ff cb 1f 3d
       -0.24357007 0.013269129 0.034966096 0.039012905
0000a0 a0 13 39 3d d9 10 22 bd ce 81 e1 bb 00 00 00 00
       0.04518473 -0.03956685 -0.006881929 0.0
0000b0 b0 c4 d3 3d 7c 13 f9 3d 99 0d b5 3d 8e 8a 43 bd
       0.103402495 0.121619195 0.08840484 -0.047739558
0000c0 30 ec 6b be 00 00 00 00 0a 4d 87 be e7 d2 49 be
       -0.23039317 0.0 -0.26425964 -0.19709359
0000d0 16 fe f4 3d 48 c8 85 3d 15 4b cd 3d 86 69 4c be
       0.119625255 0.06532341 0.100240864 -0.19962129
0000e0 33 01 ec 3d f7 e8 16 3b 1c 65 39 3d 60 1d ca 3d
       0.11523666 0.0023027041 0.04526244 0.09868884
0000f0 84 15 8e bd cc 7b 12 3d e9 d0 36 3c ff 15 6d be
       -0.069376975 0.035762593 0.0111582065 -0.23152922
000100 10 6c 57 3d c5 23 70 3d 90 70 cb b7 92 c8 8b be
       0.05259329 0.058627862 -2.4251902e-05 -0.2730146
000110 19 bc 7a 3d a4 a2 85 be 00 00 00 00 05 98 26 3c
       0.06121454 -0.26100647 0.0 0.01016808
000120 5f a0 ac 3d ed 0b 5f bd 30 0c 27 be 53 77 12 be
       0.08429026 -0.054454733 -0.16313243 -0.14303331
000130 c9 ab 2c 3d fc 87 1d bb 54 dd 2d bd 00 00 00 00
       0.042156015 -0.0024037352 -0.042447403 0.0
000140 8e 12 ad 3d a6 16 21 3e d2 8f b2 bd 26 4c 56 3d
       0.08450805 0.15731296 -0.08718838 0.052318715
000150 1d e1 8a 3d 31 bc 16 be c5 29 b7 3d 2e 3f eb bb
       0.06781218 -0.14720227 0.08943514 -0.0071791625
000160 25 7f 48 3d 27 0c 61 3b c1 ba 87 3d cc 54 9d 3d
       0.04894938 0.0034339519 0.06627417 0.07682189
000170 00 00 00 00 06 dc 98 bd e0 dd c5 3c 54 24 d2 bc
       0.0 -0.07463841 0.02415365 -0.025652088
000180 55 07 4a bc a2 91 af 3d 64 c1 a6 3c 6d a7 4d be
       -0.01233085 0.08572699 0.020355888 -0.20083399
000190 5f ee a8 bd 89 9f c3 3d 59 5c 8c 3b d0 e3 0e be
       -0.08248591 0.09551913 0.0042834696 -0.13954091
0001a0 ee 7f 5c bd dc 5e 29 3d d3 04 c9 3c 89 c1 45 be
       -0.05383294 0.04135023 0.024538433 -0.19312109
0001b0 4e 78 db 3c cd e7 7d 3d 6d 69 33 3c 19 f3 80 3c
       0.026790764 0.06198864 0.010950428 0.015740918
0001c0 cd e1 2a be cc 88 6a be bc 1b 1e be 2b 93 a0 3d
       -0.16687699 -0.22903746 -0.15440267 0.0784057
0001d0 33 08 a9 bc a6 20 ad 3d a5 68 99 3d ef ef dd 3d
       -0.020633793 0.08453493 0.074906625 0.10836779
0001e0 0d 2a 90 3d af f8 0f bb 3a fa 81 3d 13 66 9f 3c
       0.070392706 -0.0021968295 0.06346555 0.019457852
0001f0 1c db 67 3d 47 71 12 be 16 e3 2a be 4c 2e 84 3d
       0.056605443 -0.14301024 -0.16688189 0.06454143

network.3.weight f4 [128, 128]
000000 2c 7b 82 3d 98 a2 13 bc 77 55 00 3e 16 61 9f 3d
       0.063711494 -0.009010933 0.12532602 0.077821895
000010 fc 8b e3 bc e1 e5 92 3d 0b f0 1f 3e af 7f 0f bf
       -0.02777671 0.07172752 0.15618913 -0.56054205
000020 b2 fb c7 bd c2 de 58 bc 86 df 08 be 7f df a9 3d
       -0.09764804 -0.013236703 -0.13366517 0.082945816
000030 37 38 bc be dd 79 a0 3d d6 6c b2 be 4b 86 b3 bd
       -0.3676164 0.078357436 -0.3484866 -0.08765849
000040 32 da b3 bc 61 3e 2b bf c6 d4 0d be 30 58 2d 3d
       -0.02195463 -0.6689206 -0.13850698 0.04232043
000050 0c 43 ff 3d 6b e8 ac 3d 04 94 24 bd a3 b6 0b 3e
       0.1246396 0.08442768 -0.04018022 0.13643889
000060 52 cc be 3d df 95 4b 3d 8e 9e 70 3d 75 e3 99 be
       0.09316315 0.049703475 0.05874496 -0.30056348
000070 c5 91 61 bd d6 a1 00 3e 69 52 4f be 3f 8d 01 be
       -0.055070657 0.12561736 -0.2024628 -0.12651537
000080 96 8e 3e 3c a2 b7 e6 3d 4f f7 20 bf 4b a1 19 3e
       0.011630675 0.11265494 -0.6287736 0.15002935
000090 68 22 36 bf 0f a2 12 3e 3b 02 b4 3d 85 9c 2f be
       -0.7114625 0.14319633 0.08789488 -0.17149551
0000a0 0e 9e ff bc d1 f1 af bd 02 d5 16 3e 35 1b 68 3d
       -0.031203296 -0.08591045 0.14729694 0.05666657
0000b0 57 e3 69 3e 79 e6 82 3c 69 d7 1b 3e 77 18 51 3e
       0.2284063 0.015979039 0.15218891 0.20419489
0000c0 14 bc 82 bf 6d 6a 0f 3d d4 ad 40 bf e2 25 f3 be
       -1.0213647 0.035013605 -0.7526524 -0.4748984
0000d0 95 be a6 bd b0 da 8a bb 91 ae 10 be aa bd 72 bb
       -0.081418194 -0.0042374954 -0.14129092 -0.0037039318
0000e0 5a 59 02 3e e2 c9 09 be e7 df a8 bd 01 b6 fa 3d
       0.12729397 -0.13455918 -0.08245831 0.12241746
0000f0 ec 3c 7e bd dd 8a dd 3c a7 8e 05 be 67 09 27 bf
       -0.06206982 0.027043754 -0.13042699 -0.6524872
000100 06 2c cd bc 8d 52 0c 3d 32 1b 07 be eb a0 53 bf
       -0.025045406 0.034258414 -0.13193968 -0.82667416
000110 29 8e c6 3d 79 de 0b bf 93 72 18 bd b7 88 30 bd
       0.09695084 -0.5463634 -0.03721864 -0.04309913
000120 5b 96 a8 3d 6c 34 90 3d 8c 79 a9 bd c1 e6 56 bd
       0.08231803 0.07041249 -0.08275136 -0.052466158
000130 70 c1 9c bd 0b c6 74 3c ee aa 2c 3d 24 9f ad bd
       -0.07654083 0.014939795 0.0421552 -0.08477619
000140 2b ec 79 3d 61 7b ce 3d 5c bd 09 3e 5c 1b 70 3e
       0.061016243 0.100821264 0.13451141 0.23447937
000150 bf 00 35 bd 6a 55 02 be b4 c0 5c 3c f9 b0 a5 bd
       -0.044190165 -0.12727895 0.013473678 -0.080903955
000160 e4 24 fc ba cc 24 31 3e 90 8c 27 3d 90 89 13 3e
       -0.0019237068 0.17299193 0.040905535 0.14407945
000170 0b 5c bc 3a f9 6a 4a 3e 9b 00 b0 bd 6e 80 ea 3d
       0.0014370693 0.1976737 -0.085938655 0.11450277
000180 5a 40 a3 3d e9 d5 a4 3e ec 2c 3d 3e 0f 48 2f bf
       0.079712585 0.3219445 0.18474168 -0.6846933
000190 74 f6 28 3e 9c 8c 11 3e a8 c8 fa bd 63 29 0d 3d
       0.16500264 0.14213794 -0.122453034 0.034463298
0001a0 c4 2d 0b 3d 64 f7 1a 3e bf 6c 71 3d 4e 39 37 be
       0.033979192 0.15133435 0.0589416 -0.17892954
0001b0 7c 97 db bc 92 38 48 3d 04 c3 f6 3d 42 8e 36 3c
       -0.026805632 0.048882075 0.12048915 0.011142315
0001c0 90 00 c6 bd e4 b6 74 be 81 dc 9b bd cd 4f 94 3d
       -0.09668076 -0.23897892 -0.07610417 0.07241783
0001d0 d0 5f ff 3d 28 44 64 3e cd 60 22 3e de 4f 34 bc
       0.12469447 0.22291625 0.15857239 -0.01100537
0001e0 08 8a 7f 3e 82 ba eb 3b 77 6f 62 3d ee 1e 4c bd
       0.24954998 0.0071938643 0.055282082 -0.049834184
0001f0 d1 e6 37 3c 15 5c d7 3c bc 04 8a 3c 01 27 b2 3d
       0.0112244645 0.026289025 0.01684796 0.08698846
000200 20 f3 48 3c ff d1 35 3c 16 96 2b 3e 1b 10 30 3e
       0.012264997 0.01109743 0.16756472 0.17193644
000210 40 a9 42 3c 21 1b 8f bd 3e 91 32 3d 09 5c 04 bf
       0.011881173 -0.06987596 0.043595545 -0.51702935
000220 5b e6 b6 bd 67 11 4f 3e da e4 69 3c 84 51 4b be
       -0.089306556 0.20221482 0.014275754 -0.19855314
000230 ae 40 e9 be b0 27 a1 3d de 01 be be 50 01 60 bb
       -0.4555716 0.07868898 -0.371108 -0.003418047
000240 76 1f 33 bc eb d2 55 bf bc 9c 4c 3d 71 09 55 3d
       -0.010932794 -0.8352496 0.04995416 0.052010957
000250 c2 18 d6 3c b5 a2 1b 3d ee 8a 11 bc eb 8f 0e 3e
       0.026134852 0.037996966 -0.008883221 0.13922088
000260 0d 8e 9a bd 64 d8 f7 bc b6 b6 53 3e 4e 2b b5 be
       -0.07546625 -0.03025455 0.20675167 -0.353846
000270 ca 41 ed 3c 36 32 d1 3d 54 65 62 bb 1d 01 a4 3d
       0.028962035 0.10214655 -0.003454526 0.08008025
000280 40 c0 ff 3d ef 97 45 3d 8f 4d f0 be 73 03 63 bd
       0.12487841 0.0482406 -0.46934173 -0.05542321
000290 60 df 35 bf 2e 43 26 3e 82 6b 74 3b 01 c4 e1 bb
       -0.7104397 0.16236565 0.0037295525 -0.0068898206
0002a0 7e ce 01 be 9a 1b 1c 3d 55 fe 20 3e 84 9a 0e be
       -0.12676427 0.03811226 0.1572202 -0.1392613
0002b0 93 19 5e bd 12 cf 1b 3e 98 20 db bd 7c 44 fd 3b
       -0.05422361 0.1521571 -0.10699576 0.0077291112
0002c0 1c 91 3f bf 2d fe cf 3d 4b 60 45 bf f6 d8 28 bf
       -0.74830794 0.10155902 -0.77100056 -0.65956056
0002d0 0b 9a 7e 3e 39 96 3b 3e af 90 23 be ed b2 6e be
       0.2486345 0.18319024 -0.15973161 -0.23310442
0002e0 33 04 c3 3d 07 ce 31 3e a3 6c d1 bd 29 66 c8 3d
       0.09522285 0.1736375 -0.10225799 0.097851105
0002f0 17 45 62 be f6 a3 be 3d c8 b5 c5 3d a2 2a 28 bf
       -0.22096668 0.09308617 0.09653813 -0.6569005
000300 36 a0 50 3d 9c 04 54 be 38 7c d4 3c 6f 2f 2e bf
       0.05093404 -0.20704883 0.025938138 -0.6804113
000310 27 7c 0b 3d 59 71 0a bf 89 10 5b bd 13 ae d8 bd
       0.034053948 -0.54079205 -0.053482566 -0.10580077
000320 c7 eb 67 3e f9 1b b8 3d b5 b3 ce bd e4 7c e5 bc
       0.22648536 0.0898971 -0.1009287 -0.028013654
000330 24 2e 27 bd 21 e2 76 bd e5 a2 12 3e 24 12 12 bd
       -0.040815488 -0.060274247 0.14319952 -0.03566183
000340 ed f5 92 3b 30 af e9 bd bc 9c f1 3d a9 31 19 3e
       0.004484883 -0.114103675 0.11797473 0.1496035
000350 4f d6 d9 3d a6 cd c3 bb dc 68 f8 3d c0 1b 3a bc
       0.10636579 -0.005975443 0.12129375 -0.011359155
000360 4c 38 39 3e 2a c4 41 3e 62 5f 3d bd 29 87 40 3e
       0.18087882 0.18922487 -0.046233542 0.1880156
000370 00 b5 d0 bd 9c 88 b7 3d 7d 01 64 bd e4 7b cb bd
       -0.10190773 0.08961603 -0.05566548 -0.0993574
000380 6d ef a2 bd f2 fe 33 3d 6a 28 ba 3d 39 e7 3e bf
       -0.07955823 0.043944307 0.090897396 -0.7457157
000390 6a 2e d6 3d f3 01 19 3e 09 2f f4 bd 7b ea ac bd
       0.104580715 0.1494215 -0.11923034 -0.08443161
0003a0 fb cc be 3d 63 2d e7 bc e1 da 99 3c b1 e7 11 be
       0.09316441 -0.028219884 0.018781127 -0.1424854
0003b0 88 54 ab bd 4d 2a ed 3d 3c a5 0b 3e ed 8b 10 3e
       -0.083657324 0.11580334 0.1363725 0.14115877
0003c0 7f 90 a9 be 18 bf a0 be 42 60 b9 be b5 2e 5b bc
       -0.33118054 -0.31395793 -0.3620625 -0.013377835
0003d0 39 2e bb 3c e1 36 05 be 3a 83 74 3d f0 c1 6c 3d
       0.02284919 -0.13009216 0.05969546 0.05780214
0003e0 3e 73 4e 3e 5b 13 2c 3e d1 0a 37 3e 8e 9d 03 bc
       0.20161149 0.16804259 0.1787522 -0.008033169
0003f0 1c e8 4e 3e e4 93 07 be 2b d1 d7 3d 3b 5b b8 3d
       0.2020573 -0.1324001 0.105379425 0.09001776

network.3.bias f4 [128]
000000 73 03 db 3f b7 50 ca 3f 09 d0 c5 3f b1 ca d4 3f
       1.7110428 1.5805882 1.5454112 1.6624357
000010 30 21 36 3e 04 70 a0 3f c0 4c 0e 3e c5 67 d0 3e
       0.17786098 1.2534184 0.13896465 0.4070417
000020 ab d7 ca 3f 94 ff 66 3f b0 20 c0 3f c7 10 ca 3f
       1.5847067 0.9023373 1.5009975 1.578637
000030 fe 81 ce 3f 3e bb c5 3f 01 58 c8 3f 41 f3 aa 3e
       1.613342 1.5447767 1.5651857 0.33388713
000040 69 b0 d3 3f f6 28 4e 3e 65 ab 46 3e e0 f4 d7 3f
       1.6538211 0.20132813 0.1940132 1.6871605
000050 63 40 0a 3f 35 80 d1 3f 1b fd d8 3f 1d b4 b0 3f
       0.54004496 1.6367251 1.6952242 1.3804966
000060 50 0f b3 3e d7 96 8f bd 9e de cf 3f 65 5a cd 3f
       0.3497262 -0.07011192 1.6239812 1.6043211
000070 eb a1 85 3e a9 8f ca 3f f5 00 d2 3f 35 88 b3 3e
       0.26100096 1.5825092 1.6406542 0.35064855
000080 ac 67 50 3e 0c 29 c2 3f b9 19 c6 3f b0 24 84 3e
       0.20352048 1.5168777 1.54766 0.2580924
000090 4b 65 4e 3c 76 d7 c9 3f 0a f1 aa 3f 47 9e c5 3f
       0.012597392 1.5768878 1.3354809 1.5438927
0000a0 8a a2 4c 3e 6b cb d4 3e ae 9a c2 3f 9a 5d fc 3e
       0.19983879 0.41561446 1.5203454 0.49290162
0000b0 a7 c4 7e 3d 02 3b d2 3d 41 75 8f 3e 84 5c a9 3f
       0.06219926 0.10265161 0.28019145 1.3231359
0000c0 3b b5 c9 3f a9 6f bc 3f f5 63 d2 3f bb 4e c0 3e
       1.5758432 1.4721576 1.6436754 0.37560067
0000d0 08 32 b4 3e 62 53 a3 3f bb c2 d2 3f e7 24 cc 3f
       0.3519442 1.2759821 1.6465677 1.5948762
0000e0 5d 07 ae 3e 41 12 89 3e 79 91 de 3f 98 a1 cb 3f
       0.33989993 0.2677174 1.7388145 1.590869
0000f0 d9 de e1 3e f9 7b cb 3f 46 29 c6 3f 88 7f c0 3f
       0.44115332 1.5897208 1.5481346 1.503892
000100 9b 7f 9a 3e f3 aa a4 3f f9 31 c1 3f 93 42 a0 3e
       0.3017548 1.286467 1.5093375 0.31300792
000110 74 56 ca 3f 63 41 b0 3f 0e f8 c8 3f d4 1e d0 3f
       1.5807633 1.3769954 1.57007 1.6259408
000120 80 12 85 3d 63 31 ca 3f 31 49 c6 3f 7a e9 3f 3e
       0.06497669 1.5796322 1.5491086 0.18741408
000130 14 ef de 3f 98 82 cd 3f 0b 02 c7 3f 9c af 98 3e
       1.7416711 1.6055479 1.5547498 0.2982148
000140 fd bc b0 3f 54 ce c7 3f ad d5 ff 3c c7 30 b4 3d
       1.3807675 1.5609841 0.031229818 0.08798366
000150 b4 b7 fc 3e 12 3d b1 3f 84 db bf 3e 1a e1 cc 3f
       0.49358904 1.3846762 0.37472165 1.6006196
000160 da a6 cc 3e d7 6e c7 3f 5e 25 d0 3f d2 f5 c6 3f
       0.39971048 1.5580701 1.6261404 1.5543768
000170 11 9f 1b 3f 51 42 cb 3f 24 fd 93 3f eb 52 20 bf
       0.6078959 1.5879613 1.1561627 -0.6262652
000180 21 66 ae 3e 7a 5d c2 3f e5 9a ac 3e d6 b0 10 be
       0.34062293 1.5184777 0.33711925 -0.14129958
000190 b3 e6 ae 3e 3f 22 74 bd c1 b0 c7 3f f8 1b c7 3f
       0.34160385 -0.059602972 1.5600816 1.555541
0001a0 ad 65 cf 3f 97 ce d0 3f 21 1a c2 3e a8 d8 cb 3f
       1.6202904 1.6313046 0.3791056 1.5925493
0001b0 ce dd c4 3f d5 36 c3 3f a2 df c7 3f cc 39 d7 3e
       1.538019 1.5251108 1.5615122 0.42036283
0001c0 48 4b cf 3f 87 df 81 3e b5 98 cb 3f b3 0b cd 3f
       1.6194849 0.2536585 1.5905977 1.6019195
0001d0 23 00 90 3e e2 cb ba 3f 00 bb 65 3e 4a 26 c9 3f
       0.28125104 1.459347 0.22434616 1.571481
0001e0 0f ba c1 3e f0 cd b8 3e 2f 2b cb 3f a6 06 00 3f
       0.37837264 0.36094618 1.5872554 0.50010145
0001f0 84 9f cd 3f 03 c5 cf 3e 05 62 c4 3f 77 1b 89 3e
       1.6064305 0.40579996 1.5342413 0.26778767
