教学演示项目/项目1_强化学习智能体训练/results/results/model_episode_600.pth (torch, 502641 bytes, 24 tensors)

network.0.weight f4 [128, 16]
0	0x3d4c5eb3	0.049895
1	0x3b71d684	0.0036901543
2	0xbc91f20f	-0.017815618
3	0x3e659ca2	0.22423032
4	0x3baf6314	0.005352387
5	0xbe2ea7e1	-0.17056228
6	0x3e96443e	0.2934894
7	0x3dba6087	0.091004424
8	0x3eccded4	0.40013754
9	0x3dad55ca	0.084636286
10	0x3d99f296	0.07516973
11	0xbd9a0bd1	-0.07521785
12	0xbe379f54	-0.17931873
13	0x3dfc4a21	0.123188265
14	0xbe0996e9	-0.13436474
15	0xbdf5a5e1	-0.119945295
16	0x3e747464	0.23872524
17	0x3cb44fb0	0.022010654
18	0xbe051b52	-0.12998703
19	0x3e0fcd33	0.14043121
20	0xbbe50414	-0.0069890115
21	0x3ecba3af	0.39773318
22	0xbcdfed6a	-0.027334888
23	0x3dac7d57	0.08422344
24	0x3f2b6ce6	0.6696304
25	0x3cda6161	0.026657762
26	0xbe315cb8	-0.17320526
27	0xbe1b9977	-0.15195261
28	0x3d2bd9d8	0.0419558
29	0xbdbc2849	-0.09187371
30	0xbe845142	-0.25843245
31	0xbd9461d6	-0.07245223
32	0x3d440243	0.04785372
33	0x3e9a4d75	0.3013722
34	0x3c806764	0.0156743
35	0x3e6b4204	0.22974402
36	0xbe1c7704	-0.15279776
37	0x3e8eec50	0.27914667
38	0x3d1a019e	0.0375992
39	0xbd4ef629	-0.050527725
40	0xbbe7dacc	-0.007075643
41	0xbd42e2d3	-0.047579598
42	0x3e438673	0.19094257
43	0xbe3219f9	-0.1739272
44	0x3e60c652	0.21950653
45	0x3e322218	0.17395818
46	0xbdeffe81	-0.11718465
47	0xbd5be0f2	-0.05368132
48	0xbe964f01	-0.2935715
49	0xbe14d469	-0.14534153
50	0x3c766733	0.015039253
51	0xbd95a2af	-0.0730642
52	0xbe02ff4c	-0.127927
53	0x3d484519	0.04889402
54	0xbe53da08	-0.20688641
55	0xbddf5fb1	-0.109069236
56	0x3e3ecc2d	0.18632574
57	0x3d691e56	0.056913696
58	0xbddb0306	-0.10693936
59	0xbe1e6981	-0.15469934
60	0x3ef48ad2	0.47762161
61	0xbd09cf26	-0.033644818
62	0xbddcd437	-0.10782664
63	0xbbaa5702	-0.0051983604
64	0xbcbe1160	-0.023201644
65	0xbe95350a	-0.29142028
66	0x3e363340	0.17792988
67	0x3e1bd0a5	0.1521631
68	0xbdee9d8c	-0.116511434
69	0xbd046e1e	-0.03233158
70	0x3d450b84	0.048106685
71	0xbd83ded7	-0.06438988
72	0xbf054cd9	-0.52070385
73	0x3e3155d9	0.17317905
74	0xbdf2ac2d	-0.11849246
75	0x3d2cfead	0.042235065
76	0x3ea09986	0.3136713
77	0xbd907b0e	-0.07054721
78	0xbecefa1a	-0.40425187
79	0x3ea67c0a	0.3251651
80	0x3decccde	0.11562513
81	0x3cf1f5ac	0.02953609
82	0x3e1e2ac5	0.15446003
83	0x3d72aadf	0.059244987
84	0x3eac517f	0.33655927
85	0x3efc8172	0.4931751
86	0xbcd3cbe1	-0.025854053
87	0x3cf13d7e	0.029448267
88	0x3e674f96	0.22588953
89	0xbe0879fc	-0.13327783
90	0x3ea67585	0.32511535
91	0x3e4ae471	0.19813706
92	0x3e8a22d7	0.26979706
93	0x3e84b1db	0.25916943
94	0xbe1c9092	-0.15289524
95	0xbe08ec3e	-0.13371369
96	0x3e3f0dec	0.18657655
97	0x3e25b5c8	0.16182625
98	0x3da11f8e	0.07867347
99	0xbdada64c	-0.08478984
100	0x3df4970f	0.11942875
101	0x3ea3b5a0	0.31974506
102	0x3e68d61d	0.22737928
103	0x3da8b853	0.08238282
104	0xbd8b2b96	-0.06795423
105	0x3e5a0004	0.21289068
106	0xbe9798f8	-0.29608893
107	0xbe15544a	-0.14582935
108	0x3ef690ad	0.48157254
109	0xbe0c3da7	-0.13695394
110	0x3e439592	0.19100025
111	0x3e6e8508	0.23292935
112	0xbf0383d9	-0.5137306
113	0xbe944aef	-0.2896342
114	0xbdc10e4f	-0.09426557
115	0xbe67d1d6	-0.2263864
116	0x3d6c6fff	0.057723995
117	0xbeb7c8f7	-0.35895512
118	0xbe91b179	-0.28455713
119	0x3d1580bf	0.036499735
120	0xbe521de3	-0.20519213
121	0xbdf167f7	-0.11787408
122	0xbe3d25ab	-0.184714
123	0x3d844f9c	0.06460497
124	0xbdf71ba5	-0.1206582
125	0xbe2a8beb	-0.16654937
126	0xbed4b6df	-0.4154577
127	0xbdf2c30f	-0.11853611
128	0xbe0de895	-0.13858254
129	0xbcfcd8b0	-0.030865043
130	0x3cf5b3ab	0.029992899
131	0xbdd3bc0b	-0.10338601
132	0xbc5465a5	-0.012963687
133	0xbe479992	-0.19492176
134	0x3dddbc0c	0.10826883
135	0xbd76c16b	-0.06024305
136	0x3e388dfd	0.18022914
137	0x3e832543	0.25614366
138	0xbe8ecfba	-0.27892858
139	0x3daf7493	0.08567157
140	0x3c123601	0.008924008
141	0xbd881b62	-0.06645848
142	0xbf25ac2b	-0.6471583
143	0xbe4ef1cc	-0.20209426
144	0xbe04573d	-0.12923904
145	0xbe51fc93	-0.20506506
146	0x3e761ec8	0.2403518
147	0x3e05d263	0.13068537
148	0x3eca469e	0.39507002
149	0x3e1332e1	0.14374878
150	0x3ca3c6f1	0.019992324
151	0xbc9df888	-0.019283548
152	0xbd1b4584	-0.037908092
153	0xbe31f3ef	-0.1737821
154	0x3e18fd31	0.14940335
155	0x3e35b451	0.17744567
156	0x3db13f52	0.086546555
157	0xbd656ab8	-0.056009978
158	0xbda673e2	-0.08127572
159	0x3dc72de9	0.097255535
160	0x3eac550f	0.33658645
161	0x3e83d3e6	0.25747603
162	0x3dc3060a	0.09522636
163	0xba7ec97c	-0.00097193546
164	0xbe2955b5	-0.16536601
165	0x3ec4a10f	0.38404128
166	0x3d83f048	0.064423144
167	0xbd395712	-0.045249052
168	0x3e2b0b9b	0.16703646
169	0xbd5be86a	-0.053688444
170	0xbceb8b32	-0.028752897
171	0x3e2da384	0.16956908
172	0x3e51f0c4	0.20502001
173	0x3dc93adb	0.09825679
174	0xbe05f9e1	-0.13083602
175	0x3ddf910c	0.10916337
176	0x3d9a5bf1	0.07537068
177	0x3e775234	0.24152452
178	0x3d2a24f8	0.041539162
179	0xbd50a91c	-0.050942525
180	0xbda2b48c	-0.07944593
181	0xbe1c1bad	-0.15244932
182	0x3e9091cc	0.28236234
183	0xbe1f9134	-0.15582734
184	0x3eb3dc4c	0.3512901
185	0xbd98ff3a	-0.074705556
186	0xbe604a66	-0.21903381
187	0x3e19bc6a	0.1501328
188	0x3d189db1	0.03725976
189	0x3d0a902d	0.033828903
190	0x3df7fdd8	0.12108964
191	0x3d62de98	0.055388063
192	0xbf0550d5	-0.52076465
193	0xbe35723a	-0.17719355
194	0xbe29d712	-0.16585949
195	0xbe31f802	-0.17379764
196	0x3e7c12f9	0.24616612
197	0x3b45f647	0.0030206607
198	0xbea94091	-0.33057073
199	0xbc1041d7	-0.00880476
200	0xbd2d7cca	-0.042355336
201	0x3a9f8c65	0.0012172578
202	0xbdbee887	-0.09321695
203	0xbd0081cc	-0.031373784
204	0xbeb710e9	-0.3575509
205	0xbd0b06f0	-0.033942163
206	0xbec2a97a	-0.38019925
207	0xbe874e5e	-0.26426977
208	0x3e78bb3a	0.24290171
209	0x3da98160	0.082766294
210	0x3da82b20	0.082113504
211	0x3e90fa8c	0.28316152
212	0xbd9a0d44	-0.075220615
213	0xbe2ce7dd	-0.16885324
214	0x3da360f1	0.079774745
215	0xbe3a4505	-0.18190391
216	0x3ca01c3c	0.019544713
217	0xbdf534b7	-0.11972945
218	0x3d4f55c0	0.050618887
219	0x3d311b6b	0.04323904
220	0x3dde297e	0.10847758
221	0x3dcaa690	0.098950505
222	0x3ee22d93	0.44175395
223	0xbd30cd78	-0.0431647
224	0xbf19410c	-0.5986488
225	0xbe2d1e1a	-0.16906014
226	0xbe5d587b	-0.21615784
227	0xbe000037	-0.12500082
228	0x3e6aaaae	0.22916672
229	0xbc97ac6f	-0.01851484
230	0xbdde43e6	-0.10852794
231	0x3d80836c	0.06275067
232	0xbcb1d376	-0.021707278
233	0xbdb26ba1	-0.08711935
234	0xbde8332a	-0.11337884
235	0x3e0fc359	0.14039363
236	0xbe9431fe	-0.2894439
237	0xbd9753ec	-0.07389054
238	0xbdda3e32	-0.10656394
239	0x3e1f724e	0.15570948
240	0x3d862ddc	0.06551716
241	0xbe396bae	-0.18107483
242	0xbc8138d2	-0.015774164
243	0x3c98d819	0.01865773
244	0xbdafdda0	-0.085871935
245	0xbe1d9a43	-0.15390877
246	0xbe06d987	-0.13168918
247	0x3dc1081c	0.09425375
248	0xbd900b32	-0.07033385
249	0xbc97667b	-0.018481484
250	0x3d7d77c7	0.061881807
251	0x3e09fbb1	0.13474919
252	0x3dd7f07b	0.10543915
253	0x3dbb2895	0.091386
254	0x3e3d4e64	0.18486935
255	0x3d19a848	0.037514

network.0.bias f4 [128]
0	0x3dd4246b	0.10358509
1	0x3d6e072a	0.0581123
2	0x3dd4181f	0.10356163
3	0xbe1dba22	-0.15403035
4	0x3b09a0d1	0.0021000395
5	0x3e308ee1	0.17242004
6	0x3dc0b60d	0.094097234
7	0xbe3d672d	-0.1849639
8	0x3bcc3a79	0.0062325564
9	0x3e32d7c9	0.17465128
10	0x3de375bf	0.11106443
11	0x3dc8d02a	0.09805329
12	0xbe1d3ed5	-0.15356
13	0x3dc2fefe	0.09521292
14	0xbe010d54	-0.1260274
15	0x00000000	0.0
16	0x3d745832	0.059654422
17	0xbe0507fc	-0.12991327
18	0xbcfd805b	-0.030944994
19	0x3ddbdcd6	0.107354805
20	0x3e17bb8e	0.1481764
21	0x3d616df3	0.055036496
22	0x3da2767f	0.079327576
23	0x3e1e7512	0.15474346
24	0x3dfad78e	0.12248145
25	0x3dc05976	0.09392063
26	0xbdaed2f5	-0.085363306
27	0xbde512ea	-0.11185248
28	0x3e06468c	0.13112849
29	0x3db087f0	0.08619678
30	0xbd10ccf1	-0.035351697
31	0xbe2f83e1	-0.17140152
32	0x00000000	0.0
33	0x3dfff2cf	0.12497484
34	0xbe321a2b	-0.17392795
35	0x3d026612	0.031835623
36	0xbe3634e7	-0.17793618
37	0x3d8d3cf4	0.068963915
38	0x3db46ce5	0.088098325
39	0x3dbd577c	0.09245202
40	0x3d17032c	0.03686826
41	0xbd5a5b88	-0.053309947
42	0xbbe181ce	-0.006881929
43	0x00000000	0.0
44	0x3e02fd73	0.12791996
45	0x3e1ebf42	0.15502647
46	0x3de84c57	0.11342686
47	0x3d07c1bf	0.033143755
48	0xbe489af5	-0.19590361
49	0x00000000	0.0
50	0xbe39233d	-0.18079849
51	0xbe082eef	-0.13299154
52	0x3e3c3308	0.18378842
53	0x3dd61ce1	0.10454727
54	0x3e02ffb0	0.1279285
55	0xbe36304c	-0.17791861
56	0x3e15b9bf	0.14621638
57	0x3db835d8	0.08994645
58	0x3e053f37	0.13012396
59	0x3dd365d2	0.10322155
60	0xbe047bc4	-0.12937838
61	0x3cae8d43	0.021307593
62	0x3ca3e011	0.020004304
63	0xbe252e14	-0.16130859
64	0x3dd29999	0.10283203
65	0x3d4d6341	0.050143484
66	0x3d4c5224	0.049883023
67	0xbe6364e4	-0.22206455
68	0x3df5e06b	0.12005695
69	0xbe40f309	-0.1884271
70	0x00000000	0.0
71	0x3d7c37aa	0.061576523
72	0x3de141af	0.10998856
73	0xbd5f0bed	-0.054454733
74	0xbde214ac	-0.11039099
75	0xbd8d5b7c	-0.06902215
76	0x3daef6a9	0.085431404
77	0x3d7b77e4	0.061393633
78	0xbc6f633b	-0.014611061
79	0x00000000	0.0
80	0x3dad6b1e	0.084676966
81	0x3e519838	0.20468223
82	0xbd23c491	-0.039982382
83	0x3de72df5	0.112880625
84	0x3df06c51	0.1173941
85	0xbd8ccc37	-0.068748884
86	0x3e036e0b	0.12834947
87	0xbbeb3f2e	-0.0071791625
88	0x3de38efb	0.11111256
89	0x3db4f10a	0.08835037
90	0x3dfe377e	0.12412928
91	0x3db5b414	0.08872238
92	0x00000000	0.0
93	0x3ca2fb70	0.019895285
94	0x3dcfb1c9	0.10141332
95	0xbcd43c5b	-0.025907686
96	0x3cb56dd9	0.022147106
97	0x3e0501be	0.12988946
98	0x3d9c2e90	0.076260686
99	0xbe02013f	-0.12695788
100	0xbcd10c79	-0.025518643
101	0x3e322cec	0.17399949
102	0x3ce64a8a	0.028111715
103	0xbd601ef2	-0.05471701
104	0x3ca7467b	0.02041935
105	0x3dae5263	0.08511808
106	0x3d9a67d1	0.07539333
107	0xbe6005d0	-0.21877217
108	0x3dbb2260	0.09137416
109	0x3dd42847	0.10359245
110	0x3d868f69	0.06570322
111	0x3dae3101	0.085054405
112	0xbdccc925	-0.09999303
113	0xbe51e795	-0.20498498
114	0xbe4c4df7	-0.19951616
115	0x3dad599f	0.084643595
116	0xbca90833	-0.020633793
117	0x3dfefa9a	0.12450142
118	0x3e073803	0.1320496
119	0x3e1c876e	0.15286037
120	0x3e098456	0.13429388
121	0x3d6bacdc	0.0575379
122	0x3dd683da	0.104743674
123	0x3d4938a2	0.049126275
124	0x3e0ab8b8	0.13547027
125	0xbe22b7fe	-0.158905
126	0xbe082d0d	-0.13298436
127	0x3dcefbd0	0.10106623

network.3.weight f4 [128, 128]
0	0x3e339c75	0.17540152
1	0xbc86afe3	-0.016441291
2	0x3e4306d7	0.19045578
3	0x3da40224	0.08008221
4	0x3d4d9f45	0.05020072
5	0x3ddffc16	0.109367535
6	0x3e4d2e32	0.20037153
7	0xbdbd9881	-0.092576034
8	0x38412d30	4.605687e-05
9	0x3d5e4eb3	0.054274272
10	0xbdb4f618	-0.08836001
11	0x3de64ca0	0.11245084
12	0xbe88ee90	-0.2674451
13	0x3daed8cb	0.08537444
14	0xbd6f0b40	-0.05836034
15	0xbdb3864b	-0.08765849
16	0x3b601c65	0.0034196612
17	0xbe42b969	-0.19016041
18	0xbe0dd4c6	-0.13850698
19	0x3cd9ac5b	0.026571443
20	0x3de2ce5d	0.11074517
21	0x3dbd421c	0.09241125
22	0x3cb31085	0.021858463
23	0x3e37175e	0.17880008
24	0x3df53f9e	0.11975025
25	0x3dd477a7	0.103743844
26	0x3cb8d17c	0.022560827
27	0xbd49e13b	-0.049287062
28	0xbd05570c	-0.032553717
29	0x3e439170	0.19098449
30	0xbe0ad308	-0.13557065
31	0xbd635e35	-0.055509765
32	0x3c3e8e96	0.011630675
33	0x3e332a91	0.17496707
34	0xbe65f417	-0.22456394
35	0x3e11c20a	0.14234176
36	0xbecc10ad	-0.39856473
37	0x3e3bb2ea	0.18329969
38	0x3dd5250b	0.10407456
39	0xbe12dbc8	-0.14341652
40	0xbc6bf48b	-0.014401565
41	0x3d45c272	0.04828114
42	0x3e16d502	0.14729694
43	0x3d681b35	0.05666657
44	0x3eaa39c1	0.33247188
45	0x3cfd1cab	0.030897459
46	0x3e7506c7	0.23928367
47	0x3e836e3d	0.25670043
48	0xbf335329	-0.7004877
49	0x3d0f6a6d	0.035013605
50	0xbea9e71f	-0.33184144
51	0xbe1daec8	-0.15398705
52	0xbcec2a5e	-0.028828796
53	0x3d010bf2	0.031505533
54	0xbdea3ba7	-0.11437159
55	0xbc754f7e	-0.014972566
56	0x3e139478	0.14412105
57	0xbdd91292	-0.10599245
58	0xbe107ed1	-0.14110877
59	0x3e5cc0a1	0.21557857
60	0xbdd134d0	-0.10215151
61	0x3d7ceabe	0.061747305
62	0xbb02fed1	-0.0019988308
63	0xbe83b0f4	-0.25720942
64	0xbd45e638	-0.048315257
65	0x3d1a2ecb	0.03764228
66	0xbd5f2fcb	-0.05448894
67	0xbf150a3d	-0.5821875
68	0x3e066dad	0.13127775
69	0xbe9f2ec2	-0.3109036
70	0xbd187293	-0.03721864
71	0x3c436aee	0.0119273495
72	0x3de9a6b3	0.114087485
73	0x3d90346c	0.07041249
74	0xbdeb9584	-0.11503127
75	0xbdacbc76	-0.084343836
76	0xbdbcca51	-0.09218276
77	0x3d472441	0.04861856
78	0x3caea08e	0.021316793
79	0xbdad9f24	-0.08477619
80	0x3d66cb1d	0.056346048
81	0x3df85d7e	0.12127207
82	0x3e1a42be	0.15064523
83	0x3e715aa0	0.23569727
84	0xbd0d64d0	-0.03451997
85	0xbdf778ee	-0.120836124
86	0x3d9899fc	0.07451245
87	0xbda5b0f9	-0.080903955
88	0x3d20053a	0.039067484
89	0x3e538441	0.2065592
90	0x3d90763e	0.07053803
91	0x3e2636ed	0.1623189
92	0x3abc5c0b	0.0014370693
93	0x3e59fea9	0.21288551
94	0xbd2c00c7	-0.04199293
95	0x3e424423	0.18971305
96	0x3e12d43f	0.14338778
97	0x3ead5b74	0.33858836
98	0x3e74b84d	0.2389843
99	0xbe9dd829	-0.3082898
100	0x3e87fb7f	0.26559064
101	0x3e6f8954	0.2339223
102	0xbd872e29	-0.06600601
103	0x3d5265d0	0.051366627
104	0x3dd64b50	0.104635835
105	0x3e6f3d7a	0.23363295
106	0x3e133a69	0.1437775
107	0xbe7859c5	-0.24252994
108	0xbcf941ce	-0.030426886
109	0x3c7124b0	0.01471822
110	0x3e1e653d	0.15468307
111	0x3dbfcc05	0.093650855
112	0xbc209ba7	-0.009802735
113	0xbea2b575	-0.31779066
114	0xbdbd5bca	-0.09246023
115	0x3e60bcd2	0.21947029
116	0x3dff5fd0	0.12469447
117	0x3e81c660	0.2534666
118	0x3e6663d1	0.22499014
119	0xbc24df00	-0.010062933
120	0x3e57f8e4	0.21091038
121	0x3d39779f	0.045280095
122	0x3d548cdc	0.051892146
123	0x3c899d54	0.016798653
124	0x3d6547a9	0.055976544
125	0xbce83fcd	-0.028350735
126	0x3c70fc57	0.0147086
127	0x3d9af409	0.07566077
128	0x3d88ffee	0.0668944
129	0x3c651af7	0.01398348
130	0x3e40784c	0.1879589
131	0x3e31ca7a	0.17362395
132	0x3e3af577	0.182577
133	0xbc734dea	-0.014850119
134	0x3e08ae28	0.13347685
135	0xbcbf23e1	-0.023332538
136	0xbd2536b1	-0.04033536
137	0x3e8874f3	0.26651725
138	0x3da6a983	0.081378005
139	0xbe37aa52	-0.17936066
140	0xbe9cbbc3	-0.30612
141	0x3da3ebab	0.080039345
142	0xbd592d81	-0.05302191
143	0xbb600150	-0.003418047
144	0xbb80512a	-0.0039159255
145	0xbeccf276	-0.40028733
146	0x3d4c9cbc	0.04995416
147	0x3d07af97	0.03312644
148	0x3d3134a1	0.04326308
149	0xbb42bb74	-0.0029713782
150	0x3cf71fbd	0.030166501
151	0x3e1ae66c	0.15126961
152	0xbd256b7a	-0.0403857
153	0xbc260f14	-0.010135431
154	0x3e46af04	0.194027
155	0xbdbd66e1	-0.09248138
156	0x3d9dfd8d	0.077143766
157	0x3e69d3d5	0.22834714
158	0x3e13c028	0.1442877
159	0x3d8e5456	0.069496796
160	0x3dffc040	0.12487841
161	0x3ddb23ad	0.10700164
162	0xbc3fb65b	-0.011701192
163	0xbb2c1ec2	-0.002626345
164	0xbe9e99d0	-0.30976725
165	0x3e39b2e6	0.1813465
166	0x3c446ae4	0.011988375
167	0x3d0cd8e0	0.034386516
168	0xbd92fc8a	-0.07177074
169	0x3d1060e9	0.03524867
170	0x3e20fe55	0.1572202
171	0xbe0e9a84	-0.1392613
172	0x3df8bfc4	0.121459514
173	0x3e0fb512	0.14033917
174	0xbdf13723	-0.117780946
175	0x3d5da25f	0.054109927
176	0xbe83f036	-0.25769204
177	0x3dcffe2d	0.10155902
178	0xbebec498	-0.37259364
179	0xbeca2a9b	-0.3948563
180	0x3ea94cb7	0.3306634
181	0x3e8d45da	0.27592355
182	0xbe29d342	-0.16584495
183	0xbe37bfa2	-0.17944196
184	0x3d5e5c51	0.05428726
185	0x3e2ee2c1	0.17078687
186	0xbdac208f	-0.084046476
187	0x3e3017a5	0.1719652
188	0xbe2deeb3	-0.16985588
189	0x3dfb6cfc	0.122766465
190	0x3ea45d91	0.32102636
191	0xbe826d2c	-0.25473917
192	0x3d5ce1d8	0.05392632
193	0xbe01d97f	-0.12680624
194	0x3d5a1a90	0.05324799
195	0xbea896e6	-0.32927626
196	0x3c72f4b8	0.014828853
197	0xbe0f24ca	-0.13978878
198	0xbd5b1089	-0.053482566
199	0xbdd291ba	-0.102817014
200	0x3e8e1213	0.27748165
201	0x3db81bf9	0.0898971
202	0xbdd4b6ca	-0.10386427
203	0xbdf96af7	-0.12178605
204	0xbd9f03c7	-0.07764392
205	0x3c9b8c6c	0.018987857
206	0x3df12471	0.11774529
207	0xbd121224	-0.03566183
208	0x3b97cfad	0.004632911
209	0xbde1376f	-0.10996901
210	0x3e0240cf	0.12720035
211	0x3e0b51bc	0.13605398
212	0x3e0fb2db	0.14033072
213	0x3ca35f04	0.019942768
214	0x3e436902	0.19083026
215	0xbc3a1bc0	-0.011359155
216	0x3e82108c	0.2540325
217	0x3e84d1ba	0.2594126
218	0xbd630408	-0.055423766
219	0x3e40f489	0.18843283
220	0xbdd0b500	-0.10190773
221	0x3d2d00b4	0.042237
222	0x3d534074	0.05157514
223	0xbcb261bb	-0.021775117
224	0xbdb05818	-0.086105525
225	0x3e039f71	0.12853791
226	0x3dd165b9	0.1022448
227	0xbe87e977	-0.26545307
228	0x3e84968f	0.25896117
229	0x3e66cb0f	0.22538398
230	0xbe3b1ae7	-0.18271981
231	0xbd877455	-0.066139854
232	0x3d9edee6	0.07757358
233	0xbbeaed1c	-0.007169379
234	0x3d5aaaf2	0.053385682
235	0xbd9b6674	-0.07587901
236	0xbd96b06a	-0.07357867
237	0x3dbbb194	0.0916473
238	0x3e07324a	0.13202778
239	0x3e23c361	0.159925
240	0xbe5fa1b3	-0.21839027
241	0xbe82d28b	-0.25551257
242	0xbebc5cc8	-0.36789536
243	0x3dd79583	0.10526564
244	0x3cbb2e39	0.02284919
245	0xbdc79169	-0.09744532
246	0x3de1bd1a	0.110223964
247	0x3dd86d7d	0.10567758
248	0x3e5239d1	0.20529868
249	0x3e4c3fd6	0.19946226
250	0x3e78252e	0.24232933
251	0x3d63037e	0.055423252
252	0x3e8ac668	0.27104497
253	0xbe222380	-0.15833855
254	0x3dd746b2	0.10511531
255	0x3dcee98e	0.10103141

network.3.bias f4 [128]
0	0x3f722640	0.94589615
1	0x3f4d81f0	0.80276394
2	0x3f53e52a	0.8277155
3	0x3f734187	0.9502186
4	0x3d89e63a	0.06733365
5	0x3edd2abd	0.4319667
6	0xbd9599c8	-0.07304722
7	0xbdfc22b9	-0.1231131
8	0x3f54d82d	0.8314236
9	0x3e00907f	0.12555121
10	0x3f3e4d97	0.7433714
11	0x3f4bfbfd	0.7968138
12	0x3f563704	0.836777
13	0x3f4f7faf	0.81054205
14	0x3f4a3171	0.7898169
15	0xbd9fd0ca	-0.07803495
16	0x3f689dae	0.908656
17	0x3d3f33c2	0.04668022
18	0xbd39617c	-0.045258984
19	0x3f903469	1.1265994
20	0xbcbaef55	-0.0228192
21	0x3f60481f	0.8761005
22	0x3f77adb8	0.9674945
23	0x3f1d7bcf	0.6151704
24	0xbac8fc92	-0.0015334061
25	0xbd1ec7bc	-0.0387647
26	0x3f56ae58	0.8385978
27	0x3f560aca	0.8361021
28	0xbd037f70	-0.032103956
29	0x3f5497d8	0.83044195
30	0x3f671df1	0.9028006
31	0xbdd62d2c	-0.104578346
32	0xbdd33dc1	-0.10314513
33	0x3f416c13	0.75555533
34	0x3f4c8942	0.7989694
35	0xbda41a90	-0.08012879
36	0xbd20c270	-0.03924793
37	0x3f547df1	0.8300467
38	0x3ef24b4f	0.4732308
39	0x3f426f84	0.7595141
40	0x3d3a8b68	0.045543104
41	0x3d97069d	0.07374308
42	0x3f37cf79	0.71800953
43	0xbdd00c8c	-0.10158643
44	0xbd693787	-0.05693772
45	0xbdd44c83	-0.10366156
46	0xbdbd147c	-0.09232423
47	0x3ef757ad	0.4830908
48	0x3f496719	0.7867294
49	0x3f1b043a	0.60553324
50	0x3f5e1d46	0.8676342
51	0xbdd72992	-0.10505976
52	0xbd7ffcff	-0.062497135
53	0x3ea26546	0.3171789
54	0x3f609890	0.8773279
55	0x3f57ffb3	0.8437454
56	0xbdaa553c	-0.083170384
57	0xbda370fe	-0.07980536
58	0x3f846432	1.0343077
59	0x3f660687	0.8985371
60	0xbd811c3c	-0.063042134
61	0x3f49fcfd	0.78901654
62	0x3f500b82	0.8126756
63	0x3f3d1a73	0.73868483
64	0xbda7a446	-0.081856295
65	0x3eedcfba	0.46447545
66	0x3f468087	0.7753987
67	0xbdb5b1a9	-0.088717766
68	0x3f4bfa26	0.7967857
69	0x3f1692c0	0.5881767
70	0x3f54e192	0.83156693
71	0x3f530977	0.8243632
72	0xbcb73457	-0.022363825
73	0x3f5701b8	0.83987
74	0x3f53edb1	0.82784563
75	0xbdc2ff69	-0.09521372
76	0x3f7b223c	0.9809911
77	0x3f535cc9	0.82563454
78	0x3f588d09	0.845902
79	0xbda057be	-0.078292355
80	0x3f066388	0.5249562
81	0x3f5912d4	0.84794354
82	0xbd547ea5	-0.05187859
83	0xbd963d64	-0.07335928
84	0xbcf359e4	-0.02970595
85	0x3f1aaf48	0.6042371
86	0x3d71d7c3	0.059043657
87	0x3f5b5605	0.8567813
88	0x3deb7c90	0.11498368
89	0x3f4e90a1	0.80689436
90	0x3f6ead7a	0.93233454
91	0x3f48df9e	0.7846621
92	0x3e0996a3	0.1343637
93	0x3f4d8f20	0.80296516
94	0x3ea55a54	0.32295477
95	0xbe810e10	-0.2520604
96	0xbccad4f7	-0.024759753
97	0x3f36151b	0.71125954
98	0x3d8c5f8f	0.06854164
99	0xbd670ec9	-0.056410585
100	0xbd977dbf	-0.07397031
101	0xbd4cc0cb	-0.04998855
102	0x3f4dc76e	0.8038243
103	0x3f5055e5	0.81381065
104	0x3f516ae3	0.8180372
105	0x3f6d00cf	0.9257936
106	0xbd5df155	-0.05418523
107	0x3f5a5613	0.8528759
108	0x3f3a1997	0.72695297
109	0x3f3b8053	0.7324268
110	0x3f46bf2d	0.7763546
111	0xbda039ef	-0.0782355
112	0x3f60af31	0.8776732
113	0xbd381ebc	-0.044951186
114	0x3f6200d9	0.88282543
115	0x3f5c792c	0.86122394
116	0xbdb8fb78	-0.09032339
117	0x3f1ec2da	0.6201607
118	0xbd06cf66	-0.032912634
119	0x3f482261	0.7817746
120	0x3db28629	0.08716995
121	0xbd55d610	-0.0522061
122	0x3f52550b	0.82161015
123	0x3b915e1d	0.004436268
124	0x3f6fed59	0.9372154
125	0xbc4e1191	-0.01257743
126	0x3f47e45f	0.7808284
127	0x3ac776bf	0.0015217884

network.6.weight f4 [5, 128]
0	0x3e903cec	0.2817148
1	0x3e0f2aa2	0.13981107
2	0x3ec2beaa	0.3803609
3	0x3e3e9ced	0.1861455
4	0x3ebbfcba	0.36716253
5	0x3e426d82	0.18987086
6	0xbe74610e	-0.23865148
7	0xbe053432	-0.13008192
8	0x3e9c0dc4	0.30479252
9	0x3ed840e9	0.42237023
10	0x3e8f782b	0.28021368
11	0x3e8faf4a	0.28063422
12	0x3e84e0c3	0.2595273
13	0x3ebbadb4	0.36655962
14	0x3e8edc42	0.27902418
15	0xbeb652bc	-0.35609996
16	0x3e99dbec	0.300506
17	0x3e2f7a7d	0.1713657
18	0xbecb2bc1	-0.3968182
19	0x3ebe4c3a	0.3716753
20	0x3e64231d	0.2227902
21	0x3e9ed909	0.3102496
22	0x3e9679eb	0.2938989
23	0x3edd0577	0.43168232
24	0xbf12a600	-0.57284546
25	0x3dc2082c	0.09474215
26	0x3e95945d	0.29214755
27	0x3e720fff	0.23638915
28	0x3e0a2974	0.13492376
29	0x3ebff62e	0.37492508
30	0x3ec91321	0.39272407
31	0xbea3efd4	-0.32018912
32	0xbe979615	-0.2960669
33	0x3e181c50	0.1485455
34	0x3edac9d6	0.42732114
35	0xbebde128	-0.37085843
36	0x3eaef7c0	0.34173393
37	0x3eb9f372	0.36318547
38	0x3db36b0c	0.08760652
39	0x3ec69de7	0.38792345
40	0x3d1af273	0.037828874
41	0xbe9082ab	-0.28224692
42	0x3e8a07c6	0.26959056
43	0xbe1fb1ad	-0.15595122
44	0x3e5f55fa	0.21810141
45	0xbe8bc8c5	-0.27301612
46	0x3e876dd0	0.26450968
47	0xbdb60383	-0.088873886
48	0x3e8018f8	0.2501905
49	0x3e924bf2	0.28573567
50	0x3eb4c437	0.3530595
51	0xbe8c6e3b	-0.2742785
52	0xbede04d1	-0.4336305
53	0x3e91e9e8	0.2849877
54	0x3e65d2c8	0.22443688
55	0x3e075843	0.13217263
56	0xbe312fec	-0.17303437
57	0xbf09f7fa	-0.5389401
58	0x3e88edaa	0.26743823
59	0x3ed1b417	0.4095771
60	0xbdf90538	-0.121591985
61	0x3eb0225f	0.34401223
62	0x3eb2c010	0.34912157
63	0x3e906cf9	0.2820814
64	0xbe96230f	-0.29323623
65	0x3ec21c32	0.37912136
66	0x3eba5ee0	0.3640051
67	0xbd6be64a	-0.057592668
68	0x3d828c4d	0.063744165
69	0x3de46c13	0.11153426
70	0x3ebcfd3b	0.3691195
71	0x3e81632f	0.25270984
72	0xbe65a071	-0.22424485
73	0x3e8a621d	0.2702798
74	0x3ec010d5	0.37512842
75	0xbee76b36	-0.45198983
76	0x3e5c2339	0.21497811
77	0x3e707cb9	0.23485078
78	0x3e7ceec0	0.24700451
79	0xbdfd78a7	-0.12376528
80	0xbc65413f	-0.013992607
81	0x3ee865cc	0.45390165
82	0x3eacf451	0.3378015
83	0xbec0551e	-0.3756494
84	0x3da5cf1d	0.08096144
85	0x3e9e60c3	0.30933198
86	0xbe9f94c2	-0.3116818
87	0x3e7f0d28	0.24907362
88	0xbea08a53	-0.31355533
89	0x3e9325e9	0.2873986
90	0x3eb5daf5	0.35518613
91	0x3e38ed1a	0.18059197
92	0xbe1e0d6e	-0.1543481
93	0x3eb387de	0.35064596
94	0xbe91ed98	-0.28501582
95	0xbe2577b3	-0.16158943
96	0xbefff8ee	-0.49994606
97	0x3ed69806	0.4191286
98	0xbefd2deb	-0.49449095
99	0x3e0a71c1	0.13519956
100	0xbe8d97fe	-0.27655023
101	0x3cff3d0a	0.031157035
102	0x3e98b282	0.2982369
103	0x3e2c19ae	0.16806671
104	0x3e828b16	0.2549674
105	0x3eda8ea7	0.4268696
106	0xbe93ad8e	-0.2884335
107	0x3eb233fa	0.3480528
108	0x3e4c3da0	0.19945383
109	0x3e6abd2e	0.22923729
110	0x3eb672e5	0.35634533
111	0xbe28bcd8	-0.16478288
112	0x3eb26b79	0.3484762
113	0x3e148180	0.14502525
114	0x3eb75624	0.35807908
115	0x3eb59e87	0.3547251
116	0xbe93c45a	-0.28860742
117	0x3e141a06	0.14463052
118	0x3eb98f6c	0.36242235
119	0x3e44b9b2	0.19211462
120	0xbed47e22	-0.41502482
121	0xbea4abc0	-0.32162285
122	0x3ecdb04e	0.40173572
123	0x3e2ac03c	0.16674894
124	0x3eb83240	0.35975838
125	0xbebd8149	-0.370127
126	0x3ec0c233	0.37648162
127	0x3e30afa4	0.17254502
128	0x3e7693b5	0.24079783
129	0x3e9dfe43	0.3085805
130	0x3ebe2a16	0.37141484
131	0x3e98d179	0.29847315
132	0xbf02736f	-0.5095739
133	0x3b111826	0.0022139638
134	0xbecfa430	-0.40554953
135	0xbe981ab7	-0.29707882
136	0x3e86248f	0.26199767
137	0xbde3d1b6	-0.111239836
138	0x3e4cfeaa	0.20019022
139	0x3e4d0a60	0.20023489
140	0x3e5b3618	0.21407354
141	0x3ebb47c5	0.36578193
142	0x3e5335f2	0.20626047
143	0xbed69521	-0.4191065
144	0x3e8f354b	0.27970347
145	0x3e9046fb	0.28179154
146	0xbe19b9e4	-0.15012318
147	0x3f14914c	0.58034205
148	0xbd95b8c3	-0.07310631
149	0x3e927b47	0.28609678
150	0x3e93b8c8	0.28851914
151	0x3ea6f743	0.3261052
152	0x3df8b387	0.12143617
153	0x3e13275f	0.14370488
154	0x3e979a1a	0.29609758
155	0x3ead6e6b	0.33873305
156	0xbee780e2	-0.45215517
157	0x3e791cc5	0.24327381
158	0x3e9c8c2d	0.30575696
159	0xbe99fd33	-0.30075988
160	0xbebea386	-0.37234133
161	0x3eb7683b	0.3582171
162	0x3e95f267	0.292865
163	0xbe2773c8	-0.16352761
164	0xbee16a22	-0.44026285
165	0x3eaa770c	0.3329395
166	0x3db6bebf	0.08923101
167	0x3ebced3b	0.36899742
168	0xbe450fea	-0.19244352
169	0xbe05662f	-0.13027261
170	0x3e6673ec	0.22505158
171	0xbeaf3602	-0.34220892
172	0xbedc767b	-0.43059143
173	0xbe895918	-0.26825786
174	0xbf0cfe17	-0.5507521
175	0x3e63a0f7	0.22229372
176	0x3ed2c381	0.41164783
177	0x3e6df8b0	0.23239398
178	0x3e89232b	0.26784644
179	0xbea63535	-0.3246247
180	0xbf223ff9	-0.63378865
181	0x3e204ca3	0.15654235
182	0x3e4fb9b4	0.20285684
183	0x3e8789ea	0.26472408
184	0xbeb5cf76	-0.35509843
185	0xbe2aae20	-0.16667986
186	0x3e902761	0.28155044
187	0x3eb8e6c6	0.36113566
188	0xbbe19106	-0.006883743
189	0x3e7befed	0.24603243
190	0x3ebdfc9c	0.37106788
191	0x3ec50388	0.38479257
192	0xbe920b3d	-0.285242
193	0x3e2502a3	0.16114287
194	0x3f020424	0.5078757
195	0xbe7f6b6f	-0.24943326
196	0x3e9d373e	0.3070621
197	0x3eacc3b7	0.3374307
198	0x3ea5fdb0	0.3242011
199	0x3e9b4840	0.3032856
200	0xbe722237	-0.23645864
201	0x3e8841bd	0.26612654
202	0x3e8af7fe	0.27142328
203	0xbe58ec31	-0.2118385
204	0x3e85da00	0.26142883
205	0x3e8a7e88	0.2704966
206	0x3ea461ba	0.3210581
207	0xbed25666	-0.41081542
208	0x3eac4fc9	0.3365462
209	0x3ebd4ae6	0.36971205
210	0xbf11b34e	-0.5691422
211	0xbeb8bcd8	-0.36081576
212	0x3e1112b8	0.14167297
213	0x3eab180c	0.33416784
214	0x3eaaf972	0.33393437
215	0x3ec5c35d	0.38625613
216	0x3ea497e3	0.3214713
217	0x3ee3941e	0.44448942
218	0x3eb1de52	0.3473993
219	0x3eab1c88	0.33420205
220	0xbdb73f46	-0.08947615
221	0x3eabd3c5	0.33560005
222	0x3e5d6f09	0.21624388
223	0xbe12991d	-0.1431622
224	0x3d0bdbba	0.034145094
225	0x3e81c3de	0.25344747
226	0x3d43d5b2	0.047811218
227	0xbe227e89	-0.15868582
228	0xbe8bbac4	-0.27290928
229	0xbc27464f	-0.010209634
230	0x3e999bf6	0.300018
231	0x3eb1ae7a	0.34703428
232	0x3e95eccd	0.29282227
233	0x3e934448	0.28763032
234	0xbed361e0	-0.4128561
235	0x3e9e9a64	0.30977166
236	0x3e73598a	0.23764625
237	0x3e66e112	0.22546795
238	0x3e868af1	0.2627788
239	0xbe377fe4	-0.1791988
240	0x3e9e0a66	0.30867308
241	0xbee83cea	-0.45358974
242	0x3eba6fb0	0.36413336
243	0x3eb566c1	0.35429958
244	0xbeecccd7	-0.4625003
245	0x3eb09d6f	0.34495112
246	0xbe939d73	-0.28831062
247	0x3e90c32f	0.28273913
248	0x3e98df06	0.29857653
249	0xbbcd3184	-0.0062620062
250	0x3e999a5e	0.30000585
251	0xbdfaafd6	-0.12240569
252	0x3ecfbcdc	0.40573776
253	0x3df24ea5	0.118314065
254	0x3e98654c	0.29764783
255	0xbe9feffa	-0.31237775

network.6.bias f4 [5]
0	0x3f01815a	0.50588
1	0x3f778cd0	0.9669924
2	0x3f10e763	0.5660307
3	0x3f71b2c9	0.9441343
4	0x3f01cdf6	0.50704896

network.0.weight f4 [128, 16]
0	0x3d254672	0.040350385
1	0xba9b4e0c	-0.0011848821
2	0xbca551fb	-0.020180693
3	0x3e6330a8	0.2218653
4	0x3c35d387	0.011097795
5	0xbe334ee7	-0.17510568
6	0x3e95238d	0.29128686
7	0x3dc4ea8f	0.09615051
8	0x3ec99dd3	0.39378223
9	0x3db3688b	0.08760174
10	0x3da85fde	0.0822141
11	0xbd9a0bd1	-0.07521785
12	0xbe35d040	-0.17755222
13	0x3e04b576	0.12959847
14	0xbe0672c6	-0.1312972
15	0xbdf29709	-0.11845214
16	0x3e74f475	0.23921378
17	0x3cdb2f12	0.026755843
18	0xbe02cb8f	-0.12772964
19	0x3e121cf6	0.1426886
20	0xbb8e3307	-0.004339579
21	0x3ecb96bb	0.39763436
22	0xbccd5030	-0.02506265
23	0x3dab414f	0.08362066
24	0x3f2a3573	0.6648781
25	0x3cebeaf3	0.028798556
26	0xbe2dbd27	-0.16966687
27	0xbe1b9977	-0.15195261
28	0x3d2702cc	0.04077415
29	0xbdbd0415	-0.09229294
30	0xbe8511ae	-0.2599005
31	0xbd9e2a7a	-0.077229455
32	0x3d31b1d2	0.043382473
33	0x3e9a27a2	0.30108362
34	0x3c79e895	0.015253206
35	0x3e6ad3a1	0.22932293
36	0xbe199325	-0.14997537
37	0x3e8ddc70	0.27707243
38	0x3d186e6e	0.03721469
39	0xbd4aff6a	-0.049559988
40	0xbc29b14e	-0.010357214
41	0xbd48bd03	-0.04900838
42	0x3e4b7e7f	0.19872473
43	0xbe3219f9	-0.1739272
44	0x3e641849	0.22274889
45	0x3e360e48	0.17778885
46	0xbdef1025	-0.11673001
47	0xbd71d02c	-0.05903642
48	0xbe965b0c	-0.29366338
49	0xbe14eef1	-0.14544274
50	0x3c750313	0.014954346
51	0xbd95cf31	-0.07314909
52	0xbe030555	-0.12795003
53	0x3d47e538	0.048802584
54	0xbe53efd2	-0.20696953
55	0xbddf0650	-0.10889876
56	0x3e3ecc2d	0.18632574
57	0x3d691e56	0.056913696
58	0xbddabc48	-0.10680443
59	0xbe1e6981	-0.15469934
60	0x3ef47ad2	0.47749954
61	0xbd0972b7	-0.033556666
62	0xbddca5d4	-0.10773817
63	0xbba76322	-0.005108253
64	0xbcb49861	-0.022045316
65	0xbe92eec6	-0.28697795
66	0x3e3e1081	0.18560983
67	0x3e23ade6	0.15984306
68	0xbdd8b2d1	-0.105809815
69	0xbcd8dd41	-0.02647269
70	0x3d647e2e	0.055784397
71	0xbd971ae3	-0.07378175
72	0xbf0785b7	-0.5293841
73	0x3e2ad378	0.16682231
74	0xbe0a6b48	-0.13517487
75	0x3d2cfead	0.042235065
76	0x3e9bfe5f	0.30467507
77	0xbd95aa72	-0.073079005
78	0xbed1e5e2	-0.409957
79	0x3ea3be22	0.31980997
80	0x3de77093	0.11300769
81	0x3cefa094	0.029251374
82	0x3e21d884	0.1580525
83	0x3d80b0e8	0.06283742
84	0x3eb08040	0.34472847
85	0x3efd4823	0.49469098
86	0xbcb57186	-0.022148859
87	0x3cec658a	0.028857011
88	0x3e64e7ba	0.22354022
89	0xbe0b4e68	-0.13604128
90	0x3ea62b7e	0.32455057
91	0x3e4ae471	0.19813706
92	0x3e88fe25	0.26756397
93	0x3e857202	0.26063544
94	0xbe1af43f	-0.15132235
95	0xbe07f40c	-0.1327669
96	0x3e35f57b	0.17769425
97	0x3e1f1b59	0.15537776
98	0x3d96701b	0.07345601
99	0xbdb855bf	-0.0900073
100	0x3df38566	0.11890678
101	0x3ea0906b	0.31360182
102	0x3e638cd8	0.22221696
103	0x3da90a51	0.08253921
104	0xbd815d12	-0.0631658
105	0x3e637195	0.22211297
106	0xbe9916cb	-0.29900202
107	0xbe15544a	-0.14582935
108	0x3ef46362	0.47732073
109	0xbe07869a	-0.1323494
110	0x3e49dbaf	0.19712709
111	0x3e6c9955	0.23105367
112	0xbf00c477	-0.5029978
113	0xbe9024e2	-0.2815314
114	0xbdb99632	-0.090618506
115	0xbe6415cb	-0.22273938
116	0x3d75c524	0.06000246
117	0xbeb689c7	-0.3565199
118	0xbe8fd3f9	-0.2809141
119	0x3d0fc3b9	0.035098765
120	0xbe4f6d79	-0.20256604
121	0xbdf90302	-0.12158777
122	0xbe447a25	-0.1918722
123	0x3d844f9c	0.06460497
124	0xbdfd6bc7	-0.123740725
125	0xbe2c6d9d	-0.16838689
126	0xbed68d4c	-0.41904676
127	0xbdfb4d87	-0.122706465
128	0xbe1721c3	-0.14758973
129	0xbd167047	-0.03672817
130	0x3cb3d0ff	0.021950243
131	0xbde434b2	-0.11142863
132	0xbc8b1cf0	-0.016981572
133	0xbe4f72f3	-0.20258693
134	0x3dcc8c8d	0.099877454
135	0xbd6d1cab	-0.057888668
136	0x3e36e7db	0.17861883
137	0x3e7b4495	0.2453788
138	0xbe900ada	-0.2813328
139	0x3daf7493	0.08567157
140	0x3c9d83d1	0.019227894
141	0xbd8ef661	-0.06980587
142	0xbf242d6b	-0.641318
143	0xbe5b4749	-0.21413912
144	0xbe0b2dfe	-0.13591763
145	0xbe51c0c7	-0.20483695
146	0x3e785800	0.2425232
147	0x3e080b9b	0.13285677
148	0x3ecf4a7a	0.4048651
149	0x3e10cdb9	0.14140977
150	0x3cb6e878	0.022327647
151	0xbcbc1747	-0.022960318
152	0xbd1d1833	-0.038353156
153	0xbe3224b5	-0.17396815
154	0x3e11d647	0.14241897
155	0x3e35b451	0.17744567
156	0x3db0a36c	0.0862492
157	0xbd62a4a0	-0.05533278
158	0xbda0c9c9	-0.078509875
159	0x3dc07f64	0.09399298
160	0x3eaad73c	0.33367336
161	0x3e84b6ce	0.2592072
162	0x3dc41f90	0.095763326
163	0xb9e40d9a	-0.00043497683
164	0xbe26df3c	-0.16296095
165	0x3ec2e06d	0.38061848
166	0x3d855f98	0.06512374
167	0xbd21620e	-0.039400153
168	0x3e2b5d39	0.1673478
169	0xbd6d77f8	-0.05797574
170	0xbcf5bbcf	-0.02999678
171	0x3e2da384	0.16956908
172	0x3e532b00	0.20621872
173	0x3dcae7fd	0.099075295
174	0xbe04bff5	-0.12963851
175	0x3dcd22fd	0.10016439
176	0x3d87734f	0.0661379
177	0x3e7667f5	0.24063094
178	0x3d2b06e0	0.041754603
179	0xbd4fc734	-0.050727084
180	0xbd92d10c	-0.07168779
181	0xbe227fc2	-0.15869048
182	0x3e90e03b	0.28296074
183	0xbe2180c9	-0.15771784
184	0x3eb6c160	0.35694408
185	0xbd942092	-0.07232775
186	0xbe614adf	-0.22001217
187	0x3e19bc6a	0.1501328
188	0x3cf8afb0	0.030357212
189	0x3d02cc05	0.03193285
190	0x3dfdadf5	0.12386695
191	0x3d6fc9ad	0.058541942
192	0xbf053337	-0.5203127
193	0xbe34d42b	-0.1765906
194	0xbe2df852	-0.16989258
195	0xbe361942	-0.17783073
196	0x3e779154	0.24176532
197	0xbad3b8a0	-0.0016153045
198	0xbeab5155	-0.3346049
199	0xbbaf3c7c	-0.0053477865
200	0xbd222195	-0.039582808
201	0xba6b59da	-0.00089779275
202	0xbdbf40e4	-0.09338549
203	0xbd0081cc	-0.031373784
204	0xbeb4e199	-0.35328367
205	0xbcfc3f4e	-0.030791905
206	0xbebff138	-0.37488723
207	0xbe870ac5	-0.26375404
208	0x3e772f23	0.24139075
209	0x3db37cf2	0.08764066
210	0x3dab6c77	0.083702974
211	0x3e91cae0	0.28475094
212	0xbd951c50	-0.07280791
213	0xbe2ea7ae	-0.17056152
214	0x3da696d6	0.081342384
215	0xbe3a0ce8	-0.18168986
216	0x3c962bd4	0.018331446
217	0xbdff54fe	-0.12467383
218	0x3d6d2a1e	0.057901494
219	0x3d311b6b	0.04323904
220	0x3dd587fd	0.10426328
221	0x3dbc1631	0.0918392
222	0x3ee119b6	0.43964928
223	0xbd5477ac	-0.05187194
224	0xbf184432	-0.5947906
225	0xbe2cd7f5	-0.16879256
226	0xbe5cb99a	-0.21555176
227	0xbdfec2ac	-0.124394745
228	0x3e6adf64	0.2293678
229	0xbc8ead02	-0.01741648
230	0xbddd195e	-0.10795854
231	0x3d7df829	0.062004242
232	0xbc843d5e	-0.016142543
233	0xbdb17a14	-0.08665863
234	0xbdec6c9b	-0.11544152
235	0x3e0fc359	0.14039363
236	0xbe9399e6	-0.28828353
237	0xbd937fd4	-0.07202116
238	0xbdd47472	-0.10373773
239	0x3e1e32e8	0.15449107
240	0x3d862ddc	0.06551716
241	0xbe396bae	-0.18107483
242	0xbc8138d2	-0.015774164
243	0x3c98d819	0.01865773
244	0xbdafdda0	-0.085871935
245	0xbe1d9a43	-0.15390877
246	0xbe06d987	-0.13168918
247	0x3dc1081c	0.09425375
248	0xbd900b32	-0.07033385
249	0xbc97667b	-0.018481484
250	0x3d7d77c7	0.061881807
251	0x3e09fbb1	0.13474919
252	0x3dd7f07b	0.10543915
253	0x3dbb2895	0.091386
254	0x3e3d4e64	0.18486935
255	0x3d19a848	0.037514

network.0.bias f4 [128]
0	0x3dcf4c72	0.10122003
1	0x3d774635	0.06036969
2	0x3dd33b5b	0.103140555
3	0xbe1dd062	-0.15411523
4	0x3c203c81	0.00978005
5	0x3e343ca0	0.17601252
6	0x3db6069a	0.08887978
7	0xbe39ab21	-0.18131687
8	0xbaed40d2	-0.0018100983
9	0x3e351101	0.17682268
10	0x3de48f45	0.11160139
11	0x3dc9411d	0.098268725
12	0xbe216015	-0.15759309
13	0x3dc64056	0.0968024
14	0xbe006e73	-0.12542133
15	0x00000000	0.0
16	0x3d76462f	0.060125526
17	0xbe026647	-0.12734328
18	0xbcfd805b	-0.030944994
19	0x3de3f6e0	0.11131072
20	0x3e1b019e	0.15137336
21	0x3d46ada4	0.04850544
22	0x3dabf349	0.08396012
23	0x3e1bc658	0.15212381
24	0x3e0578c4	0.1303435
25	0x3dba3cbf	0.09093618
26	0xbd9a8a4f	-0.075459115
27	0xbddbbb51	-0.10729087
28	0x3e09a7df	0.13442944
29	0x3db05440	0.086098194
30	0xbd1ae757	-0.03781828
31	0xbe2aea7c	-0.16691011
32	0x00000000	0.0
33	0x3e047019	0.12933387
34	0xbe32a04b	-0.1744396
35	0x3ce7a9ef	0.028279273
36	0xbe33197c	-0.1749019
37	0x3d8aba6b	0.06773838
38	0x3db6c8ea	0.0892504
39	0x3db6c157	0.089235954
40	0x3d1ab8af	0.037773784
41	0xbd55a611	-0.052160326
42	0xbbe181ce	-0.006881929
43	0x00000000	0.0
44	0x3e033008	0.12811291
45	0x3e1c310c	0.15253085
46	0x3df7cfa9	0.12100155
47	0x3d0f612b	0.035004776
48	0xbe43372f	-0.1906402
49	0x00000000	0.0
50	0xbe38ee88	-0.18059742
51	0xbe0cbb36	-0.1374329
52	0x3e3c5c83	0.18394665
53	0x3dd8a1e4	0.10577753
54	0x3df4365a	0.11924429
55	0xbe3a5dd2	-0.18199852
56	0x3e18e06f	0.14929365
57	0x3db0a05e	0.086243376
58	0x3e07c5a0	0.13258982
59	0x3dd1ec26	0.1025012
60	0xbe05c147	-0.1306201
61	0x3cb078a3	0.0215419
62	0x3cc297dd	0.023754055
63	0xbe2126d9	-0.15737475
64	0x3de24f7a	0.11050315
65	0x3d4dc556	0.050237022
66	0x3d60f77e	0.054923527
67	0xbe59ffdb	-0.21289007
68	0x3df57587	0.11985307
69	0xbe418cd3	-0.18901376
70	0x00000000	0.0
71	0x3d74076c	0.05957739
72	0x3de171b5	0.11008016
73	0xbd5f0bed	-0.054454733
74	0xbdf3a11d	-0.11895964
75	0xbd8612cc	-0.06546554
76	0x3db72fae	0.08944641
77	0x3d7dd5de	0.061971538
78	0xbc6f633b	-0.014611061
79	0x00000000	0.0
80	0x3da98112	0.08276571
81	0x3e4f11dc	0.20221657
82	0xbd30bb5b	-0.043147426
83	0x3df4f5c0	0.119609356
84	0x3df77e43	0.120846294
85	0xbd95b42b	-0.07309755
86	0x3df8ce72	0.12148751
87	0xbbeb3f2e	-0.0071791625
88	0x3ddae61e	0.106884226
89	0x3dc3b1e4	0.09555414
90	0x3e021bf6	0.12705979
91	0x3dc1b5fb	0.09458538
92	0x00000000	0.0
93	0x3c74c1e9	0.01493881
94	0x3dd0c36d	0.101935245
95	0xbcae4f70	-0.021278113
96	0x3cd89b3d	0.02644121
97	0x3e08f2ca	0.13373867
98	0x3d9f6ec9	0.077848025
99	0xbe05e2bf	-0.13074778
100	0xbd1080ce	-0.035279088
101	0x3e36f672	0.17867449
102	0x3ce194e3	0.027536815
103	0xbd6077ea	-0.05480186
104	0x3c69799f	0.014250188
105	0x3db1bb1c	0.086782664
106	0x3d9a7a1d	0.075428225
107	0xbe5c9d20	-0.21544313
108	0x3db95a72	0.09050454
109	0x3dcae72c	0.09907374
110	0x3d90b57f	0.07065868
111	0x3db14405	0.08655552
112	0xbdd48059	-0.10376043
113	0xbe578cc0	-0.21049786
114	0xbe53ff0f	-0.20702766
115	0x3da09cd0	0.078424096
116	0xbca90833	-0.020633793
117	0x3dfee1a4	0.12445381
118	0x3e029efa	0.12755957
119	0x3e1ef653	0.15523653
120	0x3e0700b0	0.13183856
121	0x3d87fd31	0.06640089
122	0x3dd2244d	0.1026083
123	0x3d4282e5	0.047488112
124	0x3e0cb09b	0.13739245
125	0xbe1d4a69	-0.15360416
126	0xbe16b214	-0.14716369
127	0x3dd4c7c4	0.10389665

network.3.weight f4 [128, 128]
0	0x3e378009	0.17919935
1	0xbc492f56	-0.012279352
2	0x3e4749b1	0.19461705
3	0x3da3fcec	0.080072254
4	0x3d47b978	0.04876086
5	0x3deb9649	0.11503274
6	0x3e4a06a2	0.19729093
7	0xbdb65b67	-0.08904152
8	0x3b6dba19	0.0036274253
9	0x3d68f7d9	0.05687699
10	0xbdb1441c	-0.08655569
11	0x3df85879	0.1212625
12	0xbe8602d3	-0.2617403
13	0x3dc09030	0.094025016
14	0xbd654c5c	-0.055981025
15	0xbdb3864b	-0.08765849
16	0x3c0adae3	0.008475038
17	0xbe3f5a78	-0.18686855
18	0xbe0dd4c6	-0.13850698
19	0x3d07fc8b	0.033199828
20	0x3df87a28	0.121326745
21	0x3dbb4802	0.09144594
22	0x3cf46c43	0.02983678
23	0x3e3a9506	0.1822091
24	0x3e070303	0.13184743
25	0x3dd4ee26	0.10396986
26	0x3c7a6e82	0.015285136
27	0xbd4aad0b	-0.049481433
28	0xbcffdd05	-0.03123332
29	0x3e468351	0.1938603
30	0xbe0c2362	-0.13685372
31	0xbd4b9404	-0.049701706
32	0x3c3e8e96	0.011630675
33	0x3e3b72f3	0.18305568
34	0xbe61776c	-0.22018212
35	0x3e10b9af	0.14133333
36	0xbecaeae9	-0.39632347
37	0x3e39d79d	0.18148656
38	0x3de0f70d	0.10984621
39	0xbe10ced7	-0.14141403
40	0xbba3a12c	-0.0049935784
41	0x3d51d9b3	0.051233005
42	0x3e16d502	0.14729694
43	0x3d681b35	0.05666657
44	0x3eac3569	0.336345
45	0x3cfa6501	0.03056574
46	0x3e7f94e7	0.24959145
47	0x3e8885cc	0.2666458
48	0xbf3347ff	-0.7003173
49	0x3d0f6a6d	0.035013605
50	0xbea84096	-0.32861775
51	0xbe18ec49	-0.14933886
52	0xbce1dae6	-0.0275702
53	0x3caed2e2	0.021340791
54	0xbdeb0040	-0.11474657
55	0xbbe0eea0	-0.006864384
56	0x3e18a572	0.14906862
57	0xbdd064be	-0.10175465
58	0xbe0c59ec	-0.13706177
59	0x3e5f7160	0.21820593
60	0xbdda159b	-0.10648652
61	0x3d8e52d7	0.06949394
62	0xbb148ed0	-0.002266813
63	0xbe81ea3b	-0.25374016
64	0xbd17180f	-0.03688818
65	0x3d233fcf	0.039855774
66	0xbd348a7b	-0.044077378
67	0xbf14432b	-0.5791499
68	0x3e0c9674	0.13729268
69	0xbe9cd76b	-0.306331
70	0xbd187293	-0.03721864
71	0x3c851bc9	0.0162486
72	0x3df07ce6	0.117425725
73	0x3d90346c	0.07041249
74	0xbdeb6cd9	-0.114953704
75	0xbda612cb	-0.08109053
76	0xbdaac16a	-0.08337672
77	0x3d48ecd7	0.049053993
78	0x3caea08e	0.021316793
79	0xbdad9f24	-0.08477619
80	0x3d6e9156	0.058244072
81	0x3dfd55df	0.12369894
82	0x3e1e30f0	0.15448356
83	0x3e7875c6	0.24263677
84	0xbd027b3f	-0.031855818
85	0xbddeb1b2	-0.108737364
86	0x3d965e1a	0.07342167
87	0xbda5b0f9	-0.080903955
88	0x3d32bddf	0.043638106
89	0x3e5cc344	0.21558863
90	0x3da8d8c0	0.08244467
91	0x3e3890fd	0.18024059
92	0x3abc5c0b	0.0014370693
93	0x3e5b5f14	0.21422988
94	0xbd1491f3	-0.036272
95	0x3e46c7db	0.19412176
96	0x3e1b5fde	0.15173289
97	0x3eb0dfc1	0.3454571
98	0x3e70d746	0.2351962
99	0xbe9a9410	-0.30191088
100	0x3e8575b9	0.26066378
101	0x3e77b36d	0.24189539
102	0xbd6fbf49	-0.058532033
103	0x3d681ede	0.056670062
104	0x3dcea91e	0.1009085
105	0x3e6e213d	0.23254867
106	0x3e154e34	0.14580613
107	0xbe78d032	-0.2429817
108	0xbcbf5513	-0.023355996
109	0x3c41c78b	0.01182736
110	0x3e247e5f	0.16063832
111	0x3ddd051c	0.1079199
112	0x3b03101d	0.0019998618
113	0xbea343cc	-0.31887662
114	0xbdac3ddf	-0.084102385
115	0x3e58076e	0.21096584
116	0x3dff5fd0	0.12469447
117	0x3e845e0a	0.25852996
118	0x3e64c3b0	0.22340274
119	0xbba7cfac	-0.005121192
120	0x3e5d7191	0.21625353
121	0x3d6468a2	0.055763848
122	0x3d3e0bd9	0.046398018
123	0x3cdcb60b	0.026942274
124	0x3d7d550a	0.061848678
125	0xbcecc742	-0.028903607
126	0x3c9709a7	0.01843722
127	0x3da0ad54	0.0784556
128	0x3d77a393	0.06045873
129	0x3c384c12	0.011248605
130	0x3e3a9b75	0.18223365
131	0x3e31ca7a	0.17362395
132	0x3e417503	0.18892293
133	0xbc940b23	-0.018071717
134	0x3e006c63	0.12541346
135	0xbcbe9c42	-0.023267869
136	0xbd24e300	-0.040255547
137	0x3e86367d	0.26213446
138	0x3d8baf9a	0.06820603
139	0xbe3a450a	-0.18190399
140	0xbe9b292a	-0.30304843
141	0x3d975f39	0.07391209
142	0xbd45af3e	-0.048262827
143	0xbb600150	-0.003418047
144	0xbc61aabd	-0.013773617
145	0xbec9d2a4	-0.3941852
146	0x3d4c9cbc	0.04995416
147	0x3cf32bba	0.029683936
148	0x3d25e562	0.04050196
149	0xbc4dcfde	-0.012561766
150	0x3ce38b2e	0.027776327
151	0x3e0c0bef	0.13676427
152	0xbd1d6f11	-0.038436
153	0xbc821d86	-0.015883218
154	0x3e42e60a	0.19033065
155	0xbdbb303b	-0.091400586
156	0x3d98c87d	0.07460115
157	0x3e6520b7	0.22375761
158	0x3e1804eb	0.14845626
159	0x3d9294cb	0.07157286
160	0x3dffc040	0.12487841
161	0x3dcfc6da	0.1014535
162	0xbc223c2f	-0.009902044
163	0xbb756fa2	-0.0037450572
164	0xbe9ee209	-0.31031826
165	0x3e3363de	0.17518565
166	0x3c289a7e	0.01029074
167	0x3cdfa2de	0.02729934
168	0xbd8bde17	-0.0682947
169	0x3ce10f89	0.027473228
170	0x3e20fe55	0.1572202
171	0xbe0e9a84	-0.1392613
172	0x3df84572	0.12122621
173	0x3e03c27a	0.12867156
174	0xbdf5d171	-0.120028384
175	0x3d5b5d0b	0.05355553
176	0xbe80e99b	-0.25178227
177	0x3dcffe2d	0.10155902
178	0xbebaf994	-0.36518538
179	0xbec7eb54	-0.3904673
180	0x3ea60dd7	0.32432434
181	0x3e891c10	0.26779222
182	0xbe328810	-0.17434716
183	0xbe33878f	-0.1753218
184	0x3d53e3c0	0.05173087
185	0x3e25a85f	0.1617751
186	0xbdb16aba	-0.086629346
187	0x3e2a8156	0.166509
188	0xbe2f751a	-0.17134514
189	0x3df3ecbc	0.11910388
190	0x3ea50ce1	0.32236388
191	0xbe8242e5	-0.2544166
192	0x3d4a1e3e	0.049345247
193	0xbdf92171	-0.121645816
194	0x3d670079	0.056396935
195	0xbea782b0	-0.32716894
196	0x3c5d790b	0.013517628
197	0xbe08a9d9	-0.13346042
198	0xbd5b1089	-0.053482566
199	0xbde4591e	-0.1114981
200	0x3e8dd00b	0.27697787
201	0x3db81bf9	0.0898971
202	0xbdcb699c	-0.09932253
203	0xbdf80a55	-0.12111346
204	0xbda3c017	-0.079956226
205	0x3c2ae5e5	0.010430788
206	0x3df12471	0.11774529
207	0xbd121224	-0.03566183
208	0x3a79abe6	0.0009524211
209	0xbdf3473f	-0.118788235
210	0x3e012904	0.12613302
211	0x3e0cd17f	0.13751791
212	0x3e0eca03	0.13944249
213	0x3cdf3967	0.027249051
214	0x3e337714	0.17525893
215	0xbc3a1bc0	-0.011359155
216	0x3e7fa79f	0.24966286
217	0x3e84ec07	0.25961325
218	0xbd655eeb	-0.055998724
219	0x3e3d6e4b	0.18499105
220	0xbdd0b500	-0.10190773
221	0x3d19ff40	0.03759694
222	0x3d51638d	0.05112033
223	0xbcbd6439	-0.023119079
224	0xbdbb5c79	-0.09148497
225	0x3e0190b5	0.12652858
226	0x3dc0824d	0.09399853
227	0xbe851f78	-0.2600057
228	0x3e7d2c7c	0.24724
229	0x3e685a12	0.22690609
230	0xbe42a734	-0.19009095
231	0xbd7f018c	-0.062257335
232	0x3d910217	0.07080477
233	0xbc976033	-0.018478489
234	0x3d3c2958	0.045937866
235	0xbd9b086c	-0.07569966
236	0xbda7eed0	-0.08199847
237	0x3dad27b9	0.08454842
238	0x3e014241	0.1262293
239	0x3e208725	0.15676554
240	0xbe4e4796	-0.20144495
241	0xbe845d37	-0.25852367
242	0xbeba6db3	-0.3641182
243	0x3dc8505b	0.097809516
244	0x3cbb2e39	0.02284919
245	0xbdce8440	-0.100838184
246	0x3dc9a3f9	0.098457284
247	0x3dd0a2ba	0.10187288
248	0x3e499f23	0.19689612
249	0x3e4ce6e4	0.20009953
250	0x3e6c1292	0.23053959
251	0x3d758185	0.059937973
252	0x3e8be6d9	0.2732456
253	0xbe1f81b2	-0.15576819
254	0x3dd8fcd0	0.10595095
255	0x3dc10d1c	0.094263285

network.3.bias f4 [128]
0	0x3f6fef82	0.93724835
1	0x3f48b289	0.78397423
2	0x3f51f7ac	0.8201854
3	0x3f700063	0.9375059
4	0x3d8927ad	0.06697021
5	0x3ed9f4f6	0.42569703
6	0xbd94250d	-0.072336294
7	0xbdfb85dc	-0.12281391
8	0x3f51c5b7	0.81942314
9	0x3dff9574	0.12479678
10	0x3f39f9b6	0.72646654
11	0x3f4b28db	0.79359215
12	0x3f52597f	0.8216781
13	0x3f4ce237	0.80032676
14	0x3f47f263	0.7810423
15	0xbd9ed7a5	-0.07755975
16	0x3f63a048	0.88916445
17	0x3d380bee	0.044933252
18	0xbd48bbb8	-0.049007148
19	0x3f8f70a0	1.1206245
20	0xbc4298d7	-0.01187726
21	0x3f5f276b	0.8716952
22	0x3f73217d	0.94972974
23	0x3f1858b1	0.5951033
24	0xbbcd21ee	-0.0062601482
25	0xbd1ec7bc	-0.0387647
26	0x3f52fe05	0.82418853
27	0x3f534ffa	0.8254391
28	0xbd03d6ae	-0.032187156
29	0x3f50efa1	0.81615645
30	0x3f6521fb	0.89504975
31	0xbdd6577b	-0.10465904
32	0xbdcf601d	-0.10125754
33	0x3f3f4fe0	0.74731255
34	0x3f49c648	0.7881818
35	0xbdaaf558	-0.08347577
36	0xbd56fad4	-0.052485302
37	0x3f50f5a9	0.8162485
38	0x3eebe6ab	0.46074423
39	0x3f3e8ea7	0.7443642
40	0x3d3ffae9	0.046870146
41	0x3d882011	0.06646741
42	0x3f35615f	0.708517
43	0xbdccea61	-0.10005642
44	0xbd4e420d	-0.05035596
45	0xbde6634f	-0.1124941
46	0xbdc9b68c	-0.09849271
47	0x3eedbe22	0.46434122
48	0x3f4663c2	0.7749597
49	0x3f1883c5	0.59576064
50	0x3f5ba4a1	0.8579808
51	0xbdcaff4e	-0.09911977
52	0xbd685f47	-0.05673149
53	0x3e96756f	0.2938647
54	0x3f5dc389	0.8662649
55	0x3f54c375	0.83110744
56	0xbdaecc45	-0.08535055
57	0xbda117b8	-0.07865852
58	0x3f83b971	1.0290967
59	0x3f623773	0.8836586
60	0xbd85f8e2	-0.06541611
61	0x3f4893b3	0.7835037
62	0x3f4a4ee2	0.79026616
63	0x3f3962bc	0.7241628
64	0xbdb54e18	-0.08852786
65	0x3ee6f2f1	0.45107225
66	0x3f45d968	0.7728486
67	0xbdb3caef	-0.08778941
68	0x3f46c9bc	0.7765157
69	0x3f147e0a	0.5800482
70	0x3f51c962	0.8194791
71	0x3f5006b6	0.8126024
72	0xbcb6d3ae	-0.022317734
73	0x3f54b392	0.830865
74	0x3f5109df	0.8165569
75	0xbdc2c525	-0.095102586
76	0x3f770acf	0.9650087
77	0x3f4fd484	0.8118365
78	0x3f55c990	0.83510685
79	0xbda11da4	-0.078669816
80	0x3f02e34e	0.5112809
81	0x3f55231b	0.8325669
82	0xbd6ef4f8	-0.05833909
83	0xbda2d24c	-0.07950267
84	0xbcf359e4	-0.02970595
85	0x3f18243b	0.59430283
86	0x3d7fea6b	0.062479418
87	0x3f58af2e	0.84642303
88	0x3de8fdae	0.113765106
89	0x3f4dc8c5	0.80384475
90	0x3f6a1671	0.9144049
91	0x3f45fc8a	0.7733847
92	0x3e0a41f6	0.13501725
93	0x3f4aaf19	0.7917343
94	0x3e9f4c0d	0.3111271
95	0xbe80bd60	-0.25144482
96	0xbcbd80be	-0.023132678
97	0x3f330e4e	0.699437
98	0x3d8b4b48	0.06801468
99	0xbd670ec9	-0.056410585
100	0xbd9b041e	-0.07569145
101	0xbd4cc0cb	-0.04998855
102	0x3f4c5c3a	0.79828227
103	0x3f4d7f69	0.8027254
104	0x3f4dfe45	0.8046611
105	0x3f68fb24	0.9100821
106	0xbd6776ea	-0.05650989
107	0x3f561e0e	0.8363961
108	0x3f37ee50	0.7184801
109	0x3f3795b5	0.7171281
110	0x3f4290f5	0.76002437
111	0xbd9a3ad3	-0.07530751
112	0x3f5d0e7d	0.8635023
113	0xbd3f16ee	-0.046652727
114	0x3f5e83de	0.86919963
115	0x3f5a7d5c	0.85347533
116	0xbdc2adbf	-0.09505796
117	0x3f1a1886	0.6019367
118	0xbcecd92d	-0.028912151
119	0x3f466c22	0.7750875
120	0x3dadd712	0.08488287
121	0xbd567eb0	-0.052366912
122	0x3f4f75ee	0.8103932
123	0xbb523bf6	-0.0032079197
124	0x3f6ba215	0.9204419
125	0xbc86570e	-0.016398933
126	0x3f44bd2f	0.7685117
127	0x3b98955d	0.0046564774
